neural_network/models/dynamic_quant_model.tflite (tflite, 12120 bytes, 6 tensors)

sequential_1/dense_1/BiasAdd/ReadVariableOp f4 [4]
00000000: ca63 e43d e08b 48bd 8d40 d93c 6be0 6dbc
0.11151846 -0.04896152 0.026520038 -0.014518837

sequential_1/conv2d_2/BiasAdd/ReadVariableOp f4 [32]
00000000: ea46 e3bc 1692 30bd ce34 0dbe d094 45bd
00000010: 2506 c2bd bf7b 3fbd 4269 89bd d4c1 cb3c
00000020: bb87 88bd 858f 55bd d057 2e3c baa8 29bd
00000030: 9eea 1bbc c86d 00bd 7e74 a9bd 9a31 67bd
00000040: 2d45 73bd de11 9dbc c117 093d e426 b6bd
00000050: 4810 efb8 e4ec 0cbe 174b 21bd 326b b6bb
00000060: 59bb 99bd 1b69 d6bd f75c 3abe 573d d13b
00000070: 5bb3 84bd fded a8bb c188 48bd d39b a6bd
-0.027743775 -0.04310807 -0.13789675 -0.04823762 -0.09473828 -0.046748873 -0.067095295 0.024872698
-0.066665135 -0.052138824 0.010641053 -0.041420676 -0.009516386 -0.031354696 -0.08274172 -0.056443788
-0.059392143 -0.019173559 0.03346992 -0.088941365 -0.00011399441 -0.13762242 -0.039378252 -0.005566978
-0.07506437 -0.10469266 -0.18199526 0.006385486 -0.06479522 -0.0051553235 -0.048958544 -0.0813519

sequential_1/conv2d_3/BiasAdd/ReadVariableOp f4 [16]
00000000: 3675 013e e13c bc3b 242f ba3d 550c a43d
00000010: 1fa6 8e3d 5193 883d 5813 b03c 993e debd
00000020: 6d95 a53c a6e1 eebd 466c 7dbd 340e 1ebe
00000030: 2a0a aa3d 47fa f6bd 7152 ac3d ee3f 2bbe
0.12642369 0.005744562 0.090910226 0.08010165 0.06965279 0.066687234 0.021493599 -0.10851783
0.020212853 -0.11664133 -0.061870836 -0.15435106 0.0830272 -0.12059455 0.08414162 -0.16723606

sequential_1/conv2d_2/Conv2D f4 [32, 3, 3, 1]
00000000: 00aa fd3d 7d0b 273d 3a77 ce3d 5c74 90bd
00000010: c3c7 053e a9ad b9bc 1028 393e 5fef 153e
00000020: 3a92 89bb 090e 153e c97f 173e 20ff b1bd
00000030: d316 5f3b 1d54 323e 28c9 a13e f68b cfbd
00000040: 6e6b 3abe d526 c13e 2fc9 093e 2e0b 88bd
00000050: 3386 8b3d 8392 173d 9419 efba 2922 1d3d
00000060: b543 31be 8377 93bd 5687 1abc 0898 1f3d
00000070: b4ff 103b 2c3c 8d3d 23a5 dc3d d497 6b3e
00000080: 8c73 03bd da4c 1b3d 63c5 113e 4696 7e3e
00000090: 8e3c 123e b073 edbd 8801 eebe a02c 833c
000000a0: c47e 4c3e e833 96bd 4b7d 223c 1942 4a3d
000000b0: 0805 103f 9da6 39be 82b8 7dbe a350 823d
000000c0: e924 4fbd aec9 d6bb 22d9 d83d 610d 353e
000000d0: ec45 863e 150c a33e 3058 e43d 5145 633d
000000e0: 2f8f a6be ddd9 2cbd b191 3dbd fe4c 31be
000000f0: 6494 91bd 72af 3e3e 4c1a 0d3e 3e05 313e
00000100: 9886 dc3d 5ead 5f3e 5c97 edbd 7329 523d
00000110: 4006 03bd 6e3a 5dbe f0e6 833d 3e4d 3fbe
00000120: 88bf a9bd 1d56 5dbe e042 2ebe e246 5dbd
00000130: 0377 c6bd 301e ea3d b491 2c3e 42f4 7d3e
00000140: 7d43 92be 5ae3 27bd b610 1d3e 47aa 1ebe
00000150: fdc2 cbbd 5a7f 4c3e 16af 27be 8a28 1a3e
00000160: 2838 a0bd eee7 bcbc 1d8e 393e 0d38 c13e
00000170: 9551 363d 707e 8abd 1eea 383e be62 25be
00000180: 2f8c 1cbe 40c1 55be 7f3b babd c69b d0bc
00000190: 84a4 8c3c e902 463d 8f9e 81bd a7c2 403e
000001a0: dedd 28be dc29 883d f799 1a3e a5c7 2cbe
000001b0: 78a5 403e f65b 3dbe cdb1 a1be 12bc 69be
000001c0: 866d 53be 7205 cebe 95d3 013d d64f 333e
000001d0: 2623 f5bc 4cd5 6d3e e356 a63e 1ff1 363e
000001e0: 516a 80bd e523 583e 99cf 163f edac bfbd
000001f0: 4916 8cbd d347 983e bb53 0b3e cb5b 633e
00000200: 996c 9e3d 2fa4 223e 4610 a03c 6e81 ac3d
00000210: 9240 653d 4b28 45be d017 643e 3e48 88bc
00000220: 19aa 713d 7d58 27be f187 2c3e 8e14 6b3e
00000230: a9f3 85be 7a48 e3bd 1e46 c8bd d1ce afbe
00000240: 2dbb bd3e 3cfa 063d 1d34 99be e098 ac3d
00000250: a97c 9dbd fa55 39be 42f6 7bbe 6cd5 3b3e
00000260: 1849 3c3e f9c1 1dbd d1b3 b4bd 1b37 dc3d
00000270: 6b31 29bd 5a09 46be 8f33 fa3b b761 01be
00000280: 5337 aebd 399f ab3d a650 05ba a3f8 a3bd
00000290: a66b 913e 13a0 0c3e f720 a43d d575 293e
000002a0: a482 443e 1bda f93d 5cf4 01be c177 2b3e
000002b0: a3d8 72be c3e5 463e 45b5 04be 5d58 a93d
000002c0: f7b8 a5bc 4b3c 8fbd b458 813e 1eb2 6dbe
000002d0: 5fdb c5bd 8602 61be 6a27 823e 382f 0abe
000002e0: ae71 6ebb 22fe 37bc a891 493e fd92 4f3e
000002f0: e0a7 68be 343b a83d f804 79bc 1ab0 42be
00000300: ffc7 783c da61 2bbe 020c 3bbe dfb3 4fbe
00000310: 10c2 cbbc 6cf5 a73e 687a 35be f887 03be
00000320: 8666 15be a113 03be 44bc 473e 92a1 703e
00000330: 866a ae3d 3ebf 583e 847c 453e 0ead 3e3e
00000340: 70f2 35be 7c50 133e 378a 3bbe c8aa 053e
00000350: ac12 963c ac5a e2ba 2677 be3d 13ca eb3c
00000360: 010b cfbd f455 923d 8b0f 863d 60bf 2cbe
00000370: e4e7 5ebd 7b17 e8be 4fe0 303e ec1a e6bd
00000380: b293 d1be 9dbd bb3d 958a f2bd 5d79 cfbd
00000390: 9bb0 5b3d 7e2f 22be b01b 47bd 7881 23bd
000003a0: 199d 06be 1426 7c3d 79c8 dc3d b236 6abe
000003b0: b90a 8b3d e75c 183e 0b18 ee3d 5b47 4abe
000003c0: 7b18 a0bc 2e6b 503e 69c9 72be ac0b 17be
000003d0: a96c 02bd e347 78be 12ec 4fbe c0ab 2bbd
000003e0: 7fda 733d a8c8 5c3e 8a05 363e dd9f ac3e
000003f0: 484d 473e 1c72 5e3d 8943 aabd 8e54 773e
0.123859406 0.04078244 0.100813344 -0.07053444 0.13064484 -0.022665815 0.18081689 0.14642094
-0.00419834 0.14556135 0.1479484 -0.08691239 0.0034040704 0.17414899 0.31598783 -0.10134117
-0.18205044 0.3772494 0.13455652 -0.06642757 0.06812706 0.03700496 -0.0018241876 0.038362656
-0.17310984 -0.072005294 -0.009431681 0.038963348 0.0022125067 0.068962425 0.10773685 0.23007137
-0.032092616 0.03791509 0.14235453 0.24862012 0.14280912 -0.11594331 -0.46485543 0.01601249
0.19970232 -0.07334119 0.0099175675 0.049379442 0.5625768 -0.18129964 -0.24777415 0.063630365
-0.05057231 -0.006554804 0.1058829 0.17680885 0.2622522 0.31845155 0.11149633 0.055486027
-0.32531115 -0.042199958 -0.04628152 -0.17314526 -0.071083814 0.18621615 0.13779563 0.17287156
0.10767859 0.21843478 -0.11601135 0.05130906 -0.031988382 -0.2160432 0.06440532 -0.1868181
-0.08288485 -0.21614881 -0.17017698 -0.054022677 -0.096906684 0.11431539 0.16852456 0.24800208
-0.28567114 -0.040988304 0.15338406 -0.15494643 -0.099493004 0.19970456 -0.16375384 0.15054527
-0.07823211 -0.023059811 0.18120618 0.37738076 0.044511396 -0.06762397 0.18058059 -0.16150948
-0.15287851 -0.208745 -0.09093379 -0.025464904 0.01716829 0.04834262 -0.06329071 0.18824254
-0.16490886 0.06648609 0.15097795 -0.16873033 0.18813121 -0.18492112 -0.31580964 -0.2282565
-0.20647249 -0.4023853 0.03169592 0.17510924 -0.029923987 0.23225898 0.32488164 0.17865418
-0.06270278 0.21107443 0.5891052 -0.09359155 -0.06840188 0.29742298 0.1360616 0.22202985
0.07735557 0.15882944 0.01953901 0.08423124 0.055969782 -0.19253652 0.22274709 -0.01663601
0.05900011 -0.1634235 0.16848733 0.2295706 -0.2616246 -0.11097808 -0.09778999 -0.34337476
0.37056866 0.032953486 -0.29922572 0.08427596 -0.07689793 -0.18099204 -0.24605659 0.18343133
0.18387258 -0.038515065 -0.0882336 0.10752698 -0.041306894 -0.19339505 0.007635541 -0.12634932
-0.08506646 0.08379979 -0.0005085565 -0.08006408 0.28402442 0.13732938 0.080141 0.16548856
0.1919046 0.121998034 -0.12690872 0.16744901 -0.23715453 0.19423585 -0.12959774 0.08268807
-0.0202298 -0.06993922 0.25262988 -0.23212478 -0.09660982 -0.21973619 0.25420696 -0.13494575
-0.0036383676 -0.011230024 0.1968447 0.20270915 -0.22720289 0.08214417 -0.015198939 -0.1901249
0.015184402 -0.16736546 -0.182663 -0.20283459 -0.02487281 0.3280443 -0.17722476 -0.12844837
-0.14589891 -0.12800457 0.19505411 0.23499134 0.085164115 0.21166703 0.1928578 0.18620703
-0.17768264 0.14386171 -0.18314444 0.13053429 0.01831945 -0.0017269454 0.093000695 0.02878288
-0.10109521 0.071453005 0.06545933 -0.16869879 -0.054420367 -0.45330414 0.17273067 -0.11235604
-0.40932995 0.09167025 -0.11842839 -0.1013057 0.05363522 -0.1583843 -0.04861039 -0.039918393
-0.13145865 0.06155975 0.107804246 -0.22872427 0.067891546 0.1487919 0.116256796 -0.19753782
-0.019542923 0.20353386 -0.23709644 -0.14750546 -0.031841908 -0.24246173 -0.20304897 -0.04191184
0.059534546 0.2156092 0.1777555 0.33715716 0.19463074 0.054308042 -0.083136626 0.24153349

sequential_1/conv2d_3/Conv2D i1 [16, 3, 3, 32]
00000000: c008 14c6 edfe 3bd2 0820 c4f4 e6e9 11f5
00000010: 1209 f146 0820 e924 d32f c208 18fd e3da
00000020: e9c1 10e7 f0b5 05df c14d 3d16 eef8 1b1f
00000030: 1ee2 15d9 120b bf1a 32ec 13bf 20ff 13d9
00000040: fdf7 fe1b 08f4 11ff dcb0 ddee 4bed eaf1
00000050: 4345 08ea 0e48 1007 fcfa dffb f224 ecbd
00000060: 0f21 f304 ed18 01db cb33 e01b bb0b dbfa
00000070: f104 ef03 34c1 eb2b d9f4 d720 0dfc f703
00000080: 29f2 e71e 1bd7 18d5 0b23 e726 f9dc 023c
00000090: 1300 360b 21e8 dc01 14fc 2ad8 230a d7ff
000000a0: 26ee c240 f32e 07e0 2d25 051a 22f3 db13
000000b0: 3833 f939 6d3f 35d5 2cd4 2911 0036 7f13
000000c0: 2e0d aef7 0a05 d4b2 09ed f8c6 0d00 2afa
000000d0: 9fd5 f9de 62d5 25fe f1f3 1ad3 fdcb fa08
000000e0: 0c21 0d0b 3920 2efd d5fa f522 e61c 0be9
000000f0: 09ee 1cf7 02f7 1b11 c709 f4e9 2bd2 cca6
-64 8 20 -58 -19 -2 59 -46
8 32 -60 -12 -26 -23 17 -11
18 9 -15 70 8 32 -23 36
-45 47 -62 8 24 -3 -29 -38
-23 -63 16 -25 -16 -75 5 -33
-63 77 61 22 -18 -8 27 31
30 -30 21 -39 18 11 -65 26
50 -20 19 -65 32 -1 19 -39
-3 -9 -2 27 8 -12 17 -1
-36 -80 -35 -18 75 -19 -22 -15
67 69 8 -22 14 72 16 7
-4 -6 -33 -5 -14 36 -20 -67
15 33 -13 4 -19 24 1 -37
-53 51 -32 27 -69 11 -37 -6
-15 4 -17 3 52 -63 -21 43
-39 -12 -41 32 13 -4 -9 3
41 -14 -25 30 27 -41 24 -43
11 35 -25 38 -7 -36 2 60
19 0 54 11 33 -24 -36 1
20 -4 42 -40 35 10 -41 -1
38 -18 -62 64 -13 46 7 -32
45 37 5 26 34 -13 -37 19
56 51 -7 57 109 63 53 -43
44 -44 41 17 0 54 127 19
46 13 -82 -9 10 5 -44 -78
9 -19 -8 -58 13 0 42 -6
-97 -43 -7 -34 98 -43 37 -2
-15 -13 26 -45 -3 -53 -6 8
12 33 13 11 57 32 46 -3
-43 -6 -11 34 -26 28 11 -23
9 -18 28 -9 2 -9 27 17
-57 9 -12 -23 43 -46 -52 -90

sequential_1/dense_1/MatMul i1 [4, 704] scale=0.0053021214 zero_point=0
00000000: 2621 0eca edee 0515 3fee da0a 0c0f 3bef
00000010: e8cf d769 ca12 0b15 05cf ced5 1918 e7f3
00000020: 2be7 fb4a ef0e f80d ddfc e1f9 e6df 3116
00000030: f1f7 bee8 4822 0720 b93d d7f5 3902 1b05
00000040: 0bf0 0ad5 f9d0 f5f6 1608 eef9 f111 11e2
00000050: f0e8 f146 b627 da36 e2d4 e7f2 e5eb ebd0
00000060: edfd dc13 1fed d1cf fffb e6e9 e4ff fb17
00000070: f4ff 0bf6 0a32 1be4 b131 f4df 1814 08d4
00000080: 0e01 0be6 03cc 17fa 0ced edfb f018 040f
00000090: fbf8 ed38 cae8 f219 fccf e8dd 100b e0e0
000000a0: 0c25 f211 3713 dffb d8fd f0ff 0404 0315
000000b0: d1cf d3d7 eaee 01de ccfd 08eb 49f2 e5d9
000000c0: 1dfd f7c6 fbc6 1bf2 f5ee 05fb 06fe 01eb
000000d0: 11d6 cc5d d709 e506 dfe9 03c5 1205 cec2
000000e0: 050d daed faf7 fa00 f7ef 00e3 15f5 0608
000000f0: c6c9 b1cf 0524 03e5 e5fa 23e8 31f8 fdd2
0.20148061 0.17497 0.0742297 -0.28631455 -0.100740306 -0.09543818 0.026510607 0.111344546
0.33403364 -0.09543818 -0.20148061 0.053021215 0.063625455 0.07953182 0.31282517 -0.090136066
-0.12725091 -0.25980395 -0.21738698 0.55672276 -0.28631455 0.09543818 0.058323335 0.111344546
0.026510607 -0.25980395 -0.26510608 -0.22799122 0.13255304 0.12725091 -0.13255304 -0.06892758
0.22799122 -0.13255304 -0.026510607 0.392357 -0.090136066 0.0742297 -0.04241697 0.06892758
-0.18557425 -0.021208486 -0.16436577 -0.03711485 -0.13785516 -0.17497 0.25980395 0.11664667
-0.07953182 -0.04771909 -0.34994 -0.12725091 0.38175273 0.18027213 0.03711485 0.16966788
-0.37645063 0.3234294 -0.21738698 -0.058323335 0.3022209 0.010604243 0.14315727 0.026510607
0.058323335 -0.08483394 0.053021215 -0.22799122 -0.03711485 -0.25450182 -0.058323335 -0.053021215
0.11664667 0.04241697 -0.09543818 -0.03711485 -0.07953182 0.090136066 0.090136066 -0.15906364
-0.08483394 -0.12725091 -0.07953182 0.3711485 -0.392357 0.20678273 -0.20148061 0.28631455
-0.15906364 -0.23329334 -0.13255304 -0.0742297 -0.14315727 -0.111344546 -0.111344546 -0.25450182
-0.100740306 -0.015906364 -0.19087636 0.100740306 0.16436577 -0.100740306 -0.2491997 -0.25980395
-0.0053021214 -0.026510607 -0.13785516 -0.12194879 -0.1484594 -0.0053021214 -0.026510607 0.12194879
-0.063625455 -0.0053021214 0.058323335 -0.053021215 0.053021215 0.26510608 0.14315727 -0.1484594
-0.4188676 0.25980395 -0.063625455 -0.17497 0.12725091 0.10604243 0.04241697 -0.23329334
0.0742297 0.0053021214 0.058323335 -0.13785516 0.015906364 -0.2757103 0.12194879 -0.031812727
0.063625455 -0.100740306 -0.100740306 -0.026510607 -0.08483394 0.12725091 0.021208486 0.07953182
-0.026510607 -0.04241697 -0.100740306 0.2969188 -0.28631455 -0.12725091 -0.0742297 0.13255304
-0.021208486 -0.25980395 -0.12725091 -0.18557425 0.08483394 0.058323335 -0.16966788 -0.16966788
0.063625455 0.1961785 -0.0742297 0.090136066 0.29161668 0.100740306 -0.17497 -0.026510607
-0.21208486 -0.015906364 -0.08483394 -0.0053021214 0.021208486 0.021208486 0.015906364 0.111344546
-0.2491997 -0.25980395 -0.23859546 -0.21738698 -0.11664667 -0.09543818 0.0053021214 -0.18027213
-0.2757103 -0.015906364 0.04241697 -0.111344546 0.38705486 -0.0742297 -0.14315727 -0.20678273
0.15376152 -0.015906364 -0.04771909 -0.30752304 -0.026510607 -0.30752304 0.14315727 -0.0742297
-0.058323335 -0.09543818 0.026510607 -0.026510607 0.031812727 -0.010604243 0.0053021214 -0.111344546
0.090136066 -0.22268909 -0.2757103 0.49309728 -0.21738698 0.04771909 -0.14315727 0.031812727
-0.17497 -0.12194879 0.015906364 -0.31282517 0.09543818 0.026510607 -0.26510608 -0.32873154
0.026510607 0.06892758 -0.20148061 -0.100740306 -0.031812727 -0.04771909 -0.031812727 0.0
-0.04771909 -0.090136066 0.0 -0.15376152 0.111344546 -0.058323335 0.031812727 0.04241697
-0.30752304 -0.29161668 -0.4188676 -0.25980395 0.026510607 0.19087636 0.015906364 -0.14315727
-0.14315727 -0.031812727 0.18557425 -0.12725091 0.25980395 -0.04241697 -0.015906364 -0.24389759
