neural_network/models/dynamic_quant_model.tflite (tflite, 66728 bytes, 6 tensors)

sequential_5/dense_5/BiasAdd/ReadVariableOp f4 [6]
1.0353503 -0.50753474 0.4435436 -0.059853375 0.08547513 -0.41103512
00000000: 5c86 843f cced 01bf 2618 e33e d028 75bd
00000010: 960d af3d 3273 d2be

sequential_5/conv2d_10/Relu;sequential_5/conv2d_10/BiasAdd;sequential_5/conv2d_10/Conv2D;sequential_5/conv2d_10/BiasAdd/ReadVariableOp f4 [32]
-1.0675128 0.059581585 -0.58499366 -0.5723988 -0.22985816 -0.06927357 -0.22078593 0.068869226
-0.08659202 -0.37651595 -1.8702626 -0.99159366 -0.108674586 -0.14056787 -0.74879485 -0.42932397
-0.035248972 -0.12802702 -0.07665201 -0.06987527 -0.88435066 -0.26599756 -0.6475817 -0.395577
-0.56514114 -0.6222256 -0.10536995 -0.7895059 -0.3593719 -1.3049713 -0.12896138 -1.1202229
00000000: 42a4 88bf d20b 743d 25c2 15bf ba88 12bf
00000010: f05f 6bbe 4ddf 8dbd b515 62be 4f0b 8d3d
00000020: 2857 b1bd b3c6 c0be c464 efbf 15d9 7dbf
00000030: c890 debd 06f1 0fbe 05b1 3fbf 5ad0 dbbe
00000040: 3a61 10bd 8419 03be bbfb 9cbd c41a 8fbd
00000050: ce64 62bf d530 88be eac7 25bf 1289 cabe
00000060: 17ad 10bf 2d4a 1fbf 33cc d7bd 0f1d 4abf
00000070: 98ff b7be 4d09 a7bf 740e 04be 7763 8fbf

sequential_5/conv2d_10/Relu;sequential_5/conv2d_10/BiasAdd;sequential_5/conv2d_10/Conv2D;sequential_5/conv2d_10/BiasAdd/ReadVariableOp1 f4 [32, 3, 3, 1]
0.027250297 0.003092431 -0.063577 0.020470424 -0.015986325 -0.040788688 -0.04363919 -0.021773065
-0.004820377 -0.07032864 -0.05442939 -0.013868454 -0.008902895 -0.003736072 0.011870216 0.07491826
0.059460502 -0.0029037867 0.0047750687 -0.0067120367 -0.0060490565 -0.0036988966 -0.00466859 -0.02579989
0.0025577485 -0.015909323 -0.0075414423 0.010094562 -0.084747255 0.028379863 -0.0013128517 -0.034759197
0.007835676 -0.040465064 -0.02980505 0.034300428 -0.025310403 0.116437905 -0.02099025 0.0034963947
-0.09737622 -0.08285914 0.015382631 -0.039024517 0.09395254 0.0906854 0.033230267 -0.020695196
-0.003281085 0.019543692 0.0021408806 -0.073302016 -0.006641397 0.01925531 0.048752997 0.01888635
0.07829659 0.010607829 0.024682863 0.04842357 -0.028936995 -0.001910568 -0.029661847 0.00374785
-0.0026889646 0.0019919416 -0.0028396666 0.024766631 0.018581232 -0.0042632283 0.021887755 0.057840887
0.026973095 0.012257493 -0.04520217 -0.010502331 -0.010495333 -0.024458911 -0.010065529 -0.017655732
-0.025638718 0.024327826 0.08400031 0.014510009 -0.008162626 0.010485178 -0.002303528 0.0069583566
-0.0027789585 0.024540137 -0.027154177 -0.04547327 -0.13025157 -0.01525698 -0.031041704 -0.019771596
-0.04671219 0.010740724 0.057514213 -0.038227785 -0.019322088 -0.056605827 -0.013457429 0.041442364
-0.033362214 0.06396816 0.019495366 -0.0310663 -0.040299978 0.021988926 -0.07108101 -0.015733412
0.0075650713 0.031606685 0.06835209 -0.015362685 0.06735372 0.035789836 -0.03055327 0.030997831
0.005386495 0.016288787 -0.013262446 0.009357039 -0.040311676 -0.003954798 0.010800783 0.04470981
-0.08822258 -0.021304257 -0.033766996 -0.029907353 -3.7806145e-05 -0.12582356 0.023027524 0.020807365
0.07562433 0.04747892 0.010926044 0.0011777795 -0.012439943 -0.005287405 -0.080570675 -0.041647453
0.003385002 -0.0102682365 -0.011590503 -0.0076773935 -0.018026387 -0.028658712 -0.023787426 -0.004759629
-0.0042009014 0.024269627 -0.05919915 -0.09400181 0.011299021 0.008275014 -0.013564891 -0.020597275
0.012953897 0.083634235 0.10512209 0.0067894068 0.041809082 -0.0073657376 0.001882716 -0.005795837
-0.094101965 -0.036669478 -0.050519153 -0.03338973 -0.014356272 0.07453224 0.007036183 -0.0025005448
-0.008329989 0.02555821 -0.027633762 -0.07131488 0.08756277 -0.017300688 0.018789658 -0.019448308
-0.022665378 -0.007733212 -0.026454104 -0.02779948 0.034327246 0.026903745 0.07823003 0.08946969
0.04217289 -0.027356891 -0.008650501 -0.036816303 -0.08002884 -0.08750541 0.010532137 -0.069214605
-0.11427358 0.026036993 -0.023788134 -0.017531212 0.01597763 0.0036500331 0.07935261 -0.02452266
-0.059180945 0.019245926 -0.038368147 -0.03176617 -0.00585588 0.05569127 0.085850894 -0.0015814765
-0.029569728 0.026568878 -0.025097545 -0.006938878 -0.000551015 -0.026929658 0.018852346 -0.06729398
-0.050057434 -0.037768155 -0.0030838726 -0.045897957 0.0050242622 -0.013311484 0.04639851 0.036548097
-0.03893372 0.07442379 -0.01679185 0.007899289 0.0694792 0.014078451 0.0068958052 -0.01968802
0.019299556 -0.0028221887 -0.017128693 -0.006013076 -0.009453588 -0.054955136 0.0073804595 0.0015911693
-0.0009855833 0.0057206806 -0.045843247 0.024381189 0.02081783 -0.02113362 0.020053778 0.0049915835
00000000: 043c df3c 62aa 4a3b a834 82bd 97b1 a73c
00000010: c1f5 82bc 0a12 27bd 02bf 32bd 6d5d b2bc
00000020: 41f4 9dbb 7608 90bd 5af1 5ebd 8338 63bc
00000030: 73dd 11bc e3d8 74bb 4b7b 423c bf6e 993d
00000040: db8c 733d 754d 3ebb 2e78 9c3b a5f0 dbbb
00000050: 2a37 c6bb 3069 72bb f9fa 98bb 4a5a d3bc
00000060: e69f 273b 4554 82bc 341e f7bb a963 253c
00000070: f88f adbd e37c e83c fe13 acba a95f 0ebd
00000080: 3561 003c b2be 25bd b829 f4bc 9b7e 0c3d
00000090: c357 cfbc ff76 ee3d bff3 abbc c523 653b
000000a0: 2f6d c7bd 0eb2 a9bd 6e07 7c3c 2cd8 1fbd
000000b0: 306a c03d 44b9 b93d 761c 083d f988 a9bc
000000c0: 7907 57bb 181a a03c 044e 0c3b 5e1f 96bd
000000d0: 13a0 d9bb 50bd 9d3c 39b1 473d 8cb7 9a3c
000000e0: f659 a03d 76cc 2d3c b733 ca3c cb57 463d
000000f0: 470d edbc 066c faba 67fd f2bc 7d9e 753b
00000100: 5739 30bb 3c8b 023b b319 3abb 64e3 ca3c
00000110: ab37 983c 8db2 8bbb f34d b33c 91ea 6c3d
00000120: aef6 dc3c a7d3 483c e925 39bd f811 2cbc
00000130: 9ef4 2bbc 0e5e c8bc e3e9 24bc c1a2 90bc
00000140: 4a08 d2bc 264b c73c 5b08 ac3d 64bb 6d3c
00000150: 89bc 05bc 06ca 2b3c c9f6 16bb ed02 e43b
00000160: 301f 36bb 6608 c93c 7072 debc 2e42 3abd
00000170: ab60 05be 6af8 79bc 2c4b febc 0bf8 a1bc
00000180: 4855 3fbd ddf9 2f3c 0694 6b3d bd94 1cbd
00000190: 5b49 9ebc 83db 67bd 8c7c 5cbc 78bf 293d
000001a0: d1a6 08bd bd01 833d bfb4 9f3c c17e febc
000001b0: 9711 25bd 1f22 b43c ec92 91bd 5be3 80bc
000001c0: 6be4 f73b 0376 013d 2efc 8b3d c5b3 7bbc
000001d0: bff0 893d 5d98 123d da4a fabc 2aef fd3c
000001e0: 3281 b03b 1070 853c bb4a 59bc 444e 193c
000001f0: db1d 25bd 4097 81bb c4f5 303c a221 373d
00000200: 0aae b4bd 4486 aebc 434f 0abd 4400 f5bc
00000210: 0a92 1eb8 e4d7 00be 38a4 bc3c 3574 aa3c
00000220: eee0 9a3d 4279 423d 2603 333c b95f 9a3a
00000230: e7d0 4bbc f841 adbb 3d02 a5bd 8596 2abd
00000240: e9d6 5d3b 1b3c 28bc 18e6 3dbc a592 fbbb
00000250: 13ac 93bc adc5 eabc d9dd c2bc a9f6 9bbb
00000260: b7a7 89bb 19d1 c63c cf7a 72bd 0584 c0bd
00000270: 871f 393c ed93 073c 473f 5ebc 9ebb a8bc
00000280: 953c 543c 6d48 ab3d 404a d73d ac79 de3b
00000290: 0040 2b3d 495c f1bb 77c5 f63a 01eb bdbb
000002a0: 88b8 c0bd bc32 16bd 2ced 4ebd abc3 08bd
000002b0: 9236 6bbc 5ca4 983d c88f e63b 2ee0 23bb
000002c0: 827a 08bc 745f d13c 3360 e2bc 890d 92bd
000002d0: 1c54 b33d 2cba 8dbc c5ec 993c 0f52 9fbc
000002e0: beac b9bc e266 fdbb 47b6 d8bc bcbb e3bc
000002f0: ba9a 0c3d 3e65 dc3c 1137 a03d e33b b73d
00000300: 7bbd 2c3d 8f1b e0bc d5ba 0dbc b1cc 16bd
00000310: 29e6 a3bd 0936 b3bd fc8e 2c3c 63c0 8dbd
00000320: 4408 eabd 884b d53c 55df c2bc 9e9d 8fbc
00000330: 85e3 823c 6535 6f3b 9f83 a23d bfe3 c8bc
00000340: b867 72bd a2a9 9d3c eb27 1dbd 3e1d 02bd
00000350: afe2 bfbb 871c 643d 98d2 af3d 8c49 cfba
00000360: 373c f2bc faa6 d93c 5e99 cdbc 875f e3bb
00000370: fe71 10ba 969b dcbc 3c70 9a3c 6dd1 89bd
00000380: 0609 4dbd c8b2 1abd cc1a 4abb 7fff 3bbd
00000390: 91a2 a43b 6918 5abc 5d0c 3e3d 75b3 153d
000003a0: f778 1fbd 806b 983d 108f 89bc 056c 013c
000003b0: 1c4b 8e3d 4ea9 663c 35f6 e13b c548 a1bc
000003c0: 1a1a 9e3c 78f4 38bb 7951 8cbc 5609 c5bb
000003d0: 39e3 1abc a318 61bd c8d7 f13b c88e d03a
000003e0: b02e 81ba 8c74 bb3b 21c6 3bbd 0fbb c73c
000003f0: 278a aa3c 6a20 adbc d247 a43c 7090 a33b

sequential_5/conv2d_11/BiasAdd/ReadVariableOp f4 [64]
-0.0443071 0.025893418 0.068478934 -0.13475856 -0.19551232 -0.10626512 -0.38756746 -0.09122331
-0.06195619 -0.03612185 -0.046548907 -0.23138776 -0.099756055 -0.09490633 -0.056617755 -0.37196252
-0.0016188871 -0.05801915 -0.06652025 -0.08471553 -0.22790705 -0.12834615 -0.040172268 -0.04430115
-0.17508416 -0.057706337 -0.3977663 -0.20716716 -0.18213883 -0.04827529 -0.18929946 0.073611796
-0.16058159 -0.25298515 -0.093572915 -0.087541915 -0.06882711 -0.6042442 -0.049517233 -2.6074937e-05
-0.101074874 -0.14838035 -0.036722377 0.027364397 -0.032101437 -0.042088542 0.077169836 0.04346498
-0.0124653345 -0.037346113 -0.06833875 -0.024400981 -0.014784641 -0.1589676 -0.05678538 -0.13611747
-0.021358633 -0.35986143 -0.05219516 -0.1252483 -0.26091325 -0.08325799 -0.115898855 -0.19177718
00000000: 5d7b 35bd 6f1e d43c af3e 8c3d 26fe 09be
00000010: 6234 48be 87a1 d9bd 3e6f c6be 49d3 babd
00000020: c6c5 7dbd 81f4 13bd 11aa 3ebd eaf0 6cbe
00000030: e74c ccbd 405e c2bd 05e8 67bd df71 bebe
00000040: d630 d4ba 7da5 6dbd c53b 88bd 567f adbd
00000050: 7760 69be 2c6d 03be ad8b 24bd 1f75 35bd
00000060: 4349 33be 7b5d 6cbd 06a8 cbbe a123 54be
00000070: 9a82 3abe 4fbc 45bd b8d7 41be c8c1 963d
00000080: 806f 24be 4587 81be 28a3 bfbd 2d49 b3bd
00000090: 3af5 8cbd bfaf 1abf 95d2 4abd 80bb dab7
000000a0: 5800 cfbd 05f1 17be 346a 16bd 4d2b e03c
000000b0: cc7c 03bd 0965 2cbd 380b 9e3d 5608 323d
000000c0: 673b 4cbc 3df8 18bd 30f5 8bbd 91e4 c7bc
000000d0: 473b 72bc 67c8 22be c997 68bd 6162 0bbe
000000e0: 4df8 aebc c23f b8be 98ca 55bd 1741 00be
000000f0: 6c96 85be 2a83 aabd 615c edbd 3d61 44be

sequential_5/conv2d_11/Conv2D i1 [64, 3, 3, 32]
1 -55 0 -18 -2 3 0 6
-86 55 -45 -23 -36 -65 -46 20
-26 -35 -21 -50 -22 12 7 0
-95 -52 -43 -13 -35 -14 14 -3
-8 29 -24 14 -1 39 56 -26
4 16 4 -34 -16 63 27 21
-3 -2 34 -23 -24 -12 -52 13
-11 -13 -18 -9 14 -64 -8 -3
-17 20 -11 -43 -43 -76 24 -8
10 -49 0 -13 32 7 26 -19
-15 -3 7 26 -15 14 -83 -38
-31 -7 36 -16 -2 -2 -15 -6
6 -32 -4 -2 5 -74 -30 17
-29 -33 -21 -14 8 -42 -7 10
-9 -25 -2 -5 -6 0 35 23
-73 0 -3 -3 9 -45 -10 -5
5 17 -24 51 90 -8 18 -18
16 -4 3 -25 -38 -40 9 1
0 -47 -5 -127 -3 12 -56 -6
-5 -12 -30 -7 -6 -70 2 -2
-24 7 -6 -15 -13 -79 2 -22
12 2 0 -19 22 20 -6 18
-7 23 -21 11 -7 -7 -76 -36
5 -5 9 -1 -23 2 -68 -7
-18 -44 0 31 -15 -44 -26 14
-12 -35 -6 4 37 -20 17 19
6 -23 39 -27 1 -11 32 2
-75 0 2 6 45 -49 -19 -7
5 -22 -17 -18 43 15 -18 3
10 9 -5 -27 -115 -49 -7 -18
6 13 -22 -92 -20 -39 -10 -26
10 -19 -25 -3 -11 -81 2 -8
00000000: 01c9 00ee fe03 0006 aa37 d3e9 dcbf d214
00000010: e6dd ebce ea0c 0700 a1cc d5f3 ddf2 0efd
00000020: f81d e80e ff27 38e6 0410 04de f03f 1b15
00000030: fdfe 22e9 e8f4 cc0d f5f3 eef7 0ec0 f8fd
00000040: ef14 f5d5 d5b4 18f8 0acf 00f3 2007 1aed
00000050: f1fd 071a f10e adda e1f9 24f0 fefe f1fa
00000060: 06e0 fcfe 05b6 e211 e3df ebf2 08d6 f90a
00000070: f7e7 fefb fa00 2317 b700 fdfd 09d3 f6fb
00000080: 0511 e833 5af8 12ee 10fc 03e7 dad8 0901
00000090: 00d1 fb81 fd0c c8fa fbf4 e2f9 faba 02fe
000000a0: e807 faf1 f3b1 02ea 0c02 00ed 1614 fa12
000000b0: f917 eb0b f9f9 b4dc 05fb 09ff e902 bcf9
000000c0: eed4 001f f1d4 e60e f4dd fa04 25ec 1113
000000d0: 06e9 27e5 01f5 2002 b500 0206 2dcf edf9
000000e0: 05ea efee 2b0f ee03 0a09 fbe5 8dcf f9ee
000000f0: 060d eaa4 ecd9 f6e6 0aed e7fd f5af 02f8

sequential_5/dense_5/MatMul i1 [6, 7168] scale=0.01994144 zero_point=0
-0.23929727 -0.03988288 0.3988288 -0.01994144 -0.03988288 -0.678009 -1.0170134 -0.5783017
-0.03988288 -0.01994144 -0.03988288 -0.97713053 0.119648635 -0.47859454 -0.0997072 -1.2563107
0.21935584 0.059824318 0.27918017 -0.3988288 0.23929727 -0.31906304 0.07976576 -0.07976576
0.15953152 -0.03988288 -0.87742335 -0.87742335 0.15953152 -0.059824318 0.13959008 0.41877022
-0.119648635 -0.997072 0.3390045 0.81759906 0.0997072 -0.37888736 -0.03988288 -0.678009
0.01994144 -0.1994144 0.3589459 0.73783326 -0.01994144 0.0 2.0140855 0.27918017
0.31906304 -0.0997072 0.0 0.0997072 -1.5354909 0.119648635 -0.17947295 -0.01994144
1.2961936 0.41877022 -0.03988288 -0.059824318 -0.55836034 -0.7976576 0.03988288 -1.2961936
-1.2363693 -0.81759906 1.0369549 -0.07976576 -0.01994144 -1.6152567 -1.316135 -0.81759906
-0.03988288 -0.01994144 -0.01994144 -0.997072 -1.6351981 -0.13959008 -0.03988288 -0.2991216
-1.8545539 0.03988288 0.21935584 -1.0568963 0.01994144 -0.83754045 -0.03988288 0.0
-0.17947295 0.0 -0.9372477 -0.2991216 -1.2961936 0.03988288 0.03988288 -0.51847744
0.17947295 0.23929727 0.5783017 0.03988288 -1.7349052 0.03988288 -0.01994144 -1.7747881
-0.01994144 -0.3390045 -1.2961936 -0.3589459 -0.01994144 0.0 -0.6580675 -0.83754045
-0.059824318 0.13959008 0.0 -1.9343196 -1.814671 -0.0997072 -0.97713053 -0.119648635
-0.01994144 -1.8545539 -0.03988288 0.0 -0.37888736 0.5783017 -0.9571891 -0.997072
-2.133734 -0.678009 0.0997072 -0.059824318 -0.01994144 -1.2762522 -0.0997072 -0.8574819
-0.059824318 0.0 -0.03988288 0.17947295 0.5384189 -1.495608 -0.01994144 0.1994144
-0.45865312 -0.03988288 -0.2991216 -0.5982432 0.01994144 -0.9571891 -0.059824318 0.0
0.03988288 -0.07976576 -0.25923872 -0.1994144 0.27918017 -0.01994144 0.01994144 -0.7577747
-0.55836034 -0.498536 -0.8973648 -1.1167207 -0.6381261 -0.3390045 -0.03988288 -1.0768378
-0.059824318 -0.23929727 0.07976576 -1.2164278 -0.01994144 0.01994144 1.4158422 -1.1366621
-1.1566035 -0.07976576 0.01994144 -0.6381261 -0.3589459 -0.03988288 -0.83754045 -0.13959008
-0.6979504 -1.1566035 0.0 -0.01994144 -0.03988288 1.3759594 -0.6979504 -0.55836034
-1.2363693 -1.0967792 -0.8574819 0.0 0.0 -1.0369549 -0.37888736 -0.23929727
-0.059824318 -0.03988288 -0.03988288 -0.1994144 -0.6181846 -2.0739098 -0.01994144 0.13959008
-0.5384189 0.01994144 -0.81759906 -0.7577747 -0.01994144 -1.3959008 0.01994144 0.01994144
0.01994144 -0.03988288 -0.3589459 -0.27918017 -0.73783326 -0.01994144 0.059824318 -0.7976576
-0.55836034 -0.23929727 -1.2563107 -0.91730624 0.01994144 0.119648635 0.0 0.43871167
-0.03988288 -1.0170134 -0.91730624 -0.0997072 -0.03988288 0.0 -1.4158422 -0.83754045
-0.498536 -0.01994144 -0.01994144 -0.059824318 -1.2164278 -0.01994144 -0.997072 -0.059824318
-1.1566035 -0.7178918 0.0 -0.03988288 -0.27918017 -0.13959008 -0.45865312 -0.7577747
00000000: f4fe 14ff fede cde3 feff fecf 06e8 fbc1
00000010: 0b03 0eec 0cf0 04fc 08fe d4d4 08fd 0715
00000020: face 1129 05ed fede 01f6 1225 ff00 650e
00000030: 10fb 0005 b306 f7ff 4115 fefd e4d8 02bf
00000040: c2d7 34fc ffaf bed7 feff ffce aef9 fef1
00000050: a302 0bcb 01d6 fe00 f700 d1f1 bf02 02e6
00000060: 090c 1d02 a902 ffa7 ffef bfee ff00 dfd6
00000070: fd07 009f a5fb cffa ffa3 fe00 ed1d d0ce
00000080: 95de 05fd ffc0 fbd5 fd00 fe09 1bb5 ff0a
00000090: e9fe f1e2 01d0 fd00 02fc f3f6 0eff 01da
000000a0: e4e7 d3c8 e0ef feca fdf4 04c3 ff01 47c7
000000b0: c6fc 01e0 eefe d6f9 ddc6 00ff fe45 dde4
000000c0: c2c9 d500 00cc edf4 fdfe fef6 e198 ff07
000000d0: e501 d7da ffba 0101 01fe eef2 dbff 03d8
000000e0: e4f4 c1d2 0106 0016 fecd d2fb fe00 b9d6
000000f0: e7ff fffd c3ff cefd c6dc 00fe f2f9 e9da
