neural_network/models/dynamic_quant_model.tflite (tflite, 45776 bytes, 10 tensors)

sequential_30/dense_64/MatMul f4 [6, 32]
000000 18 dd b3 be 13 57 ec be b1 8a d7 3d 05 47 dd be
       -0.3512962 -0.46160182 0.105245 -0.43218246
000010 f9 c1 e2 bd be db d2 bd bc 57 8f bf a5 de 03 be
       -0.110721536 -0.10295819 -1.119865 -0.12877901
000020 61 44 29 bf 69 62 94 be ac b8 de be 4f 77 e6 be
       -0.6611996 -0.2898133 -0.43500268 -0.450129
000030 ff 6c af bd 24 c7 a4 be 3a 42 78 bf f6 b0 66 bd
       -0.08565711 -0.32183182 -0.96976054 -0.056321107
000040 38 a4 a6 be b7 9f 9e be db 1d d8 bf 3b 13 9b bf
       -0.32547164 -0.30981228 -1.6884111 -1.2115244
000050 79 f0 f6 bd 13 ee 8e be 9a 20 b9 bf da a7 9b be
       -0.12057585 -0.2791601 -1.4463074 -0.30401498
000060 90 5b ee be b0 56 f3 be c8 e1 10 c0 94 f5 22 3d
       -0.46554232 -0.47527075 -2.2637806 0.039784983
000070 8c 6a 51 be 65 ec d0 bd 3e 71 22 bf d0 0e f0 3c
       -0.204508 -0.10201339 -0.63454044 0.029303938
000080 05 68 46 bf 22 84 84 bc 00 af 25 be af 9e 9f be
       -0.7750247 -0.016176287 -0.16180038 -0.31175753
000090 60 ac 84 be 5e 68 2c be 8f 3b 3c be bd 18 0d bf
       -0.25912762 -0.16836688 -0.18382095 -0.5511587
0000a0 ad ee ee be 08 e6 9a bb 84 40 c4 be 88 a3 1f bf
       -0.4666647 -0.004727129 -0.38330472 -0.62358904
0000b0 d5 61 63 3c e4 1d 32 bf 70 c4 42 bd 29 8d 5c 3e
       0.013878305 -0.6957686 -0.04755062 0.21538223
0000c0 4f 4d b5 bd 12 2e 66 3e 2a 28 6e bf 20 1a a2 3d
       -0.08852636 0.22478512 -0.93030035 0.07915139
0000d0 5f 62 4c bd 41 72 c7 bd 51 b4 b9 bd d4 ef b1 be
       -0.0498985 -0.09738589 -0.09067596 -0.34753287
0000e0 36 6a ce bd b4 b4 18 bf 9c e7 20 be fc 71 5f 3e
       -0.10078852 -0.5965073 -0.15713352 0.21820825
0000f0 ba 33 96 3e 54 c2 14 be 2b ed 10 bf e5 80 8a be
       0.2933634 -0.14527255 -0.5661189 -0.27051464
000100 fa 0b 1e bf 1e 7c 84 bb ec 11 74 be 05 d1 83 be
       -0.61737025 -0.0040431162 -0.23834962 -0.25745407
000110 ca 05 c1 be bd c3 3a bd 7c 22 de 3d 59 bf 0b bf
       -0.3769973 -0.045596827 0.10846421 -0.5458885
000120 8f 49 15 bf a7 5a b3 be cf c2 12 bf 45 ab a3 bf
       -0.58315367 -0.350301 -0.57328504 -1.2786642
000130 f2 6f e5 3d f9 ee 66 bf bc d2 0d 3e f8 75 f4 3d
       0.112029925 -0.90208393 0.1384992 0.11936563
000140 fc 27 93 be 22 29 b2 bc b7 6c 6a bf 48 65 49 3e
       -0.28741443 -0.02174813 -0.91572136 0.19667542
000150 f1 eb 02 be 26 03 29 be 6b 74 ea bd f3 34 3a bf
       -0.12785317 -0.16505107 -0.11447986 -0.72737044
000160 82 8b 9b be e2 39 12 bf 40 65 01 bd 44 c5 83 3e
       -0.30379874 -0.5711957 -0.0315907 0.2573644
000170 6a b9 48 be 44 ea 89 bd 21 1d 7e bf 97 d6 7e be
       -0.1960198 -0.06734136 -0.992632 -0.24886547
000180 66 fb 1e bf 27 79 12 3e 68 1a 99 bd ac a9 92 be
       -0.62102354 0.14304028 -0.0747574 -0.28645074
000190 aa 70 2a be 49 8e a1 bd 68 53 de 3d a6 9e 91 be
       -0.1664454 -0.07888467 0.10855752 -0.28441352
0001a0 bc 62 0c bf bc dc d8 bd de d9 22 bf 82 57 15 bf
       -0.54838157 -0.10588977 -0.6361369 -0.5833665
0001b0 d6 16 af 3d af 9f 0b be 34 f4 5e 3d 74 4c d4 3d
       0.085492775 -0.13635133 0.05443211 0.10366145
0001c0 f6 94 13 3d 72 7d c1 3d cd e4 33 bf 9d cc 83 3d
       0.036030732 0.09447755 -0.70271 0.06435511
0001d0 72 b3 e3 bd ac a3 21 be 9e b2 57 3e 90 36 9d be
       -0.11118211 -0.15785092 0.21064231 -0.3070569
0001e0 b9 99 43 bd 69 ba 9c be dd 74 83 be c7 af 97 3e
       -0.047754023 -0.3061097 -0.25675097 0.29626295
0001f0 94 cf b2 3b ec eb 88 be 59 b1 08 bf a0 b2 4c be
       0.005456874 -0.26742494 -0.5339561 -0.19990015
000200 48 4b cc be 7c 3a ee bc 40 9b 28 bc e0 57 9a be
       -0.39901185 -0.029080622 -0.010290921 -0.30145168
000210 c0 0a 15 be 6d 09 29 3c 44 ad f9 3d 7f f7 c7 be
       -0.14554882 0.010317189 0.12191251 -0.39056012
000220 01 d1 10 bf 1c c4 b4 bd ef 9e 30 bf 39 c9 22 bf
       -0.56568915 -0.088264674 -0.68992513 -0.6358829
000230 79 81 b7 3d 06 34 ed be fe c0 24 3d 38 7d 30 be
       0.08960242 -0.46328753 0.040223114 -0.17235267
000240 e2 23 09 3d d0 20 60 3d a5 24 2b bf ca 94 17 be
       0.033481486 0.054718792 -0.6685279 -0.14802852
000250 eb bf 4d be 52 96 86 bc 2a 78 91 3e e0 ea a6 be
       -0.20092742 -0.0164291 0.2841199 -0.3260107
000260 83 ba 0f be 6d 83 c8 bd ec ef 74 be 5f 8f f4 3e
       -0.14035992 -0.097906925 -0.23919648 0.47765633
000270 42 cf 11 bd 07 c8 1c be 73 45 de be 1f aa 50 be
       -0.035598047 -0.1531068 -0.4341236 -0.20377396
000280 30 41 99 be fe 55 92 3d 22 01 1a be fd 4e 4b bf
       -0.29932547 0.07145308 -0.15039495 -0.794174
000290 b7 95 80 bf 80 14 88 3c 31 21 86 be 06 6c 9f be
       -1.0045689 0.016611338 -0.26197198 -0.31137103
0002a0 7f ef f4 bf 57 5f da 3d f7 fd 49 bf cc 60 21 bf
       -1.9135588 0.10662716 -0.78903145 -0.63038325
0002b0 85 42 90 3e e3 f2 77 bf d1 c4 6a 3c c6 a6 45 3e
       0.2817575 -0.9685499 0.014329151 0.193019
0002c0 60 d9 24 3d 4e a5 5c be cf 48 88 bf 76 e6 a3 bd
       0.040246367 -0.21547434 -1.064722 -0.08002941
0002d0 1a b6 4c be 38 fa 02 be 38 a2 47 3d eb 8e 65 be
       -0.19991341 -0.12790763 0.04873869 -0.224178
0002e0 44 99 c3 be ed 26 d8 be ba b7 82 be 30 00 36 3e
       -0.3820287 -0.42217198 -0.25530797 0.17773509
0002f0 d7 10 7a 3d 06 2c 68 bf 53 96 bb bf b2 02 4a be
       0.061051216 -0.90692174 -1.465525 -0.1972759

sequential_30/dense_62/BiasAdd/ReadVariableOp f4 [32]
000000 e9 1b 87 3f a7 06 04 40 4b 17 c4 3f 9c 42 b6 3e
       1.0555393 2.062906 1.5319608 0.35597694
000010 75 63 09 be cf 7b 62 bf 4d 54 c3 bf 12 e3 9e bf
       -0.13416846 -0.88470167 -1.5260102 -1.2413046
000020 9a ed a3 be 95 08 0a 40 40 3b cf bf 1c 75 d2 bf
       -0.32017213 2.1567738 -1.6189957 -1.6441989
000030 99 a9 6f 3f 05 52 b8 bf c6 66 86 be bf 1b 37 3f
       0.9361816 -1.440003 -0.26250285 0.7152671
000040 38 81 0d 3f b1 3e 17 40 71 b8 9c 3e 7a 67 64 be
       0.552753 2.3632014 0.30609468 -0.22305098
000050 02 3e 7e 40 23 d5 8c 3f 85 7c 9d bf 0c c6 01 c0
       3.9725347 1.1002544 -1.2303625 -2.0277128
000060 a9 c4 a9 bf ad 26 10 bf d2 a3 50 3f 2e 5e 14 40
       -1.3263141 -0.56309015 0.8149997 2.3182483
000070 b3 be 31 bf 0a c0 38 bd ab 0f bf 3e dd c2 60 bf
       -0.6943161 -0.045105018 0.3731664 -0.8779734

sequential_30/dense_63/BiasAdd/ReadVariableOp f4 [32]
000000 a7 52 1b c0 95 73 52 3f e5 c9 26 c0 5a d3 0e c0
       -2.4269197 0.82207614 -2.6060727 -2.2316499
000010 e6 aa 36 c0 3b 6e f6 bf b7 59 9f bf ec 94 ae bf
       -2.8541808 -1.925239 -1.2449254 -1.3639197
000020 4c 9b f4 bf e9 d1 75 bf 00 f4 d0 bf 05 12 0e c0
       -1.9109893 -0.9602342 -1.6324463 -2.2198498
000030 e7 8f c2 bc 7e a0 44 bf 71 b7 19 3c fb 3c 85 3f
       -0.023750259 -0.7680739 0.009382115 1.0409235
000040 54 79 10 c0 7d de ae 3f 78 e6 03 c0 17 5b 90 3f
       -2.2574053 1.3661648 -2.0609417 1.1277798
000050 0a d3 40 3f a0 ed 92 bf 93 c6 a7 be 21 d6 e3 bf
       0.7532202 -1.1478767 -0.32768688 -1.7799722
000060 f1 ef 07 c0 b6 a4 b9 bf 77 8b 30 be 87 c8 4e 40
       -2.1240199 -1.4503391 -0.17240702 3.2309892
000070 1c 27 0f 40 a4 26 42 c0 1c db 57 3e fa 2a 4c 3f
       2.236762 -3.0336084 0.21079677 0.7975308

sequential_30/dense_64/BiasAdd/ReadVariableOp f4 [6]
000000 48 56 f4 3e b7 ba 44 3e 86 d6 b6 bd 29 9d ae bc
       0.47722077 0.19211851 -0.08927636 -0.021315174
000010 0d 91 c0 3e f4 56 62 bf
       0.37610665 -0.8841393

sequential_30/conv2d_55/Relu;sequential_30/conv2d_55/BiasAdd;sequential_30/conv2d_55/Conv2D;sequential_30/conv2d_55/BiasAdd/ReadVariableOp f4 [32, 3, 3, 1]
000000 44 37 18 3d 92 ee 5d 3d a1 2e 94 3d 75 83 46 bc
       0.03716208 0.054182597 0.07235456 -0.012116303
000010 10 bb 93 bb 57 2f 27 3d 48 62 be bc b9 22 35 bc
       -0.0045083836 0.04081663 -0.023240224 -0.011055642
000020 46 0e 84 bd 76 73 b1 3d 53 14 75 3d 6b 25 a3 3d
       -0.06448035 0.086646006 0.059833836 0.07966121
000030 62 88 7c bb 70 73 e3 bb be e8 fc 3c 51 64 66 bd
       -0.003853344 -0.0069412515 0.030872699 -0.056248013
000040 28 3c 9d bd ee 84 f4 bc 5d 44 85 bd b6 bf 9d bc
       -0.076774895 -0.029848542 -0.0650718 -0.019256454
000050 90 d0 ce 3d ae de 4e 3c 3f e3 43 bd 53 40 53 3c
       0.10098374 0.012626333 -0.04782414 0.012893754
000060 f2 56 98 3d 04 dd 1f 3b 76 5d ce bc c3 d1 89 3d
       0.074384585 0.002439321 -0.02519105 0.06729462
000070 6a 9c 18 3d 4a 01 3a bc ed 39 a8 bc 11 e4 97 bc
       0.037258543 -0.011352846 -0.020535434 -0.018541368
000080 83 b2 cd bd ac a6 90 bd 3f e2 55 3d 25 98 d5 ba
       -0.10043814 -0.0706304 0.05221772 -0.0016295953
000090 d9 9d 9f bd 01 e8 9f 38 81 93 32 3d a0 11 34 3d
       -0.07793779 7.624925e-05 0.043597702 0.04396212
0000a0 82 76 3e 3c 77 67 40 bd 57 8e 67 3d e7 79 4b 3d
       0.011624934 -0.04697367 0.05653223 0.049676802
0000b0 70 ac aa bd d9 10 80 bd b5 83 bb ba e3 80 a6 3d
       -0.08333671 -0.062532134 -0.001430622 0.08130052
0000c0 1f 48 11 3d 40 6a ca 39 e1 77 8e 3c ca 3c 9f 3d
       0.03546917 0.00038607605 0.017391147 0.077752665
0000d0 e4 01 96 3c 10 1f 87 bd 7c 4c 40 3d b4 08 8a bd
       0.018311448 -0.065977216 0.04694794 -0.06739941
0000e0 27 ea 2c bd ca 48 99 bd 93 36 38 bd 61 13 e7 3c
       -0.042215493 -0.074845865 -0.04497392 0.028207483
0000f0 6d 9b 0a bd 35 8b 7a 3d 69 35 bf 3d 02 17 2d bd
       -0.03383963 0.061167914 0.09336359 -0.04225827
000100 c9 d8 3b 3c 74 10 f8 3b 96 e4 36 bc 11 7f ab 3c
       0.01146526 0.0075703207 -0.011162898 0.020934613
000110 9f 90 94 bd 62 c3 73 3c 8f d1 0f 3d 2b db 87 bd
       -0.07254147 0.014878126 0.03511196 -0.066336
000120 88 ed 81 bc a2 fd ea 3c 02 87 ab bc ea 3e 5e bc
       -0.015860334 0.028685395 -0.0209384 -0.013564805
000130 7f 1d 65 3d 6f bd 33 3b 14 2f 10 bd b3 72 8b 3d
       0.055936333 0.0027426144 -0.035201147 0.068089865
000140 4b c7 1b bd 4e e9 51 bc ad 56 f4 bc 10 f7 14 3d
       -0.038031857 -0.012811972 -0.029826486 0.03636843
000150 19 7c e9 3c 92 02 89 bc 04 a1 77 3d 46 2f 62 3c
       0.028501557 -0.016724858 0.06045629 0.013805216
000160 cc be 3d 3c f1 9a 0b 3d 27 a6 5a 3d 4c e8 c8 3b
       0.011581134 0.03408331 0.05338111 0.0061312076
000170 6c d2 1a 3c 08 c7 78 b8 54 3e c6 bb 8c 8b 68 3d
       0.009449583 -5.931317e-05 -0.0060499106 0.056773707
000180 e9 9b dc bc c0 47 49 bc e3 12 09 3d de 89 51 3d
       -0.026929813 -0.012285173 0.033465277 0.05115687
000190 69 4d e9 3c a7 b8 8b 3d 79 b1 97 3d 25 7a 8b bc
       0.028479295 0.06822329 0.07406897 -0.017026016
0001a0 8c 8e 49 bb 76 3d 73 b9 87 ef c6 bd 98 f1 a2 bd
       -0.003075513 -0.00023197182 -0.09713655 -0.079562366
0001b0 a9 f3 84 bd 7f db 80 bd 1a 54 00 3d 36 70 16 3d
       -0.06491787 -0.062918656 0.031330206 0.036728106
0001c0 7c 9e 3f bc 37 ca 3f bd fb 76 99 3d 1e 17 ad 3d
       -0.0116955 -0.046823706 0.07493397 0.08451675
0001d0 5c 62 b7 3d 0f 33 6f 3d 36 bc 99 3c c9 5c 87 bd
       0.089543074 0.058398303 0.018766504 -0.06609494
0001e0 6a 2a ae bc ba 8c e1 3c b6 1c 78 bd 28 e2 7e bd
       -0.021260459 0.027532924 -0.060574256 -0.0622274
0001f0 79 45 f1 3c 5a da f7 3c 44 ee 67 bd 9f 41 94 3d
       0.029452072 0.030255485 -0.056623712 0.07239079
000200 b1 2d cc 3d 93 df 81 bd c5 13 9a bd 08 d9 81 bc
       0.099696524 -0.063414715 -0.07523302 -0.015850559
000210 5a 1e 72 3d f2 d2 1d bc f0 e9 d4 bc 9e ac 99 3b
       0.059110977 -0.009632813 -0.025990456 0.004689767
000220 bc a3 87 3c 93 ab a0 b9 50 87 24 3d 0d 24 fc 3c
       0.016557567 -0.0003064541 0.040168107 0.03077891
000230 19 02 90 bd 2a 8e 19 bc ac bb 77 3d 2d de 9c bd
       -0.0703165 -0.009372273 0.060481712 -0.07659564
000240 30 e3 3e bb 77 97 b8 bd 71 9a 68 bd 75 44 22 bc
       -0.0029127114 -0.090132646 -0.05678791 -0.009904017
000250 f6 d2 25 3d 85 96 5e 3d 12 40 cd bd 32 37 df 3c
       0.04048439 0.054342765 -0.10021986 0.027247999
000260 6b 25 88 3d 08 45 02 3d fd a0 1e bc c5 09 f0 3c
       0.06647762 0.031804115 -0.009681937 0.029301533
000270 cf 6a 35 3d 05 04 0d bc 99 5f 3d 3d f0 46 e9 bc
       0.044291314 -0.008606915 0.046233747 -0.028476208
000280 e4 a0 32 bc 21 b4 51 3d ee 38 99 bc e7 50 69 3d
       -0.010902617 0.051197175 -0.018703904 0.05696192
000290 e8 13 3c bc 62 00 ea bc 6c 15 83 3d d9 15 69 bc
       -0.011479355 -0.028564636 0.0640057 -0.0142264
0002a0 f4 5d 1e bd c7 5a 77 3d c0 88 1c bd 98 47 aa bc
       -0.03866382 0.060389306 -0.038216352 -0.020786092
0002b0 a1 fd ad bd 9e 3f ff bc 73 44 62 3d ca d4 bb bc
       -0.084956415 -0.031158265 0.05524106 -0.022928614
0002c0 32 8f af bd 84 7b 81 3d 7e 03 5b 3d d3 51 28 3d
       -0.08572234 0.06322387 0.053470127 0.04109366
0002d0 d6 87 1a 3d e3 d6 22 3d 0e 18 a4 3d 9d 48 1d 3c
       0.0377272 0.039755713 0.080124006 0.009599832
0002e0 c1 a7 32 bd 2a e2 66 3d a6 5d 82 bb b0 45 25 bd
       -0.043617014 0.05636803 -0.003978449 -0.040349662
0002f0 8c f0 3e bc 82 03 a0 3c 86 11 0d bd 56 9b 17 bd
       -0.0116540305 0.019532923 -0.03444054 -0.037013374
000300 90 70 e7 bc 11 4a d5 3c 7e 47 33 3d da 36 09 bd
       -0.028251916 0.026036294 0.043769352 -0.033499576
000310 3e c4 ba 3d 9c 4b 1b 3d f2 a9 1a 3b 3d d3 16 3d
       0.091194615 0.037913904 0.002359983 0.036822546
000320 01 e2 24 3c e3 c0 72 bc 61 f4 5a 3d 38 00 7e 3c
       0.010063649 -0.014816496 0.053455714 0.015502982
000330 24 ee 22 bd 3a ec 56 3d 9e 4d 72 bc 85 d8 22 3d
       -0.03977789 0.052471377 -0.014789013 0.03975727
000340 d2 3c 22 bd cb 5a a6 bd 8f 1a c4 bc c0 40 c9 3c
       -0.039608784 -0.08122786 -0.023938445 0.024567008
000350 96 2d 04 bd a8 b8 1f bd cf 1b 4d 3d f4 ea 53 3d
       -0.032270037 -0.03899446 0.05007535 0.05173774
000360 e2 b9 a7 bd 9c 87 b1 3c 40 6a 6d 3c 6a 43 12 3d
       -0.08189751 0.021671109 0.014490664 0.035708822
000370 f6 55 a0 3c d6 2b 96 bd 5c da 33 3d aa 45 5f 3d
       0.01957224 -0.0733258 0.043909416 0.054509796
000380 2e df 96 bd d0 cc 53 3b 09 1d b5 bd 75 e3 29 bd
       -0.07366787 0.0032318123 -0.08843429 -0.041476686
000390 27 23 71 3c 7a 0f de bc 6b 2c f4 3c 73 c5 84 3d
       0.014717854 -0.02710699 0.029806336 0.06482973
0003a0 92 68 b2 3c 45 7c 9a 3d 07 65 89 bc 3a b0 19 3c
       0.021778379 0.07543234 -0.016771806 0.009380395
0003b0 ad ab 3c 3d ab e0 d8 bc e3 ed e1 bb 6e b7 14 bd
       0.04606216 -0.026474318 -0.0068948134 -0.036307745
0003c0 3d e1 52 3c 30 37 97 3c 1d 35 a9 bd 5c b7 18 bc
       0.012871084 0.018458933 -0.08262084 -0.00932106
0003d0 b4 eb 0b bd fe b0 9e bd e2 35 56 3c 67 05 73 3b
       -0.03416033 -0.07748602 0.01307437 0.0037082077
0003e0 c4 b5 28 bd a4 39 1f 3d 7c eb 67 3d 5e 21 55 3d
       -0.04118897 0.03887333 0.05662106 0.052033775
0003f0 51 9c c6 bc 65 4c 5d 3d d4 72 c2 bc 80 8f ed bc
       -0.02424446 0.054027934 -0.023736395 -0.02899909

sequential_30/conv2d_55/BiasAdd/ReadVariableOp f4 [32]
000000 e9 42 a1 be cf e0 d2 bf 6f b2 c8 be c2 23 65 bd
       -0.3149636 -1.6474856 -0.39198634 -0.055942304
000010 55 e2 1b bd 45 65 19 be 24 14 27 c0 21 d1 6c 3d
       -0.038057644 -0.14980038 -2.6106043 0.05781663
000020 65 3a 3c be 3e 62 6f be d5 91 3c be 67 34 4d bf
       -0.18381651 -0.2337732 -0.18415006 -0.80158085
000030 33 d4 da bf d2 9d 2b 3c ad a8 6a bf 2e 82 b2 bd
       -1.7096008 0.010474639 -0.9166363 -0.08716236
000040 0b 96 12 c0 0e bb 6f be e2 ce 01 be 75 63 83 bf
       -2.290408 -0.234112 -0.12676576 -1.0264727
000050 1f ce c6 be 9e 5c 5e be c3 fb f8 bd 2c ed cf 3a
       -0.38829133 -0.21715018 -0.12157395 0.0015863529
000060 16 42 2b bd 74 fe 4e be 51 32 9c 3d 96 ab a8 bd
       -0.04181107 -0.20214254 0.076267846 -0.082358524
000070 67 e9 c9 bd 17 87 9e bd 6a 8d 55 be 06 cb bb bd
       -0.09858971 -0.0774061 -0.20854726 -0.09169583

sequential_30/conv2d_56/BiasAdd/ReadVariableOp f4 [16]
000000 f7 6d b1 bd 3d 63 03 3d ef 9d 33 be ac bd 68 be
       -0.08663552 0.032077063 -0.17540716 -0.22728604
000010 48 ec 0f be 49 cf 7c 3e 7a 5d 3f 3e 92 9d 9e bd
       -0.14054978 0.24688448 0.18688002 -0.07744898
000020 59 7f 22 be 82 e2 a5 3d 43 a2 dd bd 3f f3 02 bf
       -0.15868892 0.080998436 -0.108219646 -0.51152414
000030 78 ae 8f bd 2e 3e 4a bc 1d 32 11 be ac 9f 1c be
       -0.07015699 -0.012343926 -0.14179273 -0.15295285

sequential_30/conv2d_56/Conv2D i1 [16, 3, 3, 32]
000000 19 b3 20 f9 35 11 09 11 f3 fe 0b e8 e3 1a 02 20
       25 -77 32 -7 53 17 9 17 -13 -2 11 -24 -29 26 2 32
000010 fc 2c 08 d2 f9 b4 06 f7 12 fb 03 0b eb 2a 02 24
       -4 44 8 -46 -7 -76 6 -9 18 -5 3 11 -21 42 2 36
000020 ce f1 04 21 96 a3 04 1e 87 87 c1 02 c2 34 fa d5
       -50 -15 4 33 -106 -93 4 30 -121 -121 -63 2 -62 52 -6 -43
000030 02 a1 9d 0e da c7 95 21 af 07 09 05 bb f8 9a 15
       2 -95 -99 14 -38 -57 -107 33 -81 7 9 5 -69 -8 -102 21
000040 86 1b 0b 33 f4 3c 1a dd 15 47 0a 93 dd 2e e2 9c
       -122 27 11 51 -12 60 26 -35 21 71 10 -109 -35 46 -30 -100
000050 2a ee 0f b6 c5 43 11 2e e7 2c c3 e5 37 92 03 ff
       42 -18 15 -74 -59 67 17 46 -25 44 -61 -27 55 -110 3 -1
000060 42 d4 e8 11 06 02 9e f4 90 a5 06 a3 a5 55 9c 0d
       66 -44 -24 17 6 2 -98 -12 -112 -91 6 -93 -91 85 -100 13
000070 94 b8 b5 b1 f5 af 99 24 46 d1 32 18 9e 09 d4 41
       -108 -72 -75 -79 -11 -81 -103 36 70 -47 50 24 -98 9 -44 65
000080 b3 ec f0 eb cd fc be dc d6 00 a6 81 8d 04 9a 84
       -77 -20 -16 -21 -51 -4 -66 -36 -42 0 -90 -127 -115 4 -102 -124
000090 d0 d2 b1 df 84 e9 c8 17 99 06 d9 f9 93 84 fa c4
       -48 -46 -79 -33 -124 -23 -56 23 -103 6 -39 -7 -109 -124 -6 -60
0000a0 f0 ec eb d6 42 4d d8 af 36 43 13 f5 a7 b8 ad ce
       -16 -20 -21 -42 66 77 -40 -81 54 67 19 -11 -89 -72 -83 -50
0000b0 c2 1b 42 b5 12 35 18 e1 ee fc 96 a3 2e ef 35 8b
       -62 27 66 -75 18 53 24 -31 -18 -4 -106 -93 46 -17 53 -117
0000c0 d6 16 8d 2f be 92 bb e6 ec f3 e2 bb cd 23 e2 e6
       -42 22 -115 47 -66 -110 -69 -26 -20 -13 -30 -69 -51 35 -30 -26
0000d0 f3 c5 9f db f7 0e e0 3a ba 2c f1 06 b0 e5 d6 37
       -13 -59 -97 -37 -9 14 -32 58 -70 44 -15 6 -80 -27 -42 55
0000e0 b9 85 2b 85 ff 4d 91 d1 09 27 f4 e0 f4 e0 c9 00
       -71 -123 43 -123 -1 77 -111 -47 9 39 -12 -32 -12 -32 -55 0
0000f0 86 21 23 e8 f9 1d 2c 1b 09 14 a6 01 19 d8 1d 92
       -122 33 35 -24 -7 29 44 27 9 20 -90 1 25 -40 29 -110

sequential_30/dense_62/MatMul i1 [32, 1024] scale=0.04860108 zero_point=0
000000 f8 eb f4 ee f4 f9 05 f2 ff 03 f6 02 02 fe f2 07
       -0.38880864 -1.0206227 -0.583213 -0.87481946 -0.583213 -0.34020755 0.2430054 -0.6804151 -0.04860108 0.14580324 -0.4860108 0.09720216 0.09720216 -0.09720216 -0.6804151 0.34020755
000010 fa fe df fd e9 09 fa fd 01 e6 e9 00 06 03 f4 ff
       -0.2916065 -0.09720216 -1.6038356 -0.14580324 -1.1178248 0.43740973 -0.2916065 -0.14580324 0.04860108 -1.2636281 -1.1178248 0.0 0.2916065 0.14580324 -0.583213 -0.04860108
000020 e6 0a fb 17 fa d8 16 0a 00 eb 08 00 f4 fc f1 d5
       -1.2636281 0.4860108 -0.2430054 1.1178248 -0.2916065 -1.9440432 1.0692238 0.4860108 0.0 -1.0206227 0.38880864 0.0 -0.583213 -0.19440432 -0.7290162 -2.0898464
000030 fc 05 fb f0 14 fe 15 eb 00 dd f4 fe 04 07 ff 0f
       -0.19440432 0.2430054 -0.2430054 -0.7776173 0.9720216 -0.09720216 1.0206227 -1.0206227 0.0 -1.7010378 -0.583213 -0.09720216 0.19440432 0.34020755 -0.04860108 0.7290162
000040 0b fd 14 f0 07 fb 00 ea fe 26 0d ff d4 02 0c ed
       0.5346119 -0.14580324 0.9720216 -0.7776173 0.34020755 -0.2430054 0.0 -1.0692238 -0.09720216 1.846841 0.63181406 -0.04860108 -2.1384475 0.09720216 0.583213 -0.9234205
000050 11 08 fd 01 e5 12 05 0e 00 16 08 ff 13 e6 0b 10
       0.82621837 0.38880864 -0.14580324 0.04860108 -1.3122292 0.87481946 0.2430054 0.6804151 0.0 1.0692238 0.38880864 -0.04860108 0.9234205 -1.2636281 0.5346119 0.7776173
000060 00 0d 1c 0c 0b 13 03 f1 00 fe fc 00 0e 02 03 0b
       0.0 0.63181406 1.3608302 0.583213 0.5346119 0.9234205 0.14580324 -0.7290162 0.0 -0.09720216 -0.19440432 0.0 0.6804151 0.09720216 0.14580324 0.5346119
000070 0e f4 f4 f6 0f 0c fd f1 ff ef f3 ff 07 06 06 1a
       0.6804151 -0.583213 -0.583213 -0.4860108 0.7290162 0.583213 -0.14580324 -0.7290162 -0.04860108 -0.82621837 -0.63181406 -0.04860108 0.34020755 0.2916065 0.2916065 1.2636281
000080 05 0e 01 01 01 d1 c2 e7 00 0f 01 01 fe 10 f5 f5
       0.2430054 0.6804151 0.04860108 0.04860108 0.04860108 -2.2842507 -3.013267 -1.215027 0.0 0.7290162 0.04860108 0.04860108 -0.09720216 0.7776173 -0.5346119 -0.5346119
000090 ed f1 01 e2 14 f6 f3 e1 00 f9 05 ff d9 f5 fb 0a
       -0.9234205 -0.7290162 0.04860108 -1.4580324 0.9720216 -0.4860108 -0.63181406 -1.5066335 0.0 -0.34020755 0.2430054 -0.04860108 -1.8954421 -0.5346119 -0.2430054 0.4860108
0000a0 f1 bf eb 05 f3 2b 2d ed 00 19 ff 00 ec fc ef ef
       -0.7290162 -3.1590703 -1.0206227 0.2430054 -0.63181406 2.0898464 2.1870487 -0.9234205 0.0 1.215027 -0.04860108 0.0 -0.9720216 -0.19440432 -0.82621837 -0.82621837
0000b0 11 16 16 17 f8 06 17 13 01 f1 07 ff 09 15 e1 e9
       0.82621837 1.0692238 1.0692238 1.1178248 -0.38880864 0.2916065 1.1178248 0.9234205 0.04860108 -0.7290162 0.34020755 -0.04860108 0.43740973 1.0206227 -1.5066335 -1.1178248
0000c0 fd 0c 14 26 f7 04 fe 03 01 ed 1b 00 fe ea ed ec
       -0.14580324 0.583213 0.9720216 1.846841 -0.43740973 0.19440432 -0.09720216 0.14580324 0.04860108 -0.9234205 1.3122292 0.0 -0.09720216 -1.0692238 -0.9234205 -0.9720216
0000d0 16 03 f5 ed 0d 10 17 1e 00 d3 1f fe d4 fd fc 26
       1.0692238 0.14580324 -0.5346119 -0.9234205 0.63181406 0.7776173 1.1178248 1.4580324 0.0 -2.1870487 1.5066335 -0.09720216 -2.1384475 -0.14580324 -0.19440432 1.846841
0000e0 11 0f fe 06 0f e5 10 05 ff 1f 0a fe ec 02 0d 08
       0.82621837 0.7290162 -0.09720216 0.2916065 0.7290162 -1.3122292 0.7776173 0.2430054 -0.04860108 1.5066335 0.4860108 -0.09720216 -0.9720216 0.09720216 0.63181406 0.38880864
0000f0 ea f2 ef f8 01 4a e9 03 01 fe e7 00 04 f9 fa 0c
       -1.0692238 -0.6804151 -0.82621837 -0.38880864 0.04860108 3.59648 -1.1178248 0.14580324 0.04860108 -0.09720216 -1.215027 0.0 0.19440432 -0.34020755 -0.2916065 0.583213

sequential_30/dense_63/MatMul i1 [32, 32] scale=0.017765407 zero_point=0
000000 fb e5 ec ee f6 e1 fa ff ec d2 c9 ee 12 0f f5 e9
       -0.08882703 -0.47966596 -0.35530812 -0.3197773 -0.17765406 -0.5507276 -0.10659244 -0.017765407 -0.35530812 -0.8172087 -0.97709733 -0.3197773 0.3197773 0.2664811 -0.19541948 -0.40860435
000010 d4 fc f3 09 0e f1 07 f8 08 12 f7 ef ff 0e d8 db
       -0.7816779 -0.071061626 -0.23095028 0.15988865 0.2487157 -0.2664811 0.12435785 -0.14212325 0.14212325 0.3197773 -0.15988865 -0.3020119 -0.017765407 0.2487157 -0.71061623 -0.65732
000020 f6 dc ed 02 f9 f3 09 15 00 f9 02 11 fd e7 05 13
       -0.17765406 -0.6395546 -0.3375427 0.035530813 -0.12435785 -0.23095028 0.15988865 0.37307355 0.0 -0.12435785 0.035530813 0.3020119 -0.05329622 -0.44413516 0.08882703 0.3375427
000030 f9 f5 10 ec d6 fc f0 19 ef dd 01 fa e6 0b fc 12
       -0.12435785 -0.19541948 0.2842465 -0.35530812 -0.7461471 -0.071061626 -0.2842465 0.44413516 -0.3020119 -0.6217892 0.017765407 -0.10659244 -0.46190056 0.19541948 -0.071061626 0.3197773
000040 12 fc 04 ff fc 0f cd 07 f9 bc e3 03 ff 30 06 c9
       0.3197773 -0.071061626 0.071061626 -0.017765407 -0.071061626 0.2664811 -0.9060357 0.12435785 -0.12435785 -1.2080476 -0.5151968 0.05329622 -0.017765407 0.8527395 0.10659244 -0.97709733
000050 df e8 c4 ff eb ee 0c 00 09 14 e6 fd fd 02 c0 05
       -0.5862584 -0.42636976 -1.0659244 -0.017765407 -0.37307355 -0.3197773 0.21318488 0.0 0.15988865 0.35530812 -0.46190056 -0.05329622 -0.05329622 0.035530813 -1.136986 0.08882703
000060 e1 09 fa e8 ee 05 d5 f5 da fa f3 f7 e0 01 01 ea
       -0.5507276 0.15988865 -0.10659244 -0.42636976 -0.3197773 0.08882703 -0.7639125 -0.19541948 -0.6750854 -0.10659244 -0.23095028 -0.15988865 -0.568493 0.017765407 0.017765407 -0.39083895
000070 03 d7 ee 11 eb cd e8 f3 ff fe f1 e7 ed 0f e1 f8
       0.05329622 -0.7283817 -0.3197773 0.3020119 -0.37307355 -0.9060357 -0.42636976 -0.23095028 -0.017765407 -0.035530813 -0.2664811 -0.44413516 -0.3375427 0.2664811 -0.5507276 -0.14212325
000080 fa ff e4 f2 13 f9 c1 07 f9 fc cb 06 fd 0e 09 db
       -0.10659244 -0.017765407 -0.4974314 -0.2487157 0.3375427 -0.12435785 -1.1192206 0.12435785 -0.12435785 -0.071061626 -0.9415665 0.10659244 -0.05329622 0.2487157 0.15988865 -0.65732
000090 f9 eb cb f6 ff f1 10 ff f9 08 e5 e0 f9 11 b1 ca
       -0.12435785 -0.37307355 -0.9415665 -0.17765406 -0.017765407 -0.2664811 0.2842465 -0.017765407 -0.12435785 0.14212325 -0.47966596 -0.568493 -0.12435785 0.3020119 -1.403467 -0.9593319
0000a0 ee f1 d8 f9 e8 05 fa fd f9 e6 e9 c7 ff 1f 00 e7
       -0.3197773 -0.2664811 -0.71061623 -0.12435785 -0.42636976 0.08882703 -0.10659244 -0.05329622 -0.12435785 -0.46190056 -0.40860435 -1.0126282 -0.017765407 0.5507276 0.0 -0.44413516
0000b0 e6 03 ea 03 9f d0 f8 ec f1 dc db ea db 0d cc e5
       -0.46190056 0.05329622 -0.39083895 0.05329622 -1.7232444 -0.8527395 -0.14212325 -0.35530812 -0.2664811 -0.6395546 -0.65732 -0.39083895 -0.65732 0.23095028 -0.9238011 -0.47966596
0000c0 f3 cc e5 b4 e2 ef ed 16 bf ff d8 0e e4 f7 0b fd
       -0.23095028 -0.9238011 -0.47966596 -1.3501709 -0.5329622 -0.3020119 -0.3375427 0.39083895 -1.1547514 -0.017765407 -0.71061623 0.2487157 -0.4974314 -0.15988865 0.19541948 -0.05329622
0000d0 ee ce f0 fb da f1 e8 fe 05 c9 da db e2 05 d8 f2
       -0.3197773 -0.8882703 -0.2842465 -0.08882703 -0.6750854 -0.2664811 -0.42636976 -0.035530813 0.08882703 -0.97709733 -0.6750854 -0.65732 -0.5329622 0.08882703 -0.71061623 -0.2487157
0000e0 f2 e3 e4 c6 f0 01 f6 00 0a ce dc e3 01 01 fb fa
       -0.2487157 -0.5151968 -0.4974314 -1.0303936 -0.2842465 0.017765407 -0.17765406 0.0 0.17765406 -0.8882703 -0.6395546 -0.5151968 0.017765407 0.017765407 -0.08882703 -0.10659244
0000f0 fa 02 f4 f5 13 df f4 da f6 fe d6 ce d8 fb ff ec
       -0.10659244 0.035530813 -0.21318488 -0.19541948 0.3375427 -0.5862584 -0.21318488 -0.6750854 -0.17765406 -0.035530813 -0.7461471 -0.8882703 -0.71061623 -0.08882703 -0.017765407 -0.35530812
