neural_network/models/dynamic_quant_model.tflite (tflite, 14496 bytes, 10 tensors)

sequential_38/dense_85/MatMul f4 [6, 8]
00000000: 10af 96bf 1b76 c3bf 4a28 a9c0 d269 78bf
00000010: 0c3c 6dc0 8194 c2bf a866 623f 23e1 56c0
00000020: 00cd 4c3e aeb0 bfbd 8232 313e 40fa 66be
00000030: d90e 113e f19e b93e 65a0 e63e af5e 8bbe
00000040: d444 113f 3b2c c43e cc33 f73d e460 d7bd
00000050: a560 013f 9eb7 36bb ef25 313e f1be 99be
00000060: e51b 563d d8a5 3b3d 773c 863c 9128 ab3e
00000070: def8 ce3e 2149 b83e bcd2 3a3e 4fee 0e3e
00000080: a484 d3be 7c89 d9be 4848 c7be 94dd 1b3f
00000090: 522b b73d b052 38be eb7c 27be 0a27 9a3e
000000a0: 189c e73e f82a ca3e 68b3 88be f95d 8f3e
000000b0: ef4c 543f 9108 9b3e e615 ba3e 21ae 36ba
-1.1772175 -1.5270418 -5.286168 -0.9703647 -3.70679 -1.520157 0.8843789 -3.3574913
0.20000076 -0.09359871 0.17304423 -0.225564 0.1416582 0.36254075 0.45044246 -0.27220675
0.5674565 0.38314995 0.12070426 -0.10516527 0.5053809 -0.002788044 0.17299627 -0.3002849
0.052272696 0.045812458 0.016386254 0.33429387 0.40424246 0.35993293 0.18244451 0.13958095
-0.41312134 -0.42487705 -0.38922334 0.60884976 0.089438096 -0.18000293 -0.16356246 0.3010791
0.45236278 0.39485908 -0.26699376 0.28001383 0.8292989 0.30279973 0.36344832 -0.0006968696

sequential_38/dense_84/MatMul f4 [8, 8]
00000000: 4bd7 653e b384 c83d d231 81be 86fa cebd
00000010: 8336 a53d 3f01 aa3e c765 bb3e f972 84c0
00000020: 54d4 673e 8247 763d 1a2f 7dbd 3a3b 0cbd
00000030: acf5 a1bd 4376 5c3e add9 653b 56aa c83e
00000040: 952c 86bd 567b 1a3e d4a6 dd3d dc96 91be
00000050: 9339 1e3f 7ef1 853e 3eb0 513d 52c1 af3d
00000060: 7bad 47bd 4031 1a3d c86d 123e 912e dcbd
00000070: d14d 8d3a dd34 1e3d fb66 0d3f 7ff7 26be
00000080: 44cf 043f fde0 0a3e 0ce6 43be 21e4 8e3e
00000090: cae9 3dbe 670b c1be 0b4d 1cc0 ef57 0dc0
000000a0: 79bc 113d ad18 b03e 0a57 1c3e 9708 e33e
000000b0: bfdd 153d a452 8b3e 23d1 a2bb 592e e6bc
000000c0: db26 fdbc bcfc 0d3f 6f0a 1bbf 1a61 60be
000000d0: 4940 83be 8ee7 053e a065 223d 345b ef3d
000000e0: 92bd 20be 25b1 22bd 6286 6f3f 569a 5bbc
000000f0: 64fa b6bd 0dcf 7ebe 2d6d 29bf c872 773e
0.22445409 0.09790935 -0.25233322 -0.10106377 0.08067038 0.33204076 0.36601087 -4.1390347
0.2263959 0.06012679 -0.061812498 -0.03423617 -0.07908186 0.21529488 0.0035072372 0.39192456
-0.06551472 0.15086111 0.108228356 -0.2843541 0.618066 0.26160806 0.05119347 0.08581795
-0.04874943 0.037644625 0.1429969 -0.10751069 0.0010780637 0.038624633 0.5523526 -0.1630535
0.5187876 0.13562389 -0.19130725 0.27908424 -0.18546215 -0.37704012 -2.4422023 -2.208492
0.035580132 0.34393826 0.15267578 0.4434249 0.036588427 0.27211487 -0.0049687787 -0.028098272
-0.030902317 0.5546377 -0.60562795 -0.21912041 -0.25634983 0.13076612 0.0396477 0.116873175
-0.15697315 -0.03971972 0.93564427 -0.013403496 -0.08934477 -0.24883671 -0.66182214 0.2416488

sequential_38/dense_83/BiasAdd/ReadVariableOp f4 [8]
00000000: 8339 323f 2e3e f83e 0ce7 89ba 7f78 f73f
00000010: 8b98 a9bf 93ce c0be 03cc 2f40 ab95 0d40
0.69619006 0.4848494 -0.0010521128 1.9333647 -1.3249677 -0.37657604 2.746827 2.21226

sequential_38/dense_84/BiasAdd/ReadVariableOp f4 [8]
00000000: eee5 f2bc 6823 e9bf 7200 7bbc e62f 08bf
00000010: a85c 553c 6230 8aba 7df4 0ec0 b3b9 993c
-0.029650655 -1.821393 -0.01531993 -0.5319809 0.013022579 -0.0010542984 -2.2336724 0.018765306

sequential_38/dense_85/BiasAdd/ReadVariableOp f4 [6]
00000000: 2baa a540 d26e 79bc 8a40 49bf fc44 21bf
00000010: 020f 953f aa1a 8dc0
5.1770225 -0.0152241755 -0.78614104 -0.62995887 1.1645205 -4.409505

sequential_38/conv2d_71/BiasAdd/ReadVariableOp f4 [8]
00000000: 5638 b1be 7324 b5bf fc7f 80be 2daf 04bf
00000010: e4c3 a6bf 8967 3ebf 1d2c d5be 0613 50be
-0.34613293 -1.4151748 -0.25097644 -0.518298 -1.3028531 -0.7437673 -0.41635218 -0.20319757

sequential_38/conv2d_72/BiasAdd/ReadVariableOp f4 [16]
00000000: 1e4a 3fbe ddc8 16bf 1731 1f3f 01bb 70bd
00000010: bc0d 9cbd d127 a53c dc01 99bd 01d7 e4bd
00000020: cc46 11be b2c9 f6be 9507 8bbe 32a7 b7bd
00000030: efaf 493e e761 dbbc ee95 10bf bb97 92bf
-0.18680617 -0.58900243 0.6218428 -0.05877209 -0.07619807 0.020160588 -0.07471058 -0.11173821
-0.14187163 -0.48200756 -0.27154222 -0.08967437 0.1969602 -0.026780082 -0.56478775 -1.1452554

sequential_38/conv2d_71/Conv2D f4 [8, 3, 3, 1]
00000000: 5f77 30bf 9ecc 26bf 3877 4e3d 37c6 16be
00000010: 5935 8d3e cfdf 903e f896 353f b245 183f
00000020: 0309 173e e6a8 063f 0831 5cbe 4024 21bf
00000030: 69f5 923e 69ff ef3d 3b18 8f3d 7cd9 8fbe
00000040: 9366 8e3e 5c1d 463f 5946 c6be 3b05 0bbf
00000050: 27fb 9dbe 129c 393f 7d61 493f bc9a 573f
00000060: e992 10bf 8a66 96be 573c bebe 357d d6be
00000070: b8fb 50be e313 00bf 0ff6 9abe 1513 c6bd
00000080: 9899 fdbe e89b 033f e968 6abe 3841 1cbd
00000090: 846e 293f 7a45 e9be 5239 e33d a23e 8ebe
000000a0: fb74 19be 60b2 b9be 1194 28bf f92c 113f
000000b0: 39de 093d 3b7c 27be fbb3 c43e ae34 a3be
000000c0: ac95 dd3d 1aa9 5b3e 45b2 b2bd 1019 74be
000000d0: ceea 21be 2742 9cbd b3ab 633d 488d 353f
000000e0: 8ef1 c13e 0f1d 75be d7d8 ce3c 6a65 403f
000000f0: b46e d23d 0763 febe 747c 663e c814 1f3d
00000100: 62f3 a4be 4415 4e3e cb3b 933e b6e0 263e
00000110: 5018 43bf 08d1 25be ae25 ae3e a07a e1be
-0.68932146 -0.6515597 0.050406665 -0.1472405 0.27579764 0.28295752 0.70933485 0.59481347
0.14749531 0.5260147 -0.21503079 -0.6294594 0.28702858 0.117186375 0.069870435 -0.28095615
0.27812633 0.7738855 -0.38725546 -0.54304856 -0.30855677 0.7250377 0.7866438 0.8422048
-0.5647417 -0.29375106 -0.3715541 -0.418924 -0.20408523 -0.50030345 -0.30265853 -0.09671608
-0.49531245 0.5140977 -0.22891583 -0.038148135 0.6618426 -0.4556082 0.11094917 -0.2778216
-0.14986031 -0.36268902 -0.6585093 0.5670925 0.033659194 -0.16355984 0.38418564 -0.3187613
0.10819563 0.21451226 -0.087254085 -0.23837686 -0.15812227 -0.07629805 0.055583667 0.70918703
0.37879604 -0.23936866 0.025249882 0.75154746 0.10275021 -0.49684927 0.22508413 0.038838178
-0.32216936 0.201253 0.28756556 0.16296658 -0.7620897 -0.1619302 0.34013122 -0.44038868

sequential_38/conv2d_72/Conv2D i1 [16, 3, 3, 8]
00000000: 5892 55e0 9fc3 f0f7 be15 ed1c 3d6a dfa0
00000010: 152e 03b5 1292 e069 b0cb 281a b3b6 aea7
00000020: c136 eba1 8fb8 8db1 0f92 eb97 f7d4 e103
00000030: d812 b303 07ad 9dca ec8e bbb2 f113 d205
00000040: 49ff 4a09 81cd eac3 2813 fea4 25a6 f211
00000050: 2798 2794 ea3b 5fe5 0a91 a254 3318 9d3a
00000060: 13e5 dd12 bc1e 0e4b 91a0 81ce bc26 e4f3
00000070: b9d2 a631 6915 c11d e3ba ad25 d823 2532
00000080: b1f9 e044 f1d3 c60d 433c d69a e1d4 4f88
00000090: b955 a08d 5944 1585 c68c 12fc ff92 b807
000000a0: e9fb f0de 8cd2 e317 e9c3 d7f0 cad5 ef22
000000b0: 3eec 33af ec2b fb7f fb97 07df f5d5 9f2b
000000c0: a33c d307 c015 9607 a033 2ff3 dc38 c613
000000d0: 15bb 45f2 cba8 d347 c1c8 84b1 d7e5 c317
000000e0: c7f6 fb18 ccdf c926 6177 1d64 3c38 d4fa
000000f0: 0cdb abb0 9013 e8bb d506 d09d 33ed c3d7
88 -110 85 -32 -97 -61 -16 -9
-66 21 -19 28 61 106 -33 -96
21 46 3 -75 18 -110 -32 105
-80 -53 40 26 -77 -74 -82 -89
-63 54 -21 -95 -113 -72 -115 -79
15 -110 -21 -105 -9 -44 -31 3
-40 18 -77 3 7 -83 -99 -54
-20 -114 -69 -78 -15 19 -46 5
73 -1 74 9 -127 -51 -22 -61
40 19 -2 -92 37 -90 -14 17
39 -104 39 -108 -22 59 95 -27
10 -111 -94 84 51 24 -99 58
19 -27 -35 18 -68 30 14 75
-111 -96 -127 -50 -68 38 -28 -13
-71 -46 -90 49 105 21 -63 29
-29 -70 -83 37 -40 35 37 50
-79 -7 -32 68 -15 -45 -58 13
67 60 -42 -102 -31 -44 79 -120
-71 85 -96 -115 89 68 21 -123
-58 -116 18 -4 -1 -110 -72 7
-23 -5 -16 -34 -116 -46 -29 23
-23 -61 -41 -16 -54 -43 -17 34
62 -20 51 -81 -20 43 -5 127
-5 -105 7 -33 -11 -43 -97 43
-93 60 -45 7 -64 21 -106 7
-96 51 47 -13 -36 56 -58 19
21 -69 69 -14 -53 -88 -45 71
-63 -56 -124 -79 -41 -27 -61 23
-57 -10 -5 24 -52 -33 -55 38
97 119 29 100 60 56 -44 -6
12 -37 -85 -80 -112 19 -24 -69
-43 6 -48 -99 51 -19 -61 -41

sequential_38/dense_83/MatMul i1 [8, 1024] scale=0.022027025 zero_point=0
00000000: 0adb f7e7 ca0d 0107 01f5 0102 2a18 fbfd
00000010: dd02 1424 ffe3 00cd fc30 0cfd 1d08 ee10
00000020: 101f f4ee 10f9 fc39 01c8 4afa e103 f8d7
00000030: 492d f1f1 343c fdf5 fff5 97f9 c9ef dcf1
00000040: 0303 f418 2c04 ff17 ff16 e300 26ff fce3
00000050: f9fd de0c fc0e 011a 0010 3200 f20c 0d0b
00000060: 4113 2001 2bd9 fde8 0211 e8fd ca02 f6dd
00000070: bfea 00fe c0c3 fc05 fff5 cafd 22f5 c2eb
00000080: fdf0 0cea 1a04 fddb fef3 cb00 190d ec02
00000090: b314 13fb f504 02db fc2c 2c01 0ebf e40b
000000a0: 050b 2ce7 39ee fcfd fe48 f300 f5e5 fdfc
000000b0: c0d8 d40e 51eb 0404 fe32 c301 c7f7 c4e9
000000c0: 2cf5 c6ec 12da ff02 fc09 effe 1818 1318
000000d0: ed04 0b07 d4ed fef5 fc3a 16fe 1221 0311
000000e0: 0015 ef3f 2bdf 000a fd0e d7fc f810 f3d0
000000f0: daef daee 064c ff04 fd31 10ff cd1e d9e8
0.22027025 -0.81499994 -0.19824323 -0.55067563 -1.1894593 0.28635132 0.022027025 0.15418917
0.022027025 -0.24229728 0.022027025 0.04405405 0.9251351 0.5286486 -0.11013512 -0.06608108
-0.77094585 0.04405405 0.4405405 0.7929729 -0.022027025 -0.63878375 0.0 -1.1233783
-0.0881081 1.0572972 0.2643243 -0.06608108 0.63878375 0.1762162 -0.39648646 0.3524324
0.3524324 0.6828378 -0.2643243 -0.39648646 0.3524324 -0.15418917 -0.0881081 1.2555404
0.022027025 -1.2335134 1.6299999 -0.13216215 -0.6828378 0.06608108 -0.1762162 -0.903108
1.6079729 0.9912161 -0.33040538 -0.33040538 1.1454053 1.3216215 -0.06608108 -0.24229728
-0.022027025 -0.24229728 -2.3128376 -0.15418917 -1.2114863 -0.37445942 -0.7929729 -0.33040538
0.06608108 0.06608108 -0.2643243 0.5286486 0.9691891 0.0881081 -0.022027025 0.5066216
-0.022027025 0.48459455 -0.63878375 0.0 0.83702695 -0.022027025 -0.0881081 -0.63878375
-0.15418917 -0.06608108 -0.74891883 0.2643243 -0.0881081 0.30837834 0.022027025 0.57270265
0.0 0.3524324 1.1013513 0.0 -0.30837834 0.2643243 0.28635132 0.24229728
1.4317566 0.41851348 0.7048648 0.022027025 0.9471621 -0.85905397 -0.06608108 -0.5286486
0.04405405 0.37445942 -0.5286486 -0.06608108 -1.1894593 0.04405405 -0.22027025 -0.77094585
-1.4317566 -0.48459455 0.0 -0.04405405 -1.4097296 -1.3436486 -0.0881081 0.11013512
-0.022027025 -0.24229728 -1.1894593 -0.06608108 0.74891883 -0.24229728 -1.3656756 -0.46256754
-0.06608108 -0.3524324 0.2643243 -0.48459455 0.57270265 0.0881081 -0.06608108 -0.81499994
-0.04405405 -0.28635132 -1.1674323 0.0 0.55067563 0.28635132 -0.4405405 0.04405405
-1.6960809 0.4405405 0.41851348 -0.11013512 -0.24229728 0.0881081 0.04405405 -0.81499994
-0.0881081 0.9691891 0.9691891 0.022027025 0.30837834 -1.4317566 -0.6167567 0.24229728
0.11013512 0.24229728 0.9691891 -0.55067563 1.2555404 -0.39648646 -0.0881081 -0.06608108
-0.04405405 1.5859458 -0.28635132 0.0 -0.24229728 -0.59472966 -0.06608108 -0.0881081
-1.4097296 -0.881081 -0.9691891 0.30837834 1.784189 -0.46256754 0.0881081 0.0881081
-0.04405405 1.1013513 -1.3436486 0.022027025 -1.2555404 -0.19824323 -1.3216215 -0.5066216
0.9691891 -0.24229728 -1.2775675 -0.4405405 0.39648646 -0.83702695 -0.022027025 0.04405405
-0.0881081 0.19824323 -0.37445942 -0.04405405 0.5286486 0.5286486 0.41851348 0.5286486
-0.41851348 0.0881081 0.24229728 0.15418917 -0.9691891 -0.41851348 -0.04405405 -0.24229728
-0.0881081 1.2775675 0.48459455 -0.04405405 0.39648646 0.7268918 0.06608108 0.37445942
0.0 0.46256754 -0.37445942 1.3877026 0.9471621 -0.7268918 0.0 0.22027025
-0.06608108 0.30837834 -0.903108 -0.0881081 -0.1762162 0.3524324 -0.28635132 -1.0572972
-0.83702695 -0.37445942 -0.83702695 -0.39648646 0.13216215 1.6740539 -0.022027025 0.0881081
-0.06608108 1.0793242 0.3524324 -0.022027025 -1.1233783 0.66081077 -0.85905397 -0.5286486
