neural_network/models/dynamic_quant_model.tflite (tflite, 13576 bytes, 6 tensors)

sequential_48/dense_110/BiasAdd/ReadVariableOp f4 [6]
000000 a0 d4 c7 3e e2 6c 74 3d 02 b0 e2 bd 38 27 c5 bd
       0.39029408 0.05967415 -0.11068727 -0.09626621
000010 83 8c 85 3d 97 c7 a5 bc
       0.06520941 -0.020236773

sequential_48/conv2d_90/BiasAdd/ReadVariableOp f4 [32]
000000 0d 19 c7 bd aa 8e 74 bd d9 39 a4 bd d5 94 9a bc
       -0.09721575 -0.059706368 -0.08018846 -0.018869797
000010 51 8b 6a bd 6e 1e 85 bd ee a9 7e be be ae 52 bd
       -0.05726177 -0.064999446 -0.2486951 -0.05143618
000020 ca 67 0c be 91 36 f1 bd 9a a3 94 be 11 db 99 bc
       -0.13711467 -0.11777986 -0.29031068 -0.018781217
000030 1e 66 e1 bd d6 a2 07 be d1 c5 71 bb a3 2d aa bd
       -0.110058054 -0.1324571 -0.003689159 -0.08309486
000040 54 1e 3f 3d 8f 19 6e bd d5 78 75 3b fe 4a f7 bd
       0.046659783 -0.058129843 0.0037456055 -0.120748505
000050 9d 89 aa bd be a7 98 bd a1 26 f5 bd 58 e9 5c be
       -0.08327029 -0.07453869 -0.119702585 -0.21573389
000060 e3 2d 0d be 57 7e 22 be cb 85 32 be 92 8e cb bd
       -0.13787036 -0.15868507 -0.1743385 -0.099393025
000070 12 46 19 be 6a ca 3e 3e c3 4f 0e be ff e6 5a bd
       -0.14968136 0.18631902 -0.13897614 -0.05344295

sequential_48/conv2d_91/BiasAdd/ReadVariableOp f4 [16]
000000 18 7c 65 3c 14 91 89 3e b6 7c e7 bc a1 4f 9d 3d
       0.014006637 0.26868498 -0.028257709 0.07681204
000010 0c e5 b6 3d 63 21 f1 bd 77 b0 3c bd fe 94 a2 bc
       0.08930406 -0.11773946 -0.046066727 -0.019846436
000020 2c 23 3b 3d 4f c4 70 3e a5 46 a0 3e 98 22 81 3d
       0.04568784 0.23512386 0.31303898 0.06305426
000030 db 81 87 bc e5 f8 19 3e 41 26 5d 3c 0c 94 1a be
       -0.016541412 0.15036352 0.01349789 -0.15095538

sequential_48/conv2d_90/Conv2D f4 [32, 3, 3, 1]
000000 f8 1b 28 be 8c 1f 09 3e 1c 13 86 bd 10 fc 37 be
       -0.16416919 0.1339094 -0.065466136 -0.17967248
000010 9d 2a ae 3d 74 73 5a 3d d4 b6 ad bd 0c 43 ce bc
       0.085042216 0.05333276 -0.08482137 -0.025178455
000020 e6 9e 6d 3e 88 16 e5 bd bc 7c ef bd 71 bb ef bd
       0.23205146 -0.11185938 -0.11693713 -0.117056735
000030 a0 7a 26 3e cd 87 bb 3d f6 ab 31 3e d6 9e 83 3d
       0.16257715 0.09156761 0.17350754 0.0642678
000040 35 8b b6 bc cd b9 d1 3c fb f6 b2 be d4 d5 71 3e
       -0.022283176 0.025601292 -0.34954056 0.23616725
000050 2a dc 5a be b8 fa 77 3e a6 14 07 3d ed f6 6f 3d
       -0.21373048 0.24216735 0.032978676 0.058585096
000060 12 9d c8 3d 2a d1 8c be 56 bc 3b 3e 55 cc c5 bc
       0.09795584 -0.2750333 0.18333563 -0.024145285
000070 26 40 16 3e 90 c6 84 be 3c d4 a8 bd 1c 39 27 3e
       0.14672908 -0.2593274 -0.082436055 0.16330379
000080 20 57 8e bd d0 3a 6b bc 56 de 55 3b 4f b0 5a 3e
       -0.069502115 -0.014357284 0.0032633743 0.21356319
000090 2f 04 b7 bd bb d6 5d be c7 e4 5f 3e b6 51 9d 3e
       -0.08936345 -0.21663944 0.21864615 0.30726403
0000a0 96 2a 34 3e 0f e7 89 be 6d 4f 27 bc e9 69 18 3d
       0.1759437 -0.26934096 -0.010211808 0.03721038
0000b0 62 b0 73 be d6 ea ad bc d6 ff 2c 3e 9e 8e 64 3e
       -0.23797753 -0.021230143 0.16894469 0.22320029
0000c0 28 0b 8c 3d 41 64 72 3e 0f ff f3 bb ad 9f fd 3d
       0.068380654 0.23671056 -0.007446177 0.12383971
0000d0 8f a5 51 bc f6 f0 b7 be 19 a9 33 3d 42 7d 59 be
       -0.01279582 -0.35926026 0.043862436 -0.21239188
0000e0 29 f9 06 bf e2 8f 10 be e4 e1 4d 3d 80 e7 77 3d
       -0.5272394 -0.14117387 0.050264254 0.06052351
0000f0 07 52 3b 3c 3c 54 27 3e 25 b1 52 3e 52 35 72 3e
       0.011433131 0.16340727 0.20575388 0.23653153
000100 c6 b9 66 3e af 23 b9 be 0d f2 70 3e ce 6e 6c 3e
       0.22531804 -0.36160037 0.23529835 0.23089144
000110 44 b7 d9 be ee d2 52 bd d9 b5 c8 3d e0 d3 38 be
       -0.42522633 -0.05147069 0.0980031 -0.18049574
000120 27 c1 95 3d 8d 1b b2 be 49 90 dd 3d d3 d7 31 bd
       0.073122315 -0.34786645 0.10818536 -0.043418717
000130 49 03 07 be b9 fa 48 3e 98 66 eb bd 05 4d b3 3e
       -0.13184847 0.19626893 -0.114941776 0.350197
000140 d1 e0 01 bb 18 45 73 bd 77 66 84 be 65 ed 74 be
       -0.001981784 -0.059392065 -0.25859424 -0.23918684
000150 a2 50 29 bc 2c 43 2c 3e fb 95 da bd ba 1b 1e 3e
       -0.010334166 0.16822499 -0.10673138 0.15440264
000160 ab 4d 61 3e c9 43 b4 3e 56 50 c7 3c c4 51 2b be
       0.22002284 0.35207966 0.0243303 -0.1673041
000170 04 a4 fd bd f0 d0 1b bd a8 bd 04 3d 56 34 87 3e
       -0.12384799 -0.038041055 0.032407433 0.26407117
000180 21 f2 62 bd 81 a5 03 3e 35 b2 9e 3e e6 18 26 be
       -0.055406693 0.12856103 0.30995336 -0.16220436
000190 bd 40 5d 3d 3c 03 d9 3d e8 33 9c 3d 09 a3 2c be
       0.054016817 0.1059632 0.07627088 -0.16859068
0001a0 08 0b 76 3d 87 04 0d be 08 eb 01 bd f8 35 82 bc
       0.060069114 -0.13771258 -0.031718284 -0.015894875
0001b0 d2 9f 9f bd 0e 08 60 be d5 ea 42 3e d6 10 52 3d
       -0.07794155 -0.21878073 0.19034894 0.051285587
0001c0 f6 f3 01 3e 62 73 30 3e 3e ce 12 3e 6d f0 88 3e
       0.1269072 0.17231515 0.14336488 0.2674593
0001d0 4d eb b1 3e 8a 12 3f 3e 5b cc e4 bc 2d 81 01 bd
       0.34749833 0.18659416 -0.027929476 -0.031617332
0001e0 b6 e5 06 3e 12 c8 33 bd b3 7e 56 be 41 5e 05 be
       0.13173565 -0.043891974 -0.2094677 -0.13024236
0001f0 c9 e2 b6 bc 18 64 49 3e 5c 44 24 3e ba 81 ad 3e
       -0.022324936 0.19667089 0.16041702 0.33888036
000200 f7 1b 33 3e cc 67 cb 3d 84 4c 6d 3e 5e 3d 9c 3e
       0.17491136 0.09931907 0.2317372 0.3051557
000210 c1 c0 00 3c 01 99 01 be bc 7f bd 3d e4 a6 48 3e
       0.007858456 -0.12656023 0.09252879 0.19594914
000220 0f 8e 85 bc 0b fe 1f be e9 8b f6 bd 07 04 06 bd
       -0.01630309 -0.15624253 -0.120384045 -0.032718685
000230 3a 7b 8e bd a7 24 d3 bc 11 30 7e be 84 ea 52 3e
       -0.06957097 -0.025774313 -0.24823023 0.20597273
000240 40 8e 37 3e 57 ae b1 3e c6 71 72 3e 1e 00 d7 bc
       0.17925358 0.34703323 0.23676214 -0.026245173
000250 01 47 f0 3d b5 04 d6 3e 74 e9 88 bc 83 89 8c be
       0.11732293 0.41800466 -0.016712882 -0.27448663
000260 f2 6f af 3e e3 0f 60 3d fc ea 55 37 78 c0 68 be
       0.34265095 0.05470265 1.2750501e-05 -0.22729671
000270 35 79 a2 bd 62 43 83 3e 4b 29 cd bd 9e 47 d8 bd
       -0.07933275 0.25637347 -0.10017642 -0.10560535
000280 8f 92 12 3e 16 b0 16 be c9 5b e2 3e a1 b3 6a be
       0.1431372 -0.14715609 0.44210652 -0.22920085
000290 fd 11 54 be 25 7e b8 bd c7 f3 96 bd 48 34 2e bd
       -0.20709987 -0.09008435 -0.073707156 -0.042530328
0002a0 50 89 c8 be 95 48 16 3e 15 41 87 3e 94 ae f5 3d
       -0.3916726 0.14676125 0.2641684 0.11996189
0002b0 71 cb 91 bc 97 c1 92 bd 1c 12 1a 3e dc 36 2b be
       -0.017797204 -0.071658306 0.1504597 -0.16720146
0002c0 39 f5 77 be 6d 5f 29 3d de 45 fb bd 41 b3 8f bd
       -0.24214639 0.04135077 -0.122691855 -0.07016612
0002d0 25 8e 91 be b7 08 5f 3d 84 c3 a7 3e 97 67 89 3c
       -0.2842876 0.05445167 0.32766354 0.016773028
0002e0 0e b1 12 be b2 53 7d be 42 ff c9 3e ae 33 97 bd
       -0.14325354 -0.24738958 0.3945256 -0.07382904
0002f0 0e 08 85 be d4 57 ea 3d 57 01 c4 3e a5 0e ac 3e
       -0.25982708 0.11442533 0.38282272 0.33604923
000300 15 cb 09 be db 8f af bc 95 70 9d bd c3 cc eb bd
       -0.13456376 -0.0214309 -0.07687489 -0.115136646
000310 8d 35 d3 be cf b4 bb be ea 7b 45 be de 12 26 be
       -0.41251794 -0.36661384 -0.1928555 -0.16218135
000320 b7 d8 71 3e 65 fb f0 3d f7 e4 1c bd 61 98 08 bc
       0.23617826 0.117667 -0.038304295 -0.008337111
000330 92 bf 1c be 26 8a b1 3e 1b 2e 25 3d a3 3c 01 3e
       -0.15307453 0.3467571 0.040327173 0.12620787
000340 20 12 84 bd fd fb e3 3d fa 13 b8 3c 71 70 37 bd
       -0.064487696 0.11132047 0.022470463 -0.044784967
000350 72 8f 84 3d b2 0c 37 be 9c 5c f6 bd 15 d0 2f 3d
       0.064726725 -0.17875937 -0.120293826 0.042923052
000360 ba 9f 01 bc a3 64 32 be bf 28 2f be b3 8d 74 bc
       -0.007911617 -0.17421202 -0.17105387 -0.014926362
000370 77 7d a5 bc 6e 19 aa 3d 73 77 f7 bd 2a ef 2a 3d
       -0.020201428 0.083056316 -0.1208333 0.04173199
000380 6d 38 26 3e f2 8a 90 be 60 a7 09 be d5 2f bd be
       0.16232462 -0.28231007 -0.13442755 -0.36950555
000390 67 a2 6c be 8e 92 27 be de df 8a be 56 cd 9c 3e
       -0.23108827 -0.163645 -0.27123922 0.3062541
0003a0 62 0b 8b bd dc 42 e3 bd 06 cb 87 be 68 3c 82 3e
       -0.067892805 -0.11096737 -0.26522082 0.2543671
0003b0 74 8d 03 3d fa 70 86 3d f9 52 1f be 5a a2 40 bd
       0.032117322 0.06564517 -0.15558995 -0.04702983
0003c0 3d 69 9c 3e 92 29 76 bd 09 8d ca 3d e3 ce 13 be
       0.3054904 -0.06009824 0.098901816 -0.1443439
0003d0 5b a3 c7 3d b1 d0 a1 be e5 c5 24 3e 15 7c b9 3d
       0.097479545 -0.3160453 0.16091116 0.0905687
0003e0 be b6 b5 be e5 1e a6 3c 30 d3 32 be 2a a1 7b 3d
       -0.35490984 0.020278404 -0.17463374 0.061432995
0003f0 c4 f6 b3 bb 8d eb 96 3d 7c 03 04 3e 00 ca 14 be
       -0.0054920632 0.073691465 0.12891954 -0.14530182

sequential_48/conv2d_91/Conv2D i1 [16, 3, 3, 32]
000000 df 10 2a fe 0a fd 15 18 c9 e3 c7 df ef 07 13 e1
       -33 16 42 -2 10 -3 21 24 -55 -29 -57 -33 -17 7 19 -31
000010 1e f8 c3 0f 04 ea ec e7 de 16 f3 25 e5 15 07 0b
       30 -8 -61 15 4 -22 -20 -25 -34 22 -13 37 -27 21 7 11
000020 f4 e3 e8 ea f6 a3 1c f8 16 fe 02 10 eb f2 cf ec
       -12 -29 -24 -22 -10 -93 28 -8 22 -2 2 16 -21 -14 -49 -20
000030 ed 04 f9 10 1f fb da fa ff 10 1b 0b 0e e1 fb e9
       -19 4 -7 16 31 -5 -38 -6 -1 16 27 11 14 -31 -5 -23
000040 61 e3 51 21 02 04 c5 1a dc 0b d5 02 09 41 0b be
       97 -29 81 33 2 4 -59 26 -36 11 -43 2 9 65 11 -66
000050 12 3c 22 d6 f7 2b cf c6 c8 07 11 ef bb f5 34 2a
       18 60 34 -42 -9 43 -49 -58 -56 7 17 -17 -69 -11 52 42
000060 07 ec 00 14 28 fc e7 11 b0 12 1d 16 ea 09 07 0b
       7 -20 0 20 40 -4 -25 17 -80 18 29 22 -22 9 7 11
000070 e5 fb bf 10 0c af f8 e5 da 16 1f 18 fd 22 1b 33
       -27 -5 -65 16 12 -81 -8 -27 -38 22 31 24 -3 34 27 51
000080 f0 e5 b0 f5 f2 b8 20 d2 07 02 04 08 d3 f4 f1 f3
       -16 -27 -80 -11 -14 -72 32 -46 7 2 4 8 -45 -12 -15 -13
000090 ea d9 f2 1c 0f e1 e1 e6 0b 16 e2 e8 03 cd ec ca
       -22 -39 -14 28 15 -31 -31 -26 11 22 -30 -24 3 -51 -20 -54
0000a0 38 07 44 12 04 20 ce 0a a2 d6 bc 17 eb 3c 1c 1a
       56 7 68 18 4 32 -50 10 -94 -42 -68 23 -21 60 28 26
0000b0 18 5d fc 00 27 04 d3 d3 ec ea 3c e3 f8 fc 09 22
       24 93 -4 0 39 4 -45 -45 -20 -22 60 -29 -8 -4 9 34
0000c0 11 db f9 27 f1 d8 20 ff c7 11 00 e6 ec 05 01 eb
       17 -37 -7 39 -15 -40 32 -1 -57 17 0 -26 -20 5 1 -21
0000d0 07 19 d4 03 db c7 f1 e5 18 10 e0 0b 24 07 30 00
       7 25 -44 3 -37 -57 -15 -27 24 16 -32 11 36 7 48 0
0000e0 e8 14 89 ff 08 fa 18 1b 19 20 07 f5 15 1a 06 f5
       -24 20 -119 -1 8 -6 24 27 25 32 7 -11 21 26 6 -11
0000f0 13 ed ef 13 f7 bf 13 ef 1a 0a 9d ff 02 02 fc 1e
       19 -19 -17 19 -9 -65 19 -17 26 10 -99 -1 2 2 -4 30

sequential_48/dense_110/MatMul i1 [6, 704] scale=0.0069868173 zero_point=0
000000 08 f7 01 0f ef 01 fb 33 1c ea 27 15 25 3c c2 23
       0.05589454 -0.06288136 0.0069868173 0.10480226 -0.1187759 0.0069868173 -0.03493409 0.35632768 0.19563088 -0.15370998 0.27248588 0.14672317 0.25851223 0.41920903 -0.4331827 0.2445386
000010 2f 1d 12 c0 01 0b 1d de 0e 31 09 eb fc b3 1d c3
       0.3283804 0.2026177 0.12576272 -0.4471563 0.0069868173 0.07685499 0.2026177 -0.2375518 0.09781544 0.34235406 0.06288136 -0.14672317 -0.02794727 -0.5379849 0.2026177 -0.42619586
000020 dd c9 ec 35 f9 de f1 09 ff 2f c0 e5 30 09 de ff
       -0.2445386 -0.38427496 -0.13973635 0.3703013 -0.04890772 -0.2375518 -0.10480226 0.06288136 -0.0069868173 0.3283804 -0.4471563 -0.18864407 0.33536723 0.06288136 -0.2375518 -0.0069868173
000030 25 e5 ec 1a 03 0e 02 f3 03 1e cf 3d 34 17 d5 c2
       0.25851223 -0.18864407 -0.13973635 0.18165725 0.020960452 0.09781544 0.013973635 -0.09082863 0.020960452 0.20960452 -0.34235406 0.42619586 0.3633145 0.1606968 -0.30043316 -0.4331827
000040 fc ee fd 18 00 08 0a 1a 1b db 0a 24 e2 e7 d5 17
       -0.02794727 -0.12576272 -0.020960452 0.16768362 0.0 0.05589454 0.06986818 0.18165725 0.18864407 -0.25851223 0.06986818 0.25152543 -0.20960452 -0.17467043 -0.30043316 0.1606968
000050 ed 2b e1 c5 03 05 e2 ca 11 22 e9 ec e6 c2 16 be
       -0.13274953 0.30043316 -0.21659134 -0.41222224 0.020960452 0.03493409 -0.20960452 -0.37728813 0.1187759 0.2375518 -0.1606968 -0.13973635 -0.18165725 -0.4331827 0.15370998 -0.46112993
000060 e4 de c0 2c 2f dd bb e9 0f 19 c3 03 e1 37 f3 03
       -0.19563088 -0.2375518 -0.4471563 0.30741996 0.3283804 -0.2445386 -0.48209038 -0.1606968 0.10480226 0.17467043 -0.42619586 0.020960452 -0.21659134 0.38427496 -0.09082863 0.020960452
000070 04 f4 e2 33 17 e9 d2 f3 1e 15 f4 f6 21 30 a9 0d
       0.02794727 -0.08384181 -0.20960452 0.35632768 0.1606968 -0.1606968 -0.3213936 -0.09082863 0.20960452 0.14672317 -0.08384181 -0.06986818 0.23056497 0.33536723 -0.6078531 0.09082863
000080 0e fe 06 12 13 00 eb ff 22 c3 2d 19 d1 0c ec 0f
       0.09781544 -0.013973635 0.041920904 0.12576272 0.13274953 0.0 -0.14672317 -0.0069868173 0.2375518 -0.42619586 0.31440678 0.17467043 -0.3283804 0.08384181 -0.13973635 0.10480226
000090 fc 1b f7 ca ed 10 01 de ec 2a 05 f9 de cc 27 bb
       -0.02794727 0.18864407 -0.06288136 -0.37728813 -0.13274953 0.11178908 0.0069868173 -0.2375518 -0.13973635 0.29344633 0.03493409 -0.04890772 -0.2375518 -0.3633145 0.27248588 -0.48209038
0000a0 ec db de 1f 1a 20 ee fb 1a 0c 15 00 0e 0f 04 fc
       -0.13973635 -0.25851223 -0.2375518 0.21659134 0.18165725 0.22357816 -0.12576272 -0.03493409 0.18165725 0.08384181 0.14672317 0.0 0.09781544 0.10480226 0.02794727 -0.02794727
0000b0 0e 0b e8 40 49 32 19 fa e5 4a fb 2c ec 37 0d 12
       0.09781544 0.07685499 -0.16768362 0.4471563 0.51003766 0.34934086 0.17467043 -0.041920904 -0.18864407 0.51702446 -0.03493409 0.30741996 -0.13973635 0.38427496 0.09082863 0.12576272
0000c0 19 07 da f7 e0 e5 13 09 15 c4 2c 10 de e7 cc 19
       0.17467043 0.04890772 -0.26549906 -0.06288136 -0.22357816 -0.18864407 0.13274953 0.06288136 0.14672317 -0.41920903 0.30741996 0.11178908 -0.2375518 -0.17467043 -0.3633145 0.17467043
0000d0 0e 02 01 c3 f8 f8 e6 d1 05 24 24 f5 c4 ab 0e d2
       0.09781544 0.013973635 0.0069868173 -0.42619586 -0.05589454 -0.05589454 -0.18165725 -0.3283804 0.03493409 0.25152543 0.25152543 -0.07685499 -0.41920903 -0.59387946 0.09781544 -0.3213936
0000e0 f6 c3 e4 26 13 ee c3 0f 49 04 11 ec e6 12 e1 07
       -0.06986818 -0.42619586 -0.19563088 0.26549906 0.13274953 -0.12576272 -0.42619586 0.10480226 0.51003766 0.02794727 0.1187759 -0.13973635 -0.18165725 0.12576272 -0.21659134 0.04890772
0000f0 14 ef fa 0c f8 06 d2 bd ea fd ec ea df 14 e0 d5
       0.13973635 -0.1187759 -0.041920904 0.08384181 -0.05589454 0.041920904 -0.3213936 -0.46811676 -0.15370998 -0.020960452 -0.13973635 -0.15370998 -0.23056497 0.13973635 -0.22357816 -0.30043316
