neural_network/models/dynamic_quant_model.tflite (tflite, 13456 bytes, 6 tensors)

sequential/dense/BiasAdd/ReadVariableOp f4 [6]
000000 5d a0 28 3e 23 cc 97 3c e6 ae 1f bd 3e 7b 8b be
       0.16467424 0.018529957 -0.038985156 -0.27242464
000010 c2 69 2e 3e 2b 12 4a bd
       0.17032531 -0.049333733

sequential/conv2d/BiasAdd/ReadVariableOp f4 [32]
000000 7a 9c ad bd 3b ef 60 be d7 8a 3f bd bd 0f d4 bd
       -0.08477111 -0.21966259 -0.046763267 -0.10354564
000010 a1 0d 91 bc 21 35 50 be bb 4d 9b bd d9 d2 29 be
       -0.017706694 -0.20332767 -0.07583185 -0.16584338
000020 27 50 85 bd f7 f1 33 bd fd 31 02 3e 60 de b3 bd
       -0.065094285 -0.043931928 0.12714382 -0.08782649
000030 12 8a 58 bd db a9 19 3e 74 34 28 be 4c 3d 7c be
       -0.05286605 0.15006201 -0.1642626 -0.24632758
000040 a5 28 08 be 30 22 1f be 82 fe 25 be 1d 89 26 be
       -0.13296755 -0.15540385 -0.16210368 -0.16263242
000050 86 5f 5f be 26 53 92 bc 9b 70 84 be 7e 74 97 bd
       -0.21813783 -0.017861914 -0.2586716 -0.07395266
000060 46 68 73 3d 81 7d ab bd ac 57 80 be 33 ab 60 bd
       0.059425615 -0.08373547 -0.25066888 -0.05485077
000070 a0 b6 9d be 1e 07 68 be 52 96 bc be 03 d8 16 be
       -0.30803394 -0.22658965 -0.36833435 -0.1473084

sequential/conv2d_1/BiasAdd/ReadVariableOp f4 [16]
000000 b5 1a d8 bc a2 ea 0d 3e 03 2a 0e bd 3f b8 ad bd
       -0.026379922 0.13859037 -0.034708034 -0.08482408
000010 63 c2 20 be a1 4a 19 be 06 de df 3d 23 5d 92 3e
       -0.15699153 -0.14969875 0.109310195 0.28586683
000020 a6 89 51 3d 7b ae 6b bd 15 59 2d 3e 88 07 3f 3e
       0.051156662 -0.057539444 0.16928513 0.18655217
000030 ad e1 9e 3d 9c d2 c4 3c cb b3 09 3d e0 4d f0 3d
       0.07757888 0.024026208 0.03361873 0.117336035

sequential/conv2d/Conv2D f4 [32, 3, 3, 1]
000000 9f f8 b8 bd 52 fd 9e 3e 31 ad 0e 3f a8 2c 0d 3e
       -0.09031796 0.31052643 0.5573302 0.13786566
000010 5f a0 68 3e 03 66 a1 bd 52 a7 24 3e 83 ed 56 be
       0.22717427 -0.07880785 0.16079453 -0.20989041
000020 10 79 ef be 61 d6 1a 3e 38 eb a8 3e 0d c1 64 3d
       -0.4677205 0.15120842 0.32991958 0.05584817
000030 49 88 9c bc db c7 1b 3e 08 f6 b2 3e 07 9c 8a bd
       -0.019107955 0.15212958 0.34953332 -0.06768041
000040 5c 12 93 be db e6 b5 3d 46 73 1b 3d 1f 7e 1a be
       -0.28724945 0.08881923 0.03795173 -0.15087174
000050 ed a0 09 3e 3c e5 e1 3d 0d 04 10 3e c8 77 4d 3e
       0.13440295 0.11030051 0.14064045 0.20065224
000060 61 ee 80 3d de fd 72 3e 19 e2 cf 3e 11 24 ba be
       0.06295467 0.23729655 0.40602186 -0.3635564
000070 1a c0 a1 3d b5 c7 ae 3e c7 e5 d3 3d bf 40 8b 3c
       0.078979686 0.3413674 0.10346561 0.016998647
000080 27 d1 91 3d fa d5 ad 3e 11 57 81 bc a9 c6 ac be
       0.07119971 0.33952314 -0.015788587 -0.33745316
000090 0b 81 8f 3e 59 03 6c be ba 29 47 3e 27 89 23 be
       0.2802814 -0.23048152 0.19449511 -0.15970288
0000a0 68 64 42 3b 6b 13 22 3e e7 a5 e3 bd 69 25 82 3c
       0.0029661898 0.1582772 -0.11115628 0.01588698
0000b0 78 f7 7d bd ca 71 9a bd 9d 21 0b 3b 0a 59 47 be
       -0.062003583 -0.07541235 0.0021229752 -0.1946756
0000c0 8f ac b2 bd 70 1e 01 3e d2 54 28 bd 4c c8 b0 bd
       -0.08724319 0.12609267 -0.041096516 -0.086319536
0000d0 24 33 7b 3d 1f 1e 0b bd 9c 9c cb 3e c3 69 35 bd
       0.06132807 -0.033964273 0.3976792 -0.044290315
0000e0 40 df 3a 3e 3a ce e1 bd e0 98 4f be 0c 7b 01 be
       0.18249226 -0.11025663 -0.20273161 -0.12644595
0000f0 00 b9 c8 be 29 5f 5f 3e a0 74 b7 bd 15 51 9c bd
       -0.39203644 0.21813644 -0.08957791 -0.07632653
000100 77 bc 64 be 6d 3e 83 3e d7 14 50 bc 4a 98 00 bc
       -0.22337519 0.25633565 -0.012700281 -0.007848809
000110 25 b2 dd 3d 2e 53 0d be 9f 2e eb 3d 6a 6e e5 3d
       0.10824994 -0.13801262 0.11483502 0.112027004
000120 52 70 8e be ac d2 e3 bd 5f 2c 62 be a4 81 ef bc
       -0.2782007 -0.11124167 -0.22087239 -0.029236622
000130 57 65 fe bd 7b ce df be 35 14 34 3e cf ea 11 be
       -0.12421673 -0.4371222 0.17585833 -0.14249729
000140 2e e7 45 be b7 32 6b 3d 8f a3 8f 3e 9f b0 0a 3e
       -0.1932647 0.057421412 0.28054473 0.13543938
000150 d7 d0 1f be 93 67 75 3d 67 82 c2 bd bb 0e 51 3e
       -0.1560701 0.05991323 -0.094975285 0.20415775
000160 99 f3 07 be 2e dc 83 be 0d aa 31 be 99 7e 6c be
       -0.13276519 -0.2575392 -0.17350025 -0.23095168
000170 46 9b b9 bd a0 5b 5d 3e 8c d5 dd 3e da 6d b5 3d
       -0.09062819 0.21616983 0.43326986 0.08858843
000180 b7 36 99 3e 91 7c 0e 3e 8f 32 1b bd 83 2e 26 3c
       0.29924557 0.13914706 -0.037890013 0.010142925
000190 ce 98 0d 3e 7f 2c 1f 3e 6f 89 bf 3d a1 1a 75 3e
       0.13827822 0.15544318 0.09352385 0.2393594
0001a0 c1 f8 98 3e 0c 7e c8 3d 23 be d6 bd c6 a8 53 3d
       0.29877284 0.097896665 -0.104854845 0.051674627
0001b0 c1 ef e4 bd d2 ec 1b 3e c4 ff 3f be 1b a6 37 be
       -0.11178542 0.15227059 -0.1874991 -0.17934458
0001c0 3e d4 c1 3d 07 79 76 3e 4d af 3c bd 9d 7c 65 be
       0.0946431 0.24069606 -0.046065617 -0.22410817
0001d0 4c 97 b5 3e 3a 36 57 be 90 48 74 be 7e 71 12 be
       0.35466993 -0.2101678 -0.23855805 -0.14301106
0001e0 68 f3 98 3e 60 df 42 3e 77 6c f7 bd 17 91 97 bd
       0.29873204 0.19030523 -0.12081235 -0.074007206
0001f0 40 f6 f3 3d 27 77 1c 3d 19 9c 72 bc 85 0f 1b be
       0.11912203 0.03819957 -0.014807724 -0.15142639
000200 a2 71 b1 be a2 31 6a be b3 54 0d be a4 ee 29 3e
       -0.34657007 -0.22870496 -0.13801841 0.1659494
000210 32 93 ef 3d 9d 1a 5d 3e 13 d6 bc 3e 4f f1 a3 be
       0.11697997 0.21592183 0.36882076 -0.3202004
000220 55 f7 8f be 22 fe 92 3e 05 ba c8 3d 0c 62 3a 3e
       -0.28118387 0.28709513 0.098011054 0.18201464
000230 38 14 76 3e 9e 53 62 3d 84 e8 b8 3e fc 51 7b bd
       0.2403115 0.055255525 0.36114895 -0.061357483
000240 11 54 90 3e a6 1b 81 be 33 bd ed be 6f ba 39 bd
       0.28189138 -0.25216407 -0.4643341 -0.045343813
000250 ff f9 49 3e 25 96 55 3d ba 5d a3 bd 1a 01 8a 3c
       0.19724272 0.052145142 -0.07976861 0.016846228
000260 d6 f9 11 3f 86 6c 97 be e8 a7 19 3e 2a 73 02 3e
       0.57021844 -0.29574984 0.15005457 0.12739244
000270 b8 cf 0b 3d 8b de 28 be a6 1d c8 bd 63 96 0d 3e
       0.034133643 -0.16491143 -0.0977128 0.13826899
000280 36 e5 d8 bd ac b1 3a 3e 9e fe 18 3e 2a 3a 32 3c
       -0.105905935 0.18231839 0.14940879 0.010878125
000290 84 0e 98 be 1b b8 52 3e 53 4e 89 3c 74 ad ab be
       -0.29698575 0.20578043 0.01676098 -0.33530772
0002a0 b7 49 e2 bc 93 25 93 bc 54 df c8 bd b7 c6 2b bd
       -0.02762304 -0.017962253 -0.098082215 -0.041937556
0002b0 52 49 03 be c9 87 2e 3e f4 e2 71 bc ab 9e 97 3e
       -0.12820938 0.17043985 -0.0147635825 0.29613242
0002c0 a3 8f 2c be f6 d0 ad bd d8 cb 9c 3d b4 b6 11 be
       -0.16851668 -0.08487122 0.076560676 -0.14229852
0002d0 3c 45 a4 3c 40 7a 6c 3c 91 22 2f be 03 0c 5a 3e
       0.020052545 0.014433444 -0.1710303 0.21293645
0002e0 2d bd ac bd 44 e2 a1 be f9 9e c7 3c 06 41 35 be
       -0.0843452 -0.3161794 0.024367796 -0.17700586
0002f0 28 97 b5 bd 72 88 50 bd 8d 07 5b 3e 92 c0 b1 3d
       -0.088667214 -0.050911374 0.21389599 0.08679308
000300 42 02 9d bb f9 32 94 3d bd d7 19 be a3 9e 2e be
       -0.004791529 0.07236285 -0.15023704 -0.17052703
000310 c5 f4 cb be d3 60 d0 be b1 3f 9f 3e 73 fd 28 be
       -0.39835182 -0.4069887 0.3110328 -0.16502933
000320 b0 0e 5f 3e 17 00 2f 3d 3c e9 d0 bd 5d fa d5 bd
       0.21782947 0.042724695 -0.10200736 -0.10448144
000330 4a 6a 84 be 08 4d 2e 3e d3 3d b7 be ee 7d 43 bd
       -0.25862342 0.17021573 -0.35789356 -0.047727518
000340 e6 07 14 3e 10 ba 3d be fb 7f 8d 3d 87 ff 1c 3e
       0.14456138 -0.18528008 0.06909176 0.15331851
000350 2d 83 08 3e 2c 98 0a be ed 36 11 be 9f 31 38 bd
       0.1333129 -0.13534611 -0.14181109 -0.044969197
000360 a3 7d 01 3e eb a4 9f 3d 3e cb ed bd 34 b6 59 3d
       0.12645583 0.077951275 -0.11611031 0.053152278
000370 ca 6a 5a 3e 4e b6 5f 3c 0f 0a fb bc 9d 80 30 3e
       0.213298 0.013654305 -0.030644445 0.17236562
000380 05 71 17 3e 2d 0c 56 bc 4f 6c 26 3e 3b 68 94 be
       0.14789207 -0.013064426 0.16252254 -0.28985772
000390 bb b0 5c 3d 4e fa f4 3d f2 38 d2 be cc ce c8 3c
       0.05387948 0.11961804 -0.4105907 0.024512671
0003a0 54 61 6d 3e a1 8b 98 be 7b 2f 50 be 99 bf 80 be
       0.23181659 -0.29794028 -0.20330612 -0.25146177
0003b0 e1 0a 81 be d3 8b 03 be 2d 75 2c 3e be bd 97 3c
       -0.25203612 -0.12846307 0.16841574 0.018523093
0003c0 bc 0a 63 3d c9 e2 9b 3e 65 50 98 3e 55 59 21 bc
       0.05543016 0.3044646 0.29748836 -0.009847959
0003d0 8e da d6 3d 0c fd f6 bd e9 30 94 bd 3e 23 a0 be
       0.10490905 -0.120599836 -0.07235891 -0.31276888
0003e0 17 59 46 3e d8 d3 87 bc 07 03 69 3e af 91 20 be
       0.19369923 -0.016580507 0.22755061 -0.15680574
0003f0 e9 42 e1 be a0 2e d6 3d 2b 54 63 bd ab b9 b3 bd
       -0.4399636 0.10458112 -0.05550019 -0.08775648

sequential/conv2d_1/Conv2D i1 [16, 3, 3, 32]
000000 02 de c0 4a 09 e6 df fa 17 12 06 ee 08 f9 c5 d8
       2 -34 -64 74 9 -26 -33 -6 23 18 6 -18 8 -7 -59 -40
000010 13 e6 40 18 3f e8 10 d4 ed f9 d5 ec e0 3a ce c2
       19 -26 64 24 63 -24 16 -44 -19 -7 -43 -20 -32 58 -50 -62
000020 0b ac eb 3e 06 ef 02 f2 e4 0d fc cb fe ff 02 04
       11 -84 -21 62 6 -17 2 -14 -28 13 -4 -53 -2 -1 2 4
000030 ee 2d fb ec f3 f1 07 f5 0b cf fd 2c 30 ef 04 18
       -18 45 -5 -20 -13 -15 7 -11 11 -49 -3 44 48 -17 4 24
000040 1e f5 fc ee e7 ff 3e 09 22 14 ed fb f9 de 4d f7
       30 -11 -4 -18 -25 -1 62 9 34 20 -19 -5 -7 -34 77 -9
000050 32 f9 16 fe 14 19 f2 bd ee 14 1a 47 cf f6 f7 fe
       50 -7 22 -2 20 25 -14 -67 -18 20 26 71 -49 -10 -9 -2
000060 e6 f5 1d fd f5 ff fa 11 08 d5 c5 da e3 c0 17 fe
       -26 -11 29 -3 -11 -1 -6 17 8 -43 -59 -38 -29 -64 23 -2
000070 27 ed 02 0b 20 16 04 03 11 0e d2 ff f1 05 ff c8
       39 -19 2 11 32 22 4 3 17 14 -46 -1 -15 5 -1 -56
000080 06 c7 0c 0b e0 f5 1e 00 0d 04 1e f5 01 f1 ed ef
       6 -57 12 11 -32 -11 30 0 13 4 30 -11 1 -15 -19 -17
000090 16 f1 06 19 0e f7 dc e9 19 08 f4 04 ed 15 21 ee
       22 -15 6 25 14 -9 -36 -23 25 8 -12 4 -19 21 33 -18
0000a0 10 0a e0 40 fe 01 cc 22 f2 eb 13 fc 19 07 10 27
       16 10 -32 64 -2 1 -52 34 -14 -21 19 -4 25 7 16 39
0000b0 fb 1f 09 0a 15 eb a6 ed fc 0f 21 fa 6a 1e 0d fd
       -5 31 9 10 21 -21 -90 -19 -4 15 33 -6 106 30 13 -3
0000c0 dd 31 3b f9 0a 21 ba fc 05 c4 d4 30 d8 f0 25 25
       -35 49 59 -7 10 33 -70 -4 5 -60 -44 48 -40 -16 37 37
0000d0 36 81 ce 2f bd ca d0 17 eb 12 1c 12 b5 cd 27 2b
       54 -127 -50 47 -67 -54 -48 23 -21 18 28 18 -75 -51 39 43
0000e0 fc 08 c0 25 02 0a ef f8 04 e2 fc ec 1e da f0 ae
       -4 8 -64 37 2 10 -17 -8 4 -30 -4 -20 30 -38 -16 -82
0000f0 e3 13 02 0d fb e6 04 02 01 21 01 fa 00 e9 15 1e
       -29 19 2 13 -5 -26 4 2 1 33 1 -6 0 -23 21 30

sequential/dense/MatMul i1 [6, 704] scale=0.0067491885 zero_point=0
000000 15 10 e1 00 f2 09 fd c4 37 18 20 32 24 12 3d 0e
       0.14173296 0.10798702 -0.20922485 0.0 -0.094488636 0.0607427 -0.020247566 -0.4049513 0.37120536 0.16198052 0.21597403 0.33745942 0.2429708 0.1214854 0.4117005 0.094488636
000010 c7 0b 53 2a ca 8f 04 4a ea ca 13 30 4c a1 c4 16
       -0.38470376 0.07424107 0.56018263 0.28346592 -0.36445618 -0.7626583 0.026996754 0.49943995 -0.14848214 -0.36445618 0.12823458 0.32396105 0.5129383 -0.6411729 -0.4049513 0.14848214
000020 c9 4b 40 c6 29 f8 04 d5 fd e1 0e fb ec 21 1d ce
       -0.37120536 0.50618917 0.43194807 -0.39145294 0.27671674 -0.05399351 0.026996754 -0.2902151 -0.020247566 -0.20922485 0.094488636 -0.033745944 -0.13498378 0.22272322 0.19572647 -0.33745942
000030 10 f4 f5 ef d4 91 e2 cf dd 03 3a 31 1f 57 e3 b1
       0.10798702 -0.08099026 -0.07424107 -0.11473621 -0.2969643 -0.74915993 -0.20247565 -0.33071023 -0.2362216 0.020247566 0.39145294 0.33071023 0.20922485 0.5871794 -0.19572647 -0.5331859
000040 d9 04 dc f7 0a 10 21 ce 0a 01 d2 1a 0c 1c c4 1e
       -0.26321834 0.026996754 -0.2429708 -0.0607427 0.06749189 0.10798702 0.22272322 -0.33745942 0.06749189 0.0067491885 -0.31046268 0.1754789 0.08099026 0.18897727 -0.4049513 0.20247565
000050 c1 cd 17 8c cd 96 1e 65 c0 e8 f0 13 15 a8 d5 11
       -0.42519888 -0.34420863 0.15523134 -0.7829059 -0.34420863 -0.715414 0.20247565 0.68166804 -0.43194807 -0.16198052 -0.10798702 0.12823458 0.14173296 -0.5939286 -0.2902151 0.11473621
000060 bf 18 54 1f 1a fb 30 de da f4 ea db 26 e3 19 c3
       -0.43869725 0.16198052 0.56693184 0.20922485 0.1754789 -0.033745944 0.32396105 -0.22947241 -0.25646916 -0.08099026 -0.14848214 -0.24971998 0.25646916 -0.19572647 0.16872971 -0.4117005
000070 ea f5 f7 a9 d2 d2 0d 08 10 d8 f2 f5 b0 0d ff e2
       -0.14848214 -0.07424107 -0.0607427 -0.5871794 -0.31046268 -0.31046268 0.08773945 0.05399351 0.10798702 -0.26996756 -0.094488636 -0.07424107 -0.5399351 0.08773945 -0.0067491885 -0.20247565
000080 0d f4 d6 04 e0 23 36 c6 18 0e f7 11 e4 0c d5 1b
       0.08773945 -0.08099026 -0.28346592 0.026996754 -0.21597403 0.2362216 0.36445618 -0.39145294 0.16198052 0.094488636 -0.0607427 0.11473621 -0.18897727 0.08099026 -0.2902151 0.18222809
000090 ac e2 15 b7 08 ba df 64 c2 ed fe fd f4 af e3 20
       -0.56693184 -0.20247565 0.14173296 -0.49269077 0.05399351 -0.4724432 -0.22272322 0.67491883 -0.4184497 -0.12823458 -0.013498377 -0.020247566 -0.08099026 -0.54668427 -0.19572647 0.21597403
0000a0 08 e1 0a 23 11 f2 23 f2 f7 d2 d9 17 e3 f9 08 cc
       0.05399351 -0.20922485 0.06749189 0.2362216 0.11473621 -0.094488636 0.2362216 -0.094488636 -0.0607427 -0.31046268 -0.26321834 0.15523134 -0.19572647 -0.047244318 0.05399351 -0.3509578
0000b0 ee f2 01 e3 e7 c8 0e 02 11 ea f9 eb b4 08 f3 de
       -0.1214854 -0.094488636 0.0067491885 -0.19572647 -0.16872971 -0.37795454 0.094488636 0.013498377 0.11473621 -0.14848214 -0.047244318 -0.14173296 -0.5129383 0.05399351 -0.08773945 -0.22947241
0000c0 f9 e4 e6 cb 00 0c ef cb 0c 18 00 12 bf eb e9 2b
       -0.047244318 -0.18897727 -0.1754789 -0.357707 0.0 0.08099026 -0.11473621 -0.357707 0.08099026 0.16198052 0.0 0.1214854 -0.43869725 -0.14173296 -0.15523134 0.2902151
0000d0 d8 f5 20 a8 de a8 ec 5c ad db dc 24 0c d5 bb f6
       -0.26996756 -0.07424107 0.21597403 -0.5939286 -0.22947241 -0.5939286 -0.13498378 0.62092537 -0.56018263 -0.24971998 -0.2429708 0.2429708 0.08099026 -0.2902151 -0.465694 -0.06749189
0000e0 e6 dd e5 06 de 01 40 f6 08 df 07 f3 e4 e5 f7 b9
       -0.1754789 -0.2362216 -0.18222809 0.04049513 -0.22947241 0.0067491885 0.43194807 -0.06749189 0.05399351 -0.22272322 0.047244318 -0.08773945 -0.18897727 -0.18222809 -0.0607427 -0.47919238
0000f0 f7 f6 08 d9 df b6 fb 10 fd ea fd 11 c0 28 cb db
       -0.0607427 -0.06749189 0.05399351 -0.26321834 -0.22272322 -0.49943995 -0.033745944 0.10798702 -0.020247566 -0.14848214 -0.020247566 0.11473621 -0.43194807 0.26996756 -0.357707 -0.24971998
