neural_network/models/dynamic_quant_model.tflite (tflite, 14504 bytes, 8 tensors)

sequential/dense_1/MatMul f4 [6, 32]
0	0xbee3446c	-0.4438814
1	0xbebacce5	-0.36484447
2	0xbcee7ada	-0.029111315
3	0xbbfa0f4a	-0.007631217
4	0x3f6ba013	0.9204113
5	0xbf23b463	-0.63947123
6	0xbf000fc3	-0.5002405
7	0xbf9d5e2e	-1.2294366
8	0x3ee60f54	0.4493357
9	0xbe975fac	-0.2956518
10	0xbdd692d0	-0.10477221
11	0xbfc03a8b	-1.5017866
12	0x3f6c5de5	0.9233077
13	0xbf8178cd	-1.011499
14	0xbea4e777	-0.32207844
15	0x3f294967	0.6612763
16	0xbe676e18	-0.22600591
17	0xbec2219b	-0.37916264
18	0xbfc3c9a1	-1.5295907
19	0x3ed89228	0.42299008
20	0xbfa3cd54	-1.2797036
21	0xbe022f86	-0.12713441
22	0xbf7fe117	-0.99952835
23	0xbf45b399	-0.7722717
24	0xbfb26068	-1.3935671
25	0xbe0d20af	-0.13781999
26	0x3e08e943	0.13370232
27	0xbf899f75	-1.0751787
28	0xbf510530	-0.8164854
29	0xbe964f3b	-0.29357323
30	0xbf32438d	-0.69634324
31	0x3ed21084	0.41028225
32	0x3e6b2f0b	0.22967164
33	0xbf4395cd	-0.7640045
34	0x3e868316	0.26271886
35	0xbeaf72b9	-0.34267214
36	0xbe6eae83	-0.23308758
37	0x3f08f97a	0.5350567
38	0xbe33ec4d	-0.1757061
39	0x3ea908a2	0.330144
40	0x3e36d7c5	0.17855747
41	0x3e68dd15	0.22740586
42	0xbe458e1f	-0.19292496
43	0xbe828294	-0.25490248
44	0xbf24abbb	-0.6432454
45	0xbe75b864	-0.2399612
46	0xbd4961a4	-0.049165383
47	0xbe86c465	-0.26321712
48	0xbe4ae58c	-0.19814128
49	0xbed10aac	-0.40828454
50	0x3f4328f8	0.7623439
51	0x3c236ee4	0.009975169
52	0xbea777e2	-0.3270865
53	0xbf074822	-0.5284444
54	0x3dd2504f	0.10269224
55	0x3ecc2772	0.39873844
56	0x3f33ada1	0.7018681
57	0xbeabc3d1	-0.33547834
58	0x3e88fd81	0.26755908
59	0xbed9b8ba	-0.42523748
60	0x3df21b81	0.11821652
61	0xbec6dd8f	-0.3884091
62	0xbeb4580d	-0.35223427
63	0xbe511f4b	-0.20422094
64	0x3ecc71cf	0.3993058
65	0xbc1f34a4	-0.00971714
66	0x3ed1b629	0.4095929
67	0xbf206f09	-0.62669426
68	0xbf171267	-0.59012455
69	0x3e82d3cd	0.25552216
70	0x3e86072b	0.26177344
71	0x3d20f0c8	0.039292127
72	0xbf6cf666	-0.92563474
73	0xbd84f8ab	-0.06492742
74	0xbf2b40d7	-0.6689581
75	0xbf0249b7	-0.5089373
76	0xbef0accf	-0.47006842
77	0xbecc524b	-0.39906535
78	0xbed694d9	-0.41910437
79	0x3e82eb87	0.25570318
80	0xbe8f4417	-0.27981636
81	0x3cb12dfb	0.02162837
82	0xbe75633f	-0.2396364
83	0xbf85f008	-1.0463877
84	0x3f2351ac	0.63796496
85	0xbf4b5753	-0.7943012
86	0x3f03f788	0.5154958
87	0xbe3879b1	-0.18015172
88	0x3ce357c1	0.027751805
89	0x3f0237c8	0.50866365
90	0xbf0ca37b	-0.5493695
91	0x3e9628b0	0.29327917
92	0x3ed84398	0.4223907
93	0x3de22e44	0.11043981
94	0x3ef78b92	0.4834867
95	0xbe49ba86	-0.1970006
96	0x3e9a9c6c	0.30197465
97	0xbe507a68	-0.20359194
98	0xbde109ab	-0.10988172
99	0xbe399be8	-0.1812588
100	0x3e649428	0.22322142
101	0x3e06456b	0.13112418
102	0x3eb83e67	0.3598511
103	0xbe7a19c6	-0.24423894
104	0xbe1c1011	-0.15240504
105	0x3eaf5558	0.342448
106	0x3ea71e49	0.32640293
107	0x3e75ef53	0.24017076
108	0xbe501e58	-0.20324075
109	0xbcdfc550	-0.027315766
110	0x3efd85e9	0.49516228
111	0xbf5fb98a	-0.87392485
112	0x3e44d693	0.19222479
113	0xbe3b75ee	-0.18306705
114	0x3e4cc7a0	0.19998026
115	0xbca80f0e	-0.020514991
116	0xbe076d15	-0.13225205
117	0xbdd36c4f	-0.103233926
118	0xbe0d97fe	-0.13827512
119	0x3e3cd4d8	0.18440568
120	0x3b2f193a	0.0026717917
121	0xbe543b35	-0.2072571
122	0x3cf5dffc	0.03001403
123	0xbd798e6a	-0.060926832
124	0x3eabcd13	0.33554897
125	0x3e284eb9	0.1643628
126	0xbed20162	-0.4101668
127	0x3ee3cf37	0.4449403
128	0xbf25ac1c	-0.64715743
129	0xbea45499	-0.32095793
130	0x3ed02c92	0.40659004
131	0xbed4096f	-0.41413447
132	0xbd8a9089	-0.06765849
133	0xbea2915f	-0.31751534
134	0xbeefc30c	-0.46828496
135	0xbf353ba2	-0.7079412
136	0xbdab5235	-0.08365289
137	0x3f086a4f	0.53287214
138	0xbe4d338e	-0.20039198
139	0x3f1baa8e	0.6080712
140	0xbf04c85d	-0.5186823
141	0xbf54cd9b	-0.8312623
142	0x3f00ea61	0.50357634
143	0x3dc01834	0.093796164
144	0x3eee4d11	0.46543172
145	0x3f4a8a83	0.791176
146	0xbde885f6	-0.11353676
147	0x3f07a0d7	0.529798
148	0x3eba2e88	0.36363626
149	0xbedfd048	-0.43713593
150	0x3e702b87	0.23454104
151	0xbf226962	-0.6344205
152	0xbf23fb0f	-0.6405496
153	0xbf045a03	-0.51699847
154	0xbf22211e	-0.6333178
155	0x3ebb170e	0.36541027
156	0x3e789e3c	0.24279112
157	0xbf82c341	-1.0215837
158	0x3e66e207	0.2254716
159	0x3db95a84	0.090504676
160	0xbf01794d	-0.50575715
161	0x3e2688f4	0.16263181
162	0xbec82265	-0.3908874
163	0xbe79d32b	-0.2439696
164	0xbe88364d	-0.26603928
165	0x3ec0e081	0.37671283
166	0x3effb76b	0.49944624
167	0xbf25c6bc	-0.6475637
168	0x3dff6259	0.1246993
169	0xbf030b4a	-0.511891
170	0xbe99d93b	-0.30048546
171	0xbf4be8da	-0.7965218
172	0xbea1b68c	-0.31584585
173	0x3f3ceb4b	0.7379653
174	0xbefb630f	-0.49099013
175	0x3d607e0b	0.054807704
176	0x3e5824e6	0.21107826
177	0xbd52edec	-0.05149643
178	0xbdc7e97f	-0.09761333
179	0xbf59c055	-0.850591
180	0x3eac71e4	0.33680642
181	0x3e1866df	0.14882992
182	0xbf1a23b8	-0.6021075
183	0x3e120941	0.14261343
184	0xbe0bf6d7	-0.1366838
185	0x3e9e047e	0.30862802
186	0x3ec78df7	0.38975498
187	0x3e20c9c0	0.15701962
188	0xbcfbf256	-0.030755203
189	0x3f5b187b	0.8558423
190	0xbe6ffefb	-0.23437111
191	0x3e361861	0.17782737

sequential/dense/BiasAdd/ReadVariableOp f4 [32]
0	0x3dbb2217	0.091373615
1	0xbeeb86d7	-0.46001312
2	0x3f07337f	0.5281295
3	0xbf1d5add	-0.6146677
4	0x3ec561dd	0.38551226
5	0x3dde465f	0.10853266
6	0x3d539cbd	0.05166315
7	0x3d26c025	0.040710587
8	0xbe088fd9	-0.13336124
9	0x3dd94776	0.10609333
10	0xbdbe0423	-0.09278133
11	0xbbd0a095	-0.006366799
12	0x3e6a4901	0.22879411
13	0xbee01bc5	-0.43771186
14	0x3e9c71c2	0.3055554
15	0x3e0e2b66	0.13883743
16	0x3e36221d	0.1778645
17	0xbdbcd9f0	-0.09221256
18	0xbe2cc9a7	-0.168738
19	0x3ebfba64	0.37446892
20	0x3eb6ceb3	0.35704574
21	0xbec68990	-0.38776827
22	0xbed11a14	-0.4084021
23	0xbf29dbf9	-0.66351277
24	0x3e6463d3	0.22303705
25	0x3e94a7f8	0.290344
26	0x3ef3b24a	0.4759696
27	0x3e69856e	0.22804806
28	0x3effc333	0.49953613
29	0xbe9f2006	-0.3107912
30	0x3e32b6e5	0.17452581
31	0xbe42d9e9	-0.19028439

sequential/dense_1/BiasAdd/ReadVariableOp f4 [6]
0	0xbd16b7ae	-0.036796264
1	0xbdeeebba	-0.11666055
2	0x3eeefd70	0.46677732
3	0xbe0a62e6	-0.1351429
4	0x3e14d804	0.14535528
5	0xbf190b07	-0.5978245

sequential/conv2d/Relu;sequential/conv2d/BiasAdd;sequential/conv2d_1/Conv2D;sequential/conv2d/Conv2D;sequential/conv2d/BiasAdd/ReadVariableOp f4 [16]
0	0xbd4b7206	-0.049669288
1	0xbde9b29f	-0.114110224
2	0xbe486dec	-0.19573182
3	0xbdfd37ba	-0.123641446
4	0x3b323c00	0.0027196407
5	0xbe9eb90e	-0.3100056
6	0xbe879806	-0.26483172
7	0xbe31e518	-0.17372549
8	0xbd3246a4	-0.0435244
9	0xbe60b785	-0.21945007
10	0xbe6744ae	-0.22584793
11	0xbf2828ff	-0.65687555
12	0x3d38fa6b	0.045160692
13	0xbe0cec8e	-0.13762113
14	0xbdefe638	-0.117138326
15	0xbc578ac4	-0.013155643

sequential/conv2d/Relu;sequential/conv2d/BiasAdd;sequential/conv2d_1/Conv2D;sequential/conv2d/Conv2D;sequential/conv2d/BiasAdd/ReadVariableOp1 f4 [16, 3, 3, 1]
0	0xbd7134c9	-0.05888823
1	0xbced2cc9	-0.02895202
2	0xbd89cf98	-0.067290485
3	0x3b58785c	0.0033030724
4	0xbd6f8d13	-0.05848415
5	0xbd877d2a	-0.0661567
6	0x3d92f4f0	0.07175624
7	0x3d435bf1	0.047695104
8	0x3cebe5e1	0.028796138
9	0xbd21c639	-0.03949568
10	0xbce9f27a	-0.028558005
11	0x3d474212	0.048646994
12	0x3cd2c38f	0.025728015
13	0xbd86ed69	-0.06588251
14	0x3d1e6b36	0.038676463
15	0x3be443fe	0.006966113
16	0xbc265540	-0.010152161
17	0x3da227a7	0.07917719
18	0x3ca89b6d	0.020581925
19	0x3c8d67e5	0.017261455
20	0x3d845ce6	0.064630315
21	0x3bf7c898	0.0075617544
22	0xbcd24787	-0.025668873
23	0x3d3bc6f2	0.045844026
24	0x3cefd461	0.029276075
25	0xbd846d8f	-0.06466209
26	0x3cbec626	0.023287844
27	0x3d898896	0.06715505
28	0x3cab7593	0.020930087
29	0x3d3164fc	0.043309197
30	0x3b23fc06	0.0025022044
31	0x3d21cbb2	0.0395009
32	0x3cd7069c	0.026248269
33	0xbd3d2b1e	-0.046183698
34	0x3d1ffc7e	0.039059155
35	0x3b17f5d9	0.0023187308
36	0xbd5fa599	-0.054601286
37	0x3b9c5a20	0.004771486
38	0xbc05a37e	-0.008156655
39	0xba89a456	-0.0010501246
40	0x3d4cb71c	0.049979314
41	0x3cf47661	0.029841604
42	0x3d9a49c5	0.07533602
43	0x3d830f4c	0.06399402
44	0xbd11da05	-0.03560831
45	0xbd6db400	-0.05803299
46	0x3cfa87be	0.030582305
47	0x3c714666	0.014726257
48	0xbd7b6268	-0.061373144
49	0xbca5440d	-0.02017405
50	0xbd61934e	-0.05507212
51	0x3d78aaee	0.060709886
52	0xbd73d2b4	-0.059527114
53	0xbd919f5b	-0.07110473
54	0x3a50b23e	0.00079611305
55	0x3d0e7978	0.03478381
56	0x3cff24a6	0.031145405
57	0x39a4202d	0.0003130449
58	0x3d341532	0.043965526
59	0x3c1dc052	0.009628372
60	0xbcae08cc	-0.021244429
61	0x3d288739	0.041144583
62	0xbc12ac74	-0.008952249
63	0x3ca63160	0.020287216
64	0x3d0429cd	0.032266427
65	0x3d2a85fa	0.041631676
66	0x3d0dc8e9	0.03461543
67	0x3ae74c6e	0.0017646679
68	0xbcff4e18	-0.031165168
69	0x3c4fcf00	0.01268363
70	0xbd86154e	-0.06547032
71	0xbd9276d6	-0.071515724
72	0x3db9347e	0.09043215
73	0x3d7bdab0	0.061487854
74	0x3d83d4cd	0.06437073
75	0xbc7623d4	-0.0150231905
76	0xbc91ad05	-0.017782697
77	0x38e23420	0.00010786229
78	0xbdaacfac	-0.083403915
79	0xbd8aa40b	-0.0676957
80	0xbdcb25b8	-0.09919304
81	0x3c323889	0.010877737
82	0x3d4d30ca	0.050095357
83	0xbd5de3f3	-0.054172467
84	0xbb1b1d14	-0.0023668455
85	0x3d084928	0.033272892
86	0xbd22e2aa	-0.039766945
87	0xbccd54fc	-0.025064938
88	0x399cdab0	0.00029917574
89	0xbcaa311c	-0.02077537
90	0x3cf66576	0.030077677
91	0xbd1423d6	-0.03616699
92	0xba9d3587	-0.0011994102
93	0xbcd98474	-0.026552416
94	0xbdd97d58	-0.106196105
95	0x3cf9f67f	0.030513046
96	0xbcc39aca	-0.02387752
97	0xbd8eb2bf	-0.06967687
98	0x3cfb6ef7	0.03069256
99	0x3cdfb8cb	0.027309796
100	0xbd282270	-0.041048467
101	0xbd50c405	-0.05096819
102	0x3bd8e9d7	0.0066196728
103	0xbda0b1b6	-0.07846396
104	0xbd5ca496	-0.0538679
105	0xbd6ea8ab	-0.058266323
106	0xbd917508	-0.071024
107	0xbbb3bef3	-0.0054854094
108	0x3c2f627b	0.010704632
109	0xbca38e3b	-0.019965282
110	0x3b5236e0	0.0032076165
111	0x3b500768	0.0031742696
112	0x3bd9a91e	0.006642475
113	0x3d272369	0.040805254
114	0x3ce47708	0.02788879
115	0x3d133ba0	0.035945535
116	0x3d21e06c	0.039520666
117	0x3d2dae2c	0.04240243
118	0x3d0db846	0.034599565
119	0xbd925fa9	-0.07147152
120	0x3c95d4f2	0.018290017
121	0x3d0aed66	0.033917807
122	0xbd8fb237	-0.07016414
123	0xbc374fb2	-0.011188434
124	0x3c69d9d9	0.01427313
125	0xbd7dc85b	-0.061958652
126	0x3ce680df	0.028137622
127	0x3d57e0fc	0.052704796
128	0xbcb2feb9	-0.021849977
129	0x3c8b583b	0.017009845
130	0xbd786852	-0.060646363
131	0xbca61de8	-0.020277932
132	0xbc9c7024	-0.019096442
133	0xbdc11e63	-0.09429624
134	0xbd63b7ae	-0.055595092
135	0xbbc83697	-0.0061100232
136	0x3ccd7ddf	0.025084434
137	0x3c876b07	0.016530527
138	0xbcc5b22b	-0.024132809
139	0x3c34192e	0.010992331
140	0x3cda3ebe	0.026641246
141	0xbce22c32	-0.027608965
142	0x3a724f0c	0.0009243346
143	0x3d2a9858	0.041649193

sequential/conv2d_1/BiasAdd/ReadVariableOp f4 [16]
0	0xbda25cf6	-0.07927887
1	0xbe66a89b	-0.22525255
2	0xbf0dd194	-0.55397916
3	0xbebef997	-0.37299797
4	0xbe9e3a87	-0.30904028
5	0xbcf5f6ae	-0.030024853
6	0xbd907200	-0.07052994
7	0xbed024d7	-0.40653107
8	0xbe7d2f5c	-0.24725097
9	0xbc632e0c	-0.013865959
10	0xbebd44a7	-0.3696644
11	0xbc8462e9	-0.016160445
12	0xbee4a3f8	-0.44656348
13	0xbe98a440	-0.29812813
14	0xbe6546b1	-0.22390248
15	0xbeb3ec13	-0.35141048

sequential/conv2d_1/Conv2D i1 [16, 3, 3, 16]
0	0x21	33
1	0x13	19
2	0xe8	-24
3	0x09	9
4	0xb8	-72
5	0xbc	-68
6	0x1a	26
7	0xc4	-60
8	0xf3	-13
9	0xb2	-78
10	0x93	-109
11	0x01	1
12	0xb7	-73
13	0xbc	-68
14	0xa3	-93
15	0x17	23
16	0x09	9
17	0x08	8
18	0xc7	-57
19	0xf1	-15
20	0x32	50
21	0xbe	-66
22	0x2d	45
23	0xb9	-71
24	0xfb	-5
25	0xb1	-79
26	0xca	-54
27	0xa8	-88
28	0xe8	-24
29	0x11	17
30	0x27	39
31	0xc3	-61
32	0x29	41
33	0xbe	-66
34	0x1e	30
35	0x07	7
36	0xbe	-66
37	0xfe	-2
38	0xe1	-31
39	0xee	-18
40	0x25	37
41	0x36	54
42	0xb4	-76
43	0x29	41
44	0xf2	-14
45	0x33	51
46	0x22	34
47	0x2a	42
48	0xa3	-93
49	0xc7	-57
50	0xbc	-68
51	0x37	55
52	0x29	41
53	0x0b	11
54	0x19	25
55	0x29	41
56	0xd9	-39
57	0x1c	28
58	0xfa	-6
59	0xdf	-33
60	0x19	25
61	0x07	7
62	0x02	2
63	0x00	0
64	0x81	-127
65	0xce	-50
66	0x22	34
67	0x18	24
68	0x12	18
69	0xcc	-52
70	0xe5	-27
71	0xd3	-45
72	0x00	0
73	0xba	-70
74	0xe8	-24
75	0x2c	44
76	0xb4	-76
77	0xfc	-4
78	0xfa	-6
79	0xf1	-15
80	0x8b	-117
81	0xaf	-81
82	0x3f	63
83	0x31	49
84	0xb5	-75
85	0xbc	-68
86	0xac	-84
87	0xdf	-33
88	0x92	-110
89	0x17	23
90	0xb3	-77
91	0x0c	12
92	0xd3	-45
93	0xb1	-79
94	0xa9	-87
95	0x95	-107
96	0xa4	-92
97	0xdb	-37
98	0xf9	-7
99	0xa6	-90
100	0x93	-109
101	0xc2	-62
102	0xbf	-65
103	0xaf	-81
104	0x05	5
105	0xb8	-72
106	0x09	9
107	0x2a	42
108	0xe5	-27
109	0x0e	14
110	0xe5	-27
111	0xe8	-24
112	0xd3	-45
113	0xce	-50
114	0xb5	-75
115	0x01	1
116	0xf9	-7
117	0xd6	-42
118	0xaa	-86
119	0xce	-50
120	0x9f	-97
121	0xb9	-71
122	0xde	-34
123	0x11	17
124	0xdb	-37
125	0x26	38
126	0x9b	-101
127	0xf9	-7
128	0xaa	-86
129	0xd0	-48
130	0x29	41
131	0xd8	-40
132	0x27	39
133	0xb3	-77
134	0x40	64
135	0xd5	-43
136	0xd3	-45
137	0x08	8
138	0x0e	14
139	0x3e	62
140	0xcc	-52
141	0xdf	-33
142	0x22	34
143	0xe5	-27
144	0x02	2
145	0x0b	11
146	0x0c	12
147	0x2c	44
148	0xe8	-24
149	0xb9	-71
150	0xe8	-24
151	0xfc	-4
152	0xf0	-16
153	0xf4	-12
154	0x2e	46
155	0x0f	15
156	0x19	25
157	0x17	23
158	0xf2	-14
159	0xe4	-28
160	0x11	17
161	0x21	33
162	0x37	55
163	0xc9	-55
164	0x19	25
165	0x37	55
166	0xe8	-24
167	0x15	21
168	0xeb	-21
169	0x05	5
170	0x21	33
171	0xf1	-15
172	0xf0	-16
173	0xe0	-32
174	0x02	2
175	0xe2	-30
176	0xf7	-9
177	0x1d	29
178	0x46	70
179	0x0c	12
180	0x06	6
181	0xc4	-60
182	0x23	35
183	0xce	-50
184	0xb5	-75
185	0x50	80
186	0xff	-1
187	0x81	-127
188	0xde	-34
189	0x23	35
190	0xbf	-65
191	0x18	24
192	0xfa	-6
193	0xfe	-2
194	0xfa	-6
195	0x1c	28
196	0xed	-19
197	0xd3	-45
198	0x18	24
199	0xed	-19
200	0x0f	15
201	0x04	4
202	0xde	-34
203	0xc1	-63
204	0x0e	14
205	0x0d	13
206	0xed	-19
207	0x09	9
208	0x25	37
209	0x0c	12
210	0x08	8
211	0xf5	-11
212	0xf6	-10
213	0x4b	75
214	0xe8	-24
215	0x26	38
216	0x06	6
217	0x00	0
218	0x24	36
219	0xf1	-15
220	0xeb	-21
221	0x1d	29
222	0x16	22
223	0xc1	-63
224	0xf3	-13
225	0x0d	13
226	0x0e	14
227	0xe1	-31
228	0xf7	-9
229	0xde	-34
230	0x03	3
231	0x11	17
232	0xe7	-25
233	0x13	19
234	0x0a	10
235	0xa0	-96
236	0xcd	-51
237	0xf6	-10
238	0x11	17
239	0x20	32
240	0xf2	-14
241	0xce	-50
242	0xda	-38
243	0x1e	30
244	0xe2	-30
245	0xe6	-26
246	0x2e	46
247	0x04	4
248	0x19	25
249	0x12	18
250	0xba	-70
251	0xa6	-90
252	0x01	1
253	0xfd	-3
254	0x06	6
255	0x2a	42

sequential/dense/MatMul i1 [32, 208] scale=0.015422714 zero_point=0
0	0x05	0.07711357
1	0xfb	-0.07711357
2	0x03	0.046268143
3	0xe4	-0.43183598
4	0x16	0.3392997
5	0xfa	-0.092536286
6	0x06	0.092536286
7	0xfc	-0.061690856
8	0x2e	0.7094448
9	0x1d	0.4472587
10	0xfa	-0.092536286
11	0x0c	0.18507257
12	0x01	0.015422714
13	0x01	0.015422714
14	0xeb	-0.323877
15	0x14	0.30845428
16	0x05	0.07711357
17	0x02	0.030845428
18	0xf9	-0.107958995
19	0x18	0.37014514
20	0x13	0.29303157
21	0xfd	-0.046268143
22	0xfc	-0.061690856
23	0xf0	-0.24676342
24	0x05	0.07711357
25	0x36	0.83282655
26	0x07	0.107958995
27	0x0f	0.2313407
28	0xee	-0.27760884
29	0x0b	0.16964985
30	0xdf	-0.5089496
31	0x21	0.5089496
32	0xf8	-0.12338171
33	0x11	0.26218614
34	0x00	0.0
35	0x18	0.37014514
36	0x0b	0.16964985
37	0x03	0.046268143
38	0x04	0.061690856
39	0xf3	-0.20049529
40	0x0e	0.21591799
41	0x15	0.323877
42	0xff	-0.015422714
43	0x01	0.015422714
44	0xf9	-0.107958995
45	0x1b	0.41641328
46	0xdc	-0.5552177
47	0x16	0.3392997
48	0xfa	-0.092536286
49	0x12	0.27760884
50	0x16	0.3392997
51	0x02	0.030845428
52	0x06	0.092536286
53	0xf8	-0.12338171
54	0xfd	-0.046268143
55	0xed	-0.29303157
56	0xf9	-0.107958995
57	0x02	0.030845428
58	0xf5	-0.16964985
59	0x08	0.12338171
60	0xfb	-0.07711357
61	0x27	0.60148585
62	0xd2	-0.7094448
63	0x13	0.29303157
64	0x0c	0.18507257
65	0x0e	0.21591799
66	0x28	0.61690855
67	0x12	0.27760884
68	0xfb	-0.07711357
69	0x01	0.015422714
70	0x04	0.061690856
71	0xea	-0.3392997
72	0xff	-0.015422714
73	0xe2	-0.4626814
74	0xf9	-0.107958995
75	0x11	0.26218614
76	0xf4	-0.18507257
77	0x04	0.061690856
78	0xe2	-0.4626814
79	0x04	0.061690856
80	0x06	0.092536286
81	0x1c	0.43183598
82	0x1b	0.41641328
83	0x1b	0.41641328
84	0xef	-0.26218614
85	0x01	0.015422714
86	0x08	0.12338171
87	0xea	-0.3392997
88	0x0f	0.2313407
89	0xe3	-0.4472587
90	0x12	0.27760884
91	0xff	-0.015422714
92	0x10	0.24676342
93	0x09	0.13880442
94	0xc9	-0.84824926
95	0xfc	-0.061690856
96	0x09	0.13880442
97	0x17	0.3547224
98	0xf5	-0.16964985
99	0x15	0.323877
100	0x00	0.0
101	0xf7	-0.13880442
102	0xfe	-0.030845428
103	0xe5	-0.41641328
104	0x12	0.27760884
105	0xc5	-0.9099401
106	0x05	0.07711357
107	0x00	0.0
108	0x02	0.030845428
109	0x05	0.07711357
110	0xd0	-0.7402903
111	0xf2	-0.21591799
112	0xfc	-0.061690856
113	0x1b	0.41641328
114	0xfe	-0.030845428
115	0x0f	0.2313407
116	0xf6	-0.15422714
117	0xf7	-0.13880442
118	0xf8	-0.12338171
119	0xd7	-0.63233125
120	0xf4	-0.18507257
121	0xd8	-0.61690855
122	0x0d	0.20049529
123	0x01	0.015422714
124	0xf8	-0.12338171
125	0xf3	-0.20049529
126	0xe9	-0.3547224
127	0xe0	-0.49352685
128	0xfd	-0.046268143
129	0x19	0.38556784
130	0x10	0.24676342
131	0x04	0.061690856
132	0x0a	0.15422714
133	0x01	0.015422714
134	0x0b	0.16964985
135	0xf1	-0.2313407
136	0xf4	-0.18507257
137	0xde	-0.5243723
138	0x09	0.13880442
139	0xe7	-0.38556784
140	0x00	0.0
141	0xfb	-0.07711357
142	0xee	-0.27760884
143	0xed	-0.29303157
144	0x08	0.12338171
145	0x12	0.27760884
146	0x0d	0.20049529
147	0xf0	-0.24676342
148	0x10	0.24676342
149	0x04	0.061690856
150	0xfb	-0.07711357
151	0xf7	-0.13880442
152	0xdf	-0.5089496
153	0xd9	-0.60148585
154	0xf9	-0.107958995
155	0xcc	-0.80198115
156	0xeb	-0.323877
157	0xff	-0.015422714
158	0xf5	-0.16964985
159	0xf4	-0.18507257
160	0x01	0.015422714
161	0x00	0.0
162	0xec	-0.30845428
163	0xfc	-0.061690856
164	0xe3	-0.4472587
165	0xf8	-0.12338171
166	0xfa	-0.092536286
167	0x10	0.24676342
168	0xe8	-0.37014514
169	0xfc	-0.061690856
170	0x03	0.046268143
171	0xde	-0.5243723
172	0xe9	-0.3547224
173	0xf0	-0.24676342
174	0xd3	-0.6940221
175	0xf2	-0.21591799
176	0x07	0.107958995
177	0xf8	-0.12338171
178	0x05	0.07711357
179	0xde	-0.5243723
180	0xf0	-0.24676342
181	0x08	0.12338171
182	0xfd	-0.046268143
183	0xf9	-0.107958995
184	0xf2	-0.21591799
185	0xec	-0.30845428
186	0xf8	-0.12338171
187	0xcc	-0.80198115
188	0xeb	-0.323877
189	0xed	-0.29303157
190	0xde	-0.5243723
191	0x06	0.092536286
192	0x0b	0.16964985
193	0xeb	-0.323877
194	0x03	0.046268143
195	0xd4	-0.6785994
196	0xf9	-0.107958995
197	0x00	0.0
198	0x06	0.092536286
199	0xe5	-0.41641328
200	0x05	0.07711357
201	0xe6	-0.40099058
202	0x01	0.015422714
203	0xce	-0.7711357
204	0xeb	-0.323877
205	0xdf	-0.5089496
206	0xd2	-0.7094448
207	0xfa	-0.092536286
208	0x07	0.107958995
209	0x49	1.1258581
210	0x0f	0.2313407
211	0xfb	-0.07711357
212	0x23	0.539795
213	0xf9	-0.107958995
214	0x08	0.12338171
215	0xf6	-0.15422714
216	0x0a	0.15422714
217	0x0e	0.21591799
218	0x05	0.07711357
219	0xfb	-0.07711357
220	0x02	0.030845428
221	0xf0	-0.24676342
222	0x0e	0.21591799
223	0xfa	-0.092536286
224	0xfd	-0.046268143
225	0x2f	0.7248676
226	0xfd	-0.046268143
227	0x24	0.5552177
228	0xfb	-0.07711357
229	0xfb	-0.07711357
230	0xf9	-0.107958995
231	0xe0	-0.49352685
232	0x2e	0.7094448
233	0xf6	-0.15422714
234	0x2a	0.647754
235	0xf9	-0.107958995
236	0x04	0.061690856
237	0xe4	-0.43183598
238	0x00	0.0
239	0xdf	-0.5089496
240	0xfe	-0.030845428
241	0x11	0.26218614
242	0xef	-0.26218614
243	0x15	0.323877
244	0x11	0.26218614
245	0xf6	-0.15422714
246	0xff	-0.015422714
247	0xd6	-0.647754
248	0x33	0.7865584
249	0xf4	-0.18507257
250	0x02	0.030845428
251	0xf9	-0.107958995
252	0xf5	-0.16964985
253	0xea	-0.3392997
254	0x00	0.0
255	0xd7	-0.63233125
