neural_network/models/dynamic_quant_model.tflite (tflite, 14504 bytes, 8 tensors)

sequential/dense_1/MatMul f4 [6, 32]
000000 73 91 a6 bf 2c 5b 90 bf 55 62 e2 be 35 2e a1 bf
       -1.3013138 -1.1277823 -0.44215646 -1.2592226
000010 21 26 c9 bd 78 34 d9 3b c0 1d 83 bf 10 85 ca be
       -0.09821726 0.006628569 -1.0243454 -0.39554644
000020 0a 23 2c be 4d 9e 76 bf 09 31 93 bf 1e 00 08 3e
       -0.16810241 -0.963353 -1.1499339 0.13281295
000030 fb 31 af be f2 37 4b 3f 58 b9 96 bf 92 b7 ec 3e
       -0.3421782 0.7938224 -1.1775312 0.46233803
000040 d9 e3 9d 3e e2 98 97 bf 5a 39 8e bd c7 57 d6 be
       0.30837896 -1.1843531 -0.06944533 -0.41863844
000050 f3 f8 9c bf 84 7e 20 be f2 ec d7 be 39 a3 64 3f
       -1.2263473 -0.15673262 -0.42172962 0.8931156
000060 b7 24 81 bf 0b 9e 99 bf 65 33 cb bf aa 58 6f 3f
       -1.008933 -1.2001356 -1.5875059 0.93494666
000070 8c 87 6f bf 28 a8 a6 bf 3c f1 01 3f 5d c8 ac 3e
       -0.93566203 -1.3020067 0.5075872 0.33746615
000080 15 7c 9e 3d d1 f0 b6 3e 4a bc 02 3f 63 ef 6d 3e
       0.077385105 0.35730603 0.51068556 0.2323585
000090 8c f3 1e bf fe a3 a6 3e 30 10 af be 75 a8 ae be
       -0.62090373 0.3254699 -0.34192038 -0.34112898
0000a0 88 cc 35 3e 98 c7 09 bf b4 41 66 3e 20 50 fd be
       0.17753804 -0.5382018 0.22486001 -0.49475193
0000b0 27 90 5b bf 1b 00 28 3f bc 0c 4b 3e 3f 11 72 be
       -0.85766834 0.6562516 0.19829077 -0.23639391
0000c0 df 88 fa be a6 7e ad bf 41 bd 87 be ca 6f 73 bd
       -0.4893255 -1.3554275 -0.26511577 -0.059432782
0000d0 7d a8 97 be a0 4b fb 3e c6 cc 7a be 3d 7c 26 bf
       -0.29620734 0.49081135 -0.24492177 -0.6503332
0000e0 74 a2 00 bf 18 ca 26 3e 71 9e c5 bc 6c b7 0e bf
       -0.50247884 0.1628803 -0.024123402 -0.5574863
0000f0 3e d7 94 be 6a 1b 35 bf 1e 18 6f be 18 b7 81 3e
       -0.29070467 -0.70744956 -0.23349044 0.25335002
000100 f2 87 82 3e 70 56 c0 be c4 e8 b7 be c2 e6 0a be
       0.25494343 -0.37565947 -0.35919774 -0.1356459
000110 94 26 62 3e 90 9e 16 3d 50 50 4c 3d af 77 88 3e
       0.22085029 0.03677231 0.04988128 0.2665381
000120 c3 d0 1d be d3 ed 65 3e 27 1c ce 3e b6 63 2b bf
       -0.15411668 0.22454004 0.40255854 -0.6694902
000130 43 0c 9f 3c 37 78 83 bf 6b e7 87 3e a0 23 b8 bd
       0.019415027 -1.0271062 0.26543745 -0.0899117
000140 16 90 f6 bd 00 79 12 bf 83 1e ea be dd 5d e4 3e
       -0.12039201 -0.5721588 -0.45726404 0.44602862
000150 9b 51 04 3d 76 33 e5 3e 0d a8 62 3e f5 3b 2e bf
       0.032304388 0.44765824 0.22134419 -0.6806024
000160 cb 11 02 be 9e a6 97 bd 07 ec 8b 3c 1e f0 11 bf
       -0.127021 -0.074048266 0.01708032 -0.57007015
000170 f6 57 dd 3e 82 a1 dc be 05 35 09 bf d4 6c b5 be
       0.4323117 -0.4309197 -0.53596526 -0.35434592
000180 bb a4 5d bd fc 5e 4a 3c c2 a5 14 be 60 51 1a be
       -0.054112177 0.012351748 -0.14516357 -0.15070105
000190 a1 42 b1 be 93 08 43 3e c0 df a2 3e fc ea 8c bf
       -0.34621146 0.1904624 0.31811333 -1.1009212
0001a0 24 27 a3 be 7f 15 1f be 20 70 4e bd 41 d1 2f 3e
       -0.318658 -0.15535544 -0.0503999 0.17169668
0001b0 df 04 4c be 64 eb b0 be 7d 18 ee 3d 1e e4 09 3f
       -0.19923733 -0.3455459 0.116257645 0.53863704
0001c0 aa e5 a5 bd 70 ae 41 be 35 d4 8e 3e 35 18 98 be
       -0.081004456 -0.18914199 0.27896276 -0.29705968
0001d0 ce 68 04 bf 07 4f 9b 3e 87 6e 80 be 05 ba 86 be
       -0.5172242 0.3033373 -0.25084326 -0.26313797
0001e0 96 71 23 3f 08 df e0 3c 7d 1c da 3e 28 4b 54 ba
       0.63845193 0.0274501 0.4259986 -0.00080983574
0001f0 e0 bb cc 3e 2e 2e d5 be f7 63 09 be 68 b3 06 bf
       0.39987087 -0.41636795 -0.1341704 -0.526175
000200 d2 d4 84 bf 5a 11 8b be b9 76 e2 be 79 cb 02 3e
       -1.0377448 -0.27161676 -0.44231203 0.12772931
000210 c4 9c 3d bf 28 f9 a4 be 63 50 a1 3e e4 ff 75 3c
       -0.7406733 -0.3222134 0.31506643 0.015014622
000220 9b 5d b2 be 6d 3d b2 be 31 ee 56 3e 21 0c e7 be
       -0.3483704 -0.3481249 0.209893 -0.4512644
000230 fd e9 74 be 76 3e 53 be 9f f1 57 be f8 dc a6 be
       -0.23917384 -0.20629296 -0.21088265 -0.3259046
000240 b9 9b 4a 3f 81 de d0 3e b8 b9 00 be 8b 03 53 bf
       0.79143864 0.40794757 -0.12570846 -0.8242728
000250 b1 72 ae 3e a3 14 ca be d0 6b 10 be 31 c3 1a bf
       0.34071878 -0.3946887 -0.14103627 -0.6045409
000260 d9 4c b4 be 77 4e 67 bf 61 4d c7 3e 2d da b7 bf
       -0.3521488 -0.903541 0.38926223 -1.4363457
000270 8a ea 9a 3e 6b b5 24 3f df c7 10 3f eb 48 d6 3e
       0.30257064 0.6433932 0.5655498 0.41852507
000280 c6 0f 22 3f df 29 7a 3e 6d f8 a3 be 91 12 2e bf
       0.6330532 0.24430035 -0.3202547 -0.6799708
000290 88 9d fd 3e 15 c9 af 3e ea 08 45 be eb 82 9d bf
       0.4953425 0.343331 -0.19241682 -1.2305578
0002a0 cf 7d 74 3c 33 ce 0e 3f 56 bc fc be 22 30 43 3e
       0.014922573 0.55783385 -0.4936244 0.1906133
0002b0 55 74 18 3f 25 22 6d bf 62 5c 3c bf a6 ff 4b bf
       0.5955251 -0.92630225 -0.73578465 -0.79686964
0002c0 cc d4 19 bf 07 2e a0 bf 53 6d 9a bd 17 5b 29 3f
       -0.6009033 -1.2514046 -0.07540383 0.6615462
0002d0 27 57 fc be 19 18 d3 be b9 1a 40 bf 21 3f 06 be
       -0.49285242 -0.41229323 -0.75040776 -0.1311002
0002e0 f7 ab 7b 3e 93 d6 f7 3d 99 77 bc be 39 ad 89 bd
       0.24577318 0.12101474 -0.36809996 -0.06722493
0002f0 6c ac ff 3e 75 58 8e be 22 24 73 bf cc 3b 09 bf
       0.49936235 -0.27801862 -0.9497701 -0.5360687

sequential/dense/BiasAdd/ReadVariableOp f4 [32]
000000 d1 a9 52 3f 30 be 50 bf 55 9b 3f bd 5c 64 e0 3e
       0.8229037 -0.81540203 -0.046778996 0.43826568
000010 80 b9 ad 3d f5 36 92 be fb 25 99 3e 49 71 1b bf
       0.08482647 -0.28557554 0.2991179 -0.60719734
000020 6a 66 27 be 89 0b e6 3e ff 5a 12 3f 06 1e 84 bd
       -0.16347662 0.44930676 0.571701 -0.06451039
000030 de 30 d7 3e 9e bb 4b bf 33 9d 4d be c2 0a f8 bd
       0.4202947 -0.79583156 -0.20079498 -0.12111427
000040 26 bf b2 3c c2 49 ea be fa 25 7f 3e 8b a8 b6 be
       0.021819662 -0.45759398 0.2491683 -0.35675463
000050 ad f8 fa 3e e5 05 4d bd 3b 91 c6 3d 9d 9d 81 3e
       0.4901785 -0.05005445 0.09695669 0.25315562
000060 76 2f 39 bf ca 20 20 3e 01 9c 49 3e d7 10 01 3f
       -0.72338045 0.15637508 0.19688417 0.5041632
000070 c2 e6 6c bf 62 61 65 be 45 54 9b 3d a8 48 d1 3e
       -0.9253961 -0.2240043 0.075844325 0.40875745

sequential/dense_1/BiasAdd/ReadVariableOp f4 [6]
000000 a2 c0 a7 bd e4 54 87 bd fa 31 52 be 5d f2 4d 3e
       -0.08191039 -0.066079885 -0.20526877 0.20111986
000010 33 0e 1c 3f 3c e8 40 bf
       0.60959166 -0.7535436

sequential/conv2d/Relu;sequential/conv2d/BiasAdd;sequential/conv2d_1/Conv2D;sequential/conv2d/Conv2D;sequential/conv2d/BiasAdd/ReadVariableOp f4 [16]
000000 00 73 59 be 3c 84 38 be f9 a1 47 bd 10 39 83 3d
       -0.21235275 -0.18019193 -0.048738454 0.06407368
000010 79 62 93 be 16 4d b3 bd 10 06 7d be e4 d6 9d bd
       -0.28786066 -0.08754937 -0.24709344 -0.07707003
000020 f2 d2 8e bd aa e3 0d bf c2 c3 a3 bd 3c 5b c9 bc
       -0.069738284 -0.5542551 -0.07996322 -0.024579637
000030 bd 2a 8b be 44 a5 93 be 22 6b 4d be e7 ee 10 bf
       -0.27181044 -0.28837025 -0.20060399 -0.56614536

sequential/conv2d/Relu;sequential/conv2d/BiasAdd;sequential/conv2d_1/Conv2D;sequential/conv2d/Conv2D;sequential/conv2d/BiasAdd/ReadVariableOp1 f4 [16, 3, 3, 1]
000000 26 4b ba bd 9e 34 77 bd bd 67 61 3d d1 c2 9d 3c
       -0.09096365 -0.060352914 0.055030573 0.019257935
000010 d4 f1 c6 bd 5c fb 16 3d e0 97 af 3d 10 99 5c 3d
       -0.09714094 0.03686081 0.0857389 0.05385691
000020 d4 ee 36 3d 97 05 45 ba 9d 34 68 3d 98 f4 c8 bc
       0.044661358 -0.00075157866 0.0566908 -0.024530694
000030 d7 cb 5f ba 46 63 9b 3d b1 ba 80 bd 17 50 9e 3b
       -0.00085371494 0.07587294 -0.062856086 0.004831325
000040 16 60 4e 3d a7 94 7b bd c0 51 9c bd 9e 72 ad 3c
       0.050384603 -0.061421063 -0.0763278 0.021172818
000050 c8 57 34 3c c7 30 c3 3c c0 d3 4f 3c 30 ff a4 bc
       0.011007257 0.02382697 0.0126847625 -0.020141214
000060 dc 50 a7 3d 15 7a 8e 3c ea 91 84 bd 6e 48 55 3d
       0.081697196 0.017392198 -0.064731434 0.052071027
000070 d4 ae 5f 3c 42 d9 d5 3b c4 37 6f 3c ee 78 8b 3c
       0.013652522 0.0065261433 0.014600698 0.017025437
000080 ec 3a 6f 3b fc 8a ab ba 9b f5 76 3d 2f 9e 63 3c
       0.0036503626 -0.0013087685 0.06029282 0.013892694
000090 a6 c4 8c bd ec c3 02 3d 44 d4 ed 3c 4b bd 0a bd
       -0.06873445 0.031925127 0.02903188 -0.03387193
0000a0 8c 2f 98 bc f7 59 a3 bd 4a 5a 4f bb 23 87 7e bd
       -0.01857736 -0.07976144 -0.003163951 -0.062140595
0000b0 51 d3 8c bd 6f 5b 6f bc 79 a4 2e bd 7f 72 a5 bd
       -0.06876243 -0.014609202 -0.042637322 -0.08078479
0000c0 ad 44 99 39 46 68 dd bd c5 ee 12 bd 58 b7 b7 bc
       0.00029233602 -0.10810904 -0.03587224 -0.022426292
0000d0 46 a7 38 3d d5 dd ec 3d 17 20 83 ba c0 a1 0b bd
       0.0450814 0.115657486 -0.001000407 -0.034089804
0000e0 30 f7 40 bd db ec 67 3b 65 02 f8 bd 5a 41 06 bd
       -0.047110736 0.003538898 -0.12109832 -0.032777168
0000f0 0b 2b 00 bc 50 f6 90 bd b9 55 71 bc 17 8f 82 3b
       -0.007822762 -0.070782304 -0.0147299105 0.003984343
000100 91 dc b8 3d d9 02 fb 3d e6 be 05 3d a0 a1 56 3b
       0.09026445 0.122564025 0.032652758 0.0032750145
000110 cc 06 db bc cc 10 b1 3b d5 2a d9 bd e4 79 0e be
       -0.02673664 0.0054036137 -0.10603873 -0.13913685
000120 da bc c4 bc 75 4d 3e 3d f2 64 0b 3d 93 b1 62 bb
       -0.024015833 0.046460588 0.034031816 -0.0034590706
000130 e5 b1 b6 3d 96 7d 21 3d 63 f5 57 3d 90 a9 92 3d
       0.089206494 0.03942641 0.052724253 0.07161248
000140 74 05 04 3c 68 8e 60 3d df 88 c7 3b 0b 90 c4 bd
       0.008057941 0.05482331 0.0060893144 -0.095977865
000150 03 62 9c 3b 5c 0f 5f bd 7b 0c 1f bd ea a9 dc ba
       0.004772426 -0.054458007 -0.03883026 -0.0016835306
000160 f0 36 b8 bd c8 b5 98 3c 95 46 07 3d 31 2f 7b bd
       -0.089948535 0.018641368 0.033026297 -0.061324302
000170 e7 18 fd bc 36 42 80 bc 23 2b 7c bc 73 9d 13 be
       -0.030895663 -0.015656572 -0.015391144 -0.14415531
000180 26 a2 b2 bc 05 20 2e bb c1 85 88 bd 01 bb be bc
       -0.021805834 -0.0026569378 -0.066661365 -0.02328253
000190 26 d0 3f bc a8 69 6a bc 81 3b ab 3a 6a f6 57 3c
       -0.011707341 -0.014307417 0.0013063998 0.013181308
0001a0 dc 9c d6 3d 2e cf 9d bc 5c d9 b4 3d 55 b4 81 3d
       0.10479137 -0.01926383 0.088305205 0.06333224
0001b0 a5 ec e6 3d 60 19 78 3d 4b 26 9f 3c 0c 94 74 bc
       0.11275605 0.060571074 0.01942744 -0.014927875
0001c0 bc d8 3d 3d 73 50 0a 3d af 58 df bd dc ab 82 bc
       0.046349272 0.03376813 -0.10905587 -0.01595109
0001d0 4a 71 6d bd b4 c3 1c 3d 96 74 04 3d 60 ba a5 3d
       -0.05796937 0.038272575 0.032337748 0.08092189
0001e0 c0 7d 4e 3b ef ac 87 bd b6 2f b4 3d f6 fe 32 bd
       0.0031508058 -0.06624781 0.08798163 -0.04370018
0001f0 1e d7 0f be dd e2 d3 3c 0e 80 74 3c 96 8e e6 bc
       -0.14046904 0.025865013 0.014923109 -0.028144162
000200 89 e4 64 3d c4 07 18 3d cf cc c4 bb af d9 91 3c
       0.05588201 0.03711678 -0.0060058604 0.017803995
000210 ed 2f ad 3c d7 3e a7 3a cf 75 b2 bc f0 2f 4f 3d
       0.021141017 0.0012759817 -0.021784691 0.050582826
000220 3d 7a e5 bc 55 fa e2 bd de 72 25 3c 7a c4 42 3c
       -0.02801239 -0.11082903 0.010098187 0.011887664
000230 2e aa 8c bd 39 96 e0 bc c9 a5 89 3c 2d f6 f2 bd
       -0.06868397 -0.027415382 0.016802685 -0.118633606

sequential/conv2d_1/BiasAdd/ReadVariableOp f4 [16]
000000 d4 87 32 be f5 95 df bd d4 3c 0b 3e 66 a4 d5 be
       -0.17434627 -0.10917274 0.13597423 -0.4172699
000010 fa 8e c2 be cf 18 41 bf 85 8b a5 bd 26 38 49 be
       -0.37999707 -0.7542848 -0.08083252 -0.19650325
000020 b8 c8 a4 bd 7e 45 2c bd 2e 76 0e bf 0c f0 43 bf
       -0.080460966 -0.04205846 -0.5564908 -0.7653816
000030 6c 34 55 be a6 e1 9a be fa 45 5d bf fb 3f 9d be
       -0.20820779 -0.3025028 -0.864349 -0.30712876

sequential/conv2d_1/Conv2D i1 [16, 3, 3, 16]
000000 ce e2 92 e5 ac 81 f5 f4 e6 f5 3f d6 ad c0 b9 b7
       -50 -30 -110 -27 -84 -127 -11 -12 -26 -11 63 -42 -83 -64 -71 -73
000010 b6 f6 c2 ea b4 f5 af 9e cd d1 eb ca 12 b4 ed 06
       -74 -10 -62 -22 -76 -11 -81 -98 -51 -47 -21 -54 18 -76 -19 6
000020 1c d5 30 c2 36 e5 b0 f5 c4 d8 fc ba f2 ce bc cf
       28 -43 48 -62 54 -27 -80 -11 -60 -40 -4 -70 -14 -50 -68 -49
000030 fe f3 bb 9e b8 af ec de d5 00 be aa 92 bf cd a8
       -2 -13 -69 -98 -72 -81 -20 -34 -43 0 -66 -86 -110 -65 -51 -88
000040 ce de ce f6 c1 ce c8 a2 0c f5 e4 fc ea d6 b5 b6
       -50 -34 -50 -10 -63 -50 -56 -94 12 -11 -28 -4 -22 -42 -75 -74
000050 e8 e5 da eb f1 bf e1 bd ce 0b b4 1a 11 e5 10 fa
       -24 -27 -38 -21 -15 -65 -31 -67 -50 11 -76 26 17 -27 16 -6
000060 db e0 16 d0 ff 05 cc 2e d6 07 28 e9 ef 05 08 fe
       -37 -32 22 -48 -1 5 -52 46 -42 7 40 -23 -17 5 8 -2
000070 04 bc dd fc ed ba c9 de cb d6 a0 fd 22 da c9 e0
       4 -68 -35 -4 -19 -70 -55 -34 -53 -42 -96 -3 34 -38 -55 -32
000080 16 e5 08 dc fc c9 ba e6 fe e9 e3 08 14 f3 f6 ca
       22 -27 8 -36 -4 -55 -70 -26 -2 -23 -29 8 20 -13 -10 -54
000090 ea e9 de ea 18 12 f1 e6 0b f1 ef 27 fc 13 1a ed
       -22 -23 -34 -22 24 18 -15 -26 11 -15 -17 39 -4 19 26 -19
0000a0 23 10 15 15 aa f9 21 10 14 ea ec 0e d2 27 45 0c
       35 16 21 21 -86 -7 33 16 20 -22 -20 14 -46 39 69 12
0000b0 cf f3 fe 26 fa eb 16 e4 1d ed fa fb ae dd f6 f8
       -49 -13 -2 38 -6 -21 22 -28 29 -19 -6 -5 -82 -35 -10 -8
0000c0 fb e4 e8 d5 ee 03 07 d6 03 f4 ed f6 cc 3b 0f d2
       -5 -28 -24 -43 -18 3 7 -42 3 -12 -19 -10 -52 59 15 -46
0000d0 ef ea f5 f1 af ef 38 2a c7 fe 21 01 81 fd 21 11
       -17 -22 -11 -15 -81 -17 56 42 -57 -2 33 1 -127 -3 33 17
0000e0 de ee ef 24 f2 2e 07 b2 2d e9 ee 15 cb 29 f1 df
       -34 -18 -17 36 -14 46 7 -78 45 -23 -18 21 -53 41 -15 -33
0000f0 28 2d dd d5 d2 2a 2c 37 1e 26 f3 e2 d2 3a 37 cb
       40 45 -35 -43 -46 42 44 55 30 38 -13 -30 -46 58 55 -53

sequential/dense/MatMul i1 [32, 208] scale=0.019337084 zero_point=0
000000 fa f5 d4 02 db 34 f0 fb 06 fb 1a fa 21 f3 07 f7
       -0.116022505 -0.21270792 -0.8508317 0.03867417 -0.7154721 1.0055283 -0.30939335 -0.096685424 0.116022505 -0.096685424 0.50276417 -0.116022505 0.63812375 -0.25138208 0.13535959 -0.17403376
000010 ef e7 ea fa d7 20 1c 0a 08 03 09 10 28 25 0d f3
       -0.32873043 -0.4834271 -0.42541584 -0.116022505 -0.79282045 0.6187867 0.54143834 0.19337085 0.15469667 0.058011252 0.17403376 0.30939335 0.7734834 0.7154721 0.25138208 -0.25138208
000020 ff fa 15 f5 e5 21 f8 ff 04 00 19 1b 1d 09 01 06
       -0.019337084 -0.116022505 0.40607876 -0.21270792 -0.5221013 0.63812375 -0.15469667 -0.019337084 0.07734834 0.0 0.4834271 0.5221013 0.56077546 0.17403376 0.019337084 0.116022505
000030 03 05 0c 02 d2 00 f5 07 fe 01 f0 08 1c 0a 1b 0b
       0.058011252 0.096685424 0.23204501 0.03867417 -0.88950586 0.0 -0.21270792 0.13535959 -0.03867417 0.019337084 -0.30939335 0.15469667 0.54143834 0.19337085 0.5221013 0.21270792
000040 f7 ec 0f f8 db 0e 17 05 05 ff 18 02 0d ff 15 01
       -0.17403376 -0.3867417 0.29005626 -0.15469667 -0.7154721 0.27071917 0.44475293 0.096685424 0.096685424 -0.019337084 0.46409002 0.03867417 0.25138208 -0.019337084 0.40607876 0.019337084
000050 0b 0a 0f f6 af 0e 2c 06 fc 05 ff 0d 0d fd 19 0f
       0.21270792 0.19337085 0.29005626 -0.19337085 -1.5663038 0.27071917 0.8508317 0.116022505 -0.07734834 0.096685424 -0.019337084 0.25138208 0.25138208 -0.058011252 0.4834271 0.29005626
000060 02 10 16 20 e9 27 0c f7 03 ff 01 0f f8 ee 08 f7
       0.03867417 0.30939335 0.42541584 0.6187867 -0.44475293 0.7541463 0.23204501 -0.17403376 0.058011252 -0.019337084 0.019337084 0.29005626 -0.15469667 -0.34806752 0.15469667 -0.17403376
000070 f7 12 12 18 d2 bc ed fe 03 0f da 15 07 ef 29 04
       -0.17403376 0.34806752 0.34806752 0.46409002 -0.88950586 -1.3149217 -0.3674046 -0.03867417 0.058011252 0.29005626 -0.7348092 0.40607876 0.13535959 -0.32873043 0.79282045 0.07734834
000080 0e 1e 09 d1 d4 c4 d8 03 02 00 eb 24 f9 e9 e0 df
       0.27071917 0.5801125 0.17403376 -0.908843 -0.8508317 -1.160225 -0.7734834 0.058011252 0.03867417 0.0 -0.40607876 0.69613504 -0.13535959 -0.44475293 -0.6187867 -0.63812375
000090 f4 01 1f ef e8 b0 dc 03 04 06 d7 f2 e7 d5 bf 02
       -0.23204501 0.019337084 0.59944963 -0.32873043 -0.46409002 -1.5469668 -0.69613504 0.058011252 0.07734834 0.116022505 -0.79282045 -0.27071917 -0.4834271 -0.8314946 -1.2569104 0.03867417
0000a0 09 fb 06 0f d5 c8 1a fc 05 08 a2 18 1b fd e4 09
       0.17403376 -0.096685424 0.116022505 0.29005626 -0.8314946 -1.0828767 0.50276417 -0.07734834 0.096685424 0.15469667 -1.817686 0.46409002 0.5221013 -0.058011252 -0.54143834 0.17403376
0000b0 0b 02 e2 e9 ee fc d1 01 08 00 fe f1 f2 0d d8 ff
       0.21270792 0.03867417 -0.5801125 -0.44475293 -0.34806752 -0.07734834 -0.908843 0.019337084 0.15469667 0.0 -0.03867417 -0.29005626 -0.27071917 0.25138208 -0.7734834 -0.019337084
0000c0 f1 d5 d0 b6 05 54 d9 00 07 02 01 13 0a 22 02 f7
       -0.29005626 -0.8314946 -0.92818004 -1.4309442 0.096685424 1.624315 -0.7541463 0.0 0.13535959 0.03867417 0.019337084 0.3674046 0.19337085 0.65746087 0.03867417 -0.17403376
0000d0 fa d6 e6 04 fc 10 e1 06 f9 ff d4 06 d2 db f1 ff
       -0.116022505 -0.8121575 -0.50276417 0.07734834 -0.07734834 0.30939335 -0.59944963 0.116022505 -0.13535959 -0.019337084 -0.8508317 0.116022505 -0.88950586 -0.7154721 -0.29005626 -0.019337084
0000e0 f4 fd 11 1c 18 01 0c f7 fb 03 e8 f6 1d fa 2b 0f
       -0.23204501 -0.058011252 0.32873043 0.54143834 0.46409002 0.019337084 0.23204501 -0.17403376 -0.096685424 0.058011252 -0.46409002 -0.19337085 0.56077546 -0.116022505 0.8314946 0.29005626
0000f0 04 ff f3 08 0e e2 02 03 00 f7 03 d1 09 f0 36 fa
       0.07734834 -0.019337084 -0.25138208 0.15469667 0.27071917 -0.5801125 0.03867417 0.058011252 0.0 -0.17403376 0.058011252 -0.908843 0.17403376 -0.30939335 1.0442026 -0.116022505
