neural_network/models/full_int_model.tflite (tflite, 14344 bytes, 3 tensors)

sequential_48/dense_110/MatMul i1 [6, 704] scale=0.0069868173 zero_point=0
000000 08 f7 01 0f ef 01 fb 33 1c ea 27 15 25 3c c2 23
       0.05589454 -0.06288136 0.0069868173 0.10480226 -0.1187759 0.0069868173 -0.03493409 0.35632768 0.19563088 -0.15370998 0.27248588 0.14672317 0.25851223 0.41920903 -0.4331827 0.2445386
000010 2f 1d 12 c0 01 0b 1d de 0e 31 09 eb fc b3 1d c3
       0.3283804 0.2026177 0.12576272 -0.4471563 0.0069868173 0.07685499 0.2026177 -0.2375518 0.09781544 0.34235406 0.06288136 -0.14672317 -0.02794727 -0.5379849 0.2026177 -0.42619586
000020 dd c9 ec 35 f9 de f1 09 ff 2f c0 e5 30 09 de ff
       -0.2445386 -0.38427496 -0.13973635 0.3703013 -0.04890772 -0.2375518 -0.10480226 0.06288136 -0.0069868173 0.3283804 -0.4471563 -0.18864407 0.33536723 0.06288136 -0.2375518 -0.0069868173
000030 25 e5 ec 1a 03 0e 02 f3 03 1e cf 3d 34 17 d5 c2
       0.25851223 -0.18864407 -0.13973635 0.18165725 0.020960452 0.09781544 0.013973635 -0.09082863 0.020960452 0.20960452 -0.34235406 0.42619586 0.3633145 0.1606968 -0.30043316 -0.4331827
000040 fc ee fd 18 00 08 0a 1a 1b db 0a 24 e2 e7 d5 17
       -0.02794727 -0.12576272 -0.020960452 0.16768362 0.0 0.05589454 0.06986818 0.18165725 0.18864407 -0.25851223 0.06986818 0.25152543 -0.20960452 -0.17467043 -0.30043316 0.1606968
000050 ed 2b e1 c5 03 05 e2 ca 11 22 e9 ec e6 c2 16 be
       -0.13274953 0.30043316 -0.21659134 -0.41222224 0.020960452 0.03493409 -0.20960452 -0.37728813 0.1187759 0.2375518 -0.1606968 -0.13973635 -0.18165725 -0.4331827 0.15370998 -0.46112993
000060 e4 de c0 2c 2f dd bb e9 0f 19 c3 03 e1 37 f3 03
       -0.19563088 -0.2375518 -0.4471563 0.30741996 0.3283804 -0.2445386 -0.48209038 -0.1606968 0.10480226 0.17467043 -0.42619586 0.020960452 -0.21659134 0.38427496 -0.09082863 0.020960452
000070 04 f4 e2 33 17 e9 d2 f3 1e 15 f4 f6 21 30 a9 0d
       0.02794727 -0.08384181 -0.20960452 0.35632768 0.1606968 -0.1606968 -0.3213936 -0.09082863 0.20960452 0.14672317 -0.08384181 -0.06986818 0.23056497 0.33536723 -0.6078531 0.09082863
000080 0e fe 06 12 13 00 eb ff 22 c3 2d 19 d1 0c ec 0f
       0.09781544 -0.013973635 0.041920904 0.12576272 0.13274953 0.0 -0.14672317 -0.0069868173 0.2375518 -0.42619586 0.31440678 0.17467043 -0.3283804 0.08384181 -0.13973635 0.10480226
000090 fc 1b f7 ca ed 10 01 de ec 2a 05 f9 de cc 27 bb
       -0.02794727 0.18864407 -0.06288136 -0.37728813 -0.13274953 0.11178908 0.0069868173 -0.2375518 -0.13973635 0.29344633 0.03493409 -0.04890772 -0.2375518 -0.3633145 0.27248588 -0.48209038
0000a0 ec db de 1f 1a 20 ee fb 1a 0c 15 00 0e 0f 04 fc
       -0.13973635 -0.25851223 -0.2375518 0.21659134 0.18165725 0.22357816 -0.12576272 -0.03493409 0.18165725 0.08384181 0.14672317 0.0 0.09781544 0.10480226 0.02794727 -0.02794727
0000b0 0e 0b e8 40 49 32 19 fa e5 4a fb 2c ec 37 0d 12
       0.09781544 0.07685499 -0.16768362 0.4471563 0.51003766 0.34934086 0.17467043 -0.041920904 -0.18864407 0.51702446 -0.03493409 0.30741996 -0.13973635 0.38427496 0.09082863 0.12576272
0000c0 19 07 da f7 e0 e5 13 09 15 c4 2c 10 de e7 cc 19
       0.17467043 0.04890772 -0.26549906 -0.06288136 -0.22357816 -0.18864407 0.13274953 0.06288136 0.14672317 -0.41920903 0.30741996 0.11178908 -0.2375518 -0.17467043 -0.3633145 0.17467043
0000d0 0e 02 01 c3 f8 f8 e6 d1 05 24 24 f5 c4 ab 0e d2
       0.09781544 0.013973635 0.0069868173 -0.42619586 -0.05589454 -0.05589454 -0.18165725 -0.3283804 0.03493409 0.25152543 0.25152543 -0.07685499 -0.41920903 -0.59387946 0.09781544 -0.3213936
0000e0 f6 c3 e4 26 13 ee c3 0f 49 04 11 ec e6 12 e1 07
       -0.06986818 -0.42619586 -0.19563088 0.26549906 0.13274953 -0.12576272 -0.42619586 0.10480226 0.51003766 0.02794727 0.1187759 -0.13973635 -0.18165725 0.12576272 -0.21659134 0.04890772
0000f0 14 ef fa 0c f8 06 d2 bd ea fd ec ea df 14 e0 d5
       0.13973635 -0.1187759 -0.041920904 0.08384181 -0.05589454 0.041920904 -0.3213936 -0.46811676 -0.15370998 -0.020960452 -0.13973635 -0.15370998 -0.23056497 0.13973635 -0.22357816 -0.30043316

sequential_48/conv2d_91/Conv2D i1 [16, 3, 3, 32]
000000 df 10 2a fe 0a fd 15 18 c9 e3 c7 df ef 07 13 e1
       -33 16 42 -2 10 -3 21 24 -55 -29 -57 -33 -17 7 19 -31
000010 1e f8 c3 0f 04 ea ec e7 de 16 f3 25 e5 15 07 0b
       30 -8 -61 15 4 -22 -20 -25 -34 22 -13 37 -27 21 7 11
000020 f4 e3 e8 ea f6 a3 1c f8 16 fe 02 10 eb f2 cf ec
       -12 -29 -24 -22 -10 -93 28 -8 22 -2 2 16 -21 -14 -49 -20
000030 ed 04 f9 10 1f fb da fa ff 10 1b 0b 0e e1 fb e9
       -19 4 -7 16 31 -5 -38 -6 -1 16 27 11 14 -31 -5 -23
000040 61 e3 51 21 02 04 c5 1a dc 0b d5 02 09 41 0b be
       97 -29 81 33 2 4 -59 26 -36 11 -43 2 9 65 11 -66
000050 12 3c 22 d6 f7 2b cf c6 c8 07 11 ef bb f5 34 2a
       18 60 34 -42 -9 43 -49 -58 -56 7 17 -17 -69 -11 52 42
000060 07 ec 00 14 28 fc e7 11 b0 12 1d 16 ea 09 07 0b
       7 -20 0 20 40 -4 -25 17 -80 18 29 22 -22 9 7 11
000070 e5 fb bf 10 0c af f8 e5 da 16 1f 18 fd 22 1b 33
       -27 -5 -65 16 12 -81 -8 -27 -38 22 31 24 -3 34 27 51
000080 f0 e5 b0 f5 f2 b8 20 d2 07 02 04 08 d3 f4 f1 f3
       -16 -27 -80 -11 -14 -72 32 -46 7 2 4 8 -45 -12 -15 -13
000090 ea d9 f2 1c 0f e1 e1 e6 0b 16 e2 e8 03 cd ec ca
       -22 -39 -14 28 15 -31 -31 -26 11 22 -30 -24 3 -51 -20 -54
0000a0 38 07 44 12 04 20 ce 0a a2 d6 bc 17 eb 3c 1c 1a
       56 7 68 18 4 32 -50 10 -94 -42 -68 23 -21 60 28 26
0000b0 18 5d fc 00 27 04 d3 d3 ec ea 3c e3 f8 fc 09 22
       24 93 -4 0 39 4 -45 -45 -20 -22 60 -29 -8 -4 9 34
0000c0 11 db f9 27 f1 d8 20 ff c7 11 00 e6 ec 05 01 eb
       17 -37 -7 39 -15 -40 32 -1 -57 17 0 -26 -20 5 1 -21
0000d0 07 19 d4 03 db c7 f1 e5 18 10 e0 0b 24 07 30 00
       7 25 -44 3 -37 -57 -15 -27 24 16 -32 11 36 7 48 0
0000e0 e8 14 89 ff 08 fa 18 1b 19 20 07 f5 15 1a 06 f5
       -24 20 -119 -1 8 -6 24 27 25 32 7 -11 21 26 6 -11
0000f0 13 ed ef 13 f7 bf 13 ef 1a 0a 9d ff 02 02 fc 1e
       19 -19 -17 19 -9 -65 19 -17 26 10 -99 -1 2 2 -4 30

sequential_48/conv2d_90/Conv2D i1 [32, 3, 3, 1]
000000 a6 49 dc 9e 2f 1d d2 f2 7f ae aa aa 77 43 7f 2f
       -90 73 -36 -98 47 29 -46 -14 127 -82 -86 -86 119 67 127 47
000010 f0 13 81 56 b2 58 0c 15 24 9c 43 f4 48 81 d8 50
       -16 19 -127 86 -78 88 12 21 36 -100 67 -12 72 -127 -40 80
000020 de f9 02 69 db a6 5a 7f 49 91 fc 0f 9e f8 3c 4f
       -34 -7 2 105 -37 -90 90 127 73 -111 -4 15 -98 -8 60 79
000030 18 54 fd 2c fb 81 0b cd 81 de 0c 0f 03 27 32 47
       24 84 -3 44 -5 -127 11 -51 -127 -34 12 15 3 39 50 71
000040 43 94 46 45 81 f1 1d ca 1b 82 27 f0 d0 47 d6 7f
       67 -108 70 69 -127 -15 29 -54 27 -126 39 -16 -48 71 -42 127
000050 ff eb a3 aa fc 3d da 38 4f 7f 0a bb cd f0 0d 6c
       -1 -21 -93 -86 -4 61 -38 56 79 127 10 -69 -51 -16 13 108
000060 e9 35 7f 86 29 50 39 81 2d 98 e8 f4 e4 b0 46 13
       -23 53 127 -122 41 80 57 -127 45 -104 -24 -12 -28 -80 70 19
000070 2e 3f 34 62 7f 71 ef ed 50 e5 81 b1 f2 77 3c 7f
       46 63 52 98 127 113 -17 -19 80 -27 -127 -79 -14 119 60 127
000080 42 25 57 72 03 d1 23 64 f8 b0 c2 ef dc f3 81 69
       66 37 87 114 3 -47 35 100 -8 -80 -62 -17 -36 -13 -127 105
000090 36 69 48 f8 24 7f fb ad 68 1b 00 8f d9 7f ce cc
       54 105 72 -8 36 127 -5 -83 104 27 0 -113 -39 127 -50 -52
0000a0 47 b7 7f be c5 e6 eb f4 8f 2a 4c 3f f7 da 4f a8
       71 -73 127 -66 -59 -26 -21 -12 -113 42 76 63 -9 -38 79 -88
0000b0 81 16 c0 db a4 12 69 05 d2 b0 7f e8 ac 23 76 67
       -127 22 -64 -37 -92 18 105 5 -46 -80 127 -24 -84 35 118 103
0000c0 d7 f9 e8 dd 81 8f b9 c5 57 2b f2 fd c8 7f 0f 5a
       -41 -7 -24 -35 -127 -113 -71 -59 87 43 -14 -3 -56 127 15 90
0000d0 d2 4f 10 e0 2e 81 ab 1e fa 81 83 f5 f1 3d a8 1e
       -46 79 16 -32 46 -127 -85 30 -6 -127 -125 -11 -15 61 -88 30
0000e0 76 9f d2 81 b1 c8 a3 69 e9 da 92 6a 0d 1b bf ec
       118 -97 -46 -127 -79 -56 -93 105 -23 -38 -110 106 13 27 -65 -20
0000f0 7f e7 29 cc 23 8f 3a 20 81 07 c2 16 fc 3c 69 8a
       127 -25 41 -52 35 -113 58 32 -127 7 -62 22 -4 60 105 -118
