neural_network/models/full_int_model.tflite (tflite, 14216 bytes, 3 tensors)

sequential/dense/MatMul i1 [6, 704] scale=0.0067491885 zero_point=0
0.14173296 0.10798702 -0.20922485 0.0 -0.094488636 0.0607427 -0.020247566 -0.4049513
0.37120536 0.16198052 0.21597403 0.33745942 0.2429708 0.1214854 0.4117005 0.094488636
-0.38470376 0.07424107 0.56018263 0.28346592 -0.36445618 -0.7626583 0.026996754 0.49943995
-0.14848214 -0.36445618 0.12823458 0.32396105 0.5129383 -0.6411729 -0.4049513 0.14848214
-0.37120536 0.50618917 0.43194807 -0.39145294 0.27671674 -0.05399351 0.026996754 -0.2902151
-0.020247566 -0.20922485 0.094488636 -0.033745944 -0.13498378 0.22272322 0.19572647 -0.33745942
0.10798702 -0.08099026 -0.07424107 -0.11473621 -0.2969643 -0.74915993 -0.20247565 -0.33071023
-0.2362216 0.020247566 0.39145294 0.33071023 0.20922485 0.5871794 -0.19572647 -0.5331859
-0.26321834 0.026996754 -0.2429708 -0.0607427 0.06749189 0.10798702 0.22272322 -0.33745942
0.06749189 0.0067491885 -0.31046268 0.1754789 0.08099026 0.18897727 -0.4049513 0.20247565
-0.42519888 -0.34420863 0.15523134 -0.7829059 -0.34420863 -0.715414 0.20247565 0.68166804
-0.43194807 -0.16198052 -0.10798702 0.12823458 0.14173296 -0.5939286 -0.2902151 0.11473621
-0.43869725 0.16198052 0.56693184 0.20922485 0.1754789 -0.033745944 0.32396105 -0.22947241
-0.25646916 -0.08099026 -0.14848214 -0.24971998 0.25646916 -0.19572647 0.16872971 -0.4117005
-0.14848214 -0.07424107 -0.0607427 -0.5871794 -0.31046268 -0.31046268 0.08773945 0.05399351
0.10798702 -0.26996756 -0.094488636 -0.07424107 -0.5399351 0.08773945 -0.0067491885 -0.20247565
0.08773945 -0.08099026 -0.28346592 0.026996754 -0.21597403 0.2362216 0.36445618 -0.39145294
0.16198052 0.094488636 -0.0607427 0.11473621 -0.18897727 0.08099026 -0.2902151 0.18222809
-0.56693184 -0.20247565 0.14173296 -0.49269077 0.05399351 -0.4724432 -0.22272322 0.67491883
-0.4184497 -0.12823458 -0.013498377 -0.020247566 -0.08099026 -0.54668427 -0.19572647 0.21597403
0.05399351 -0.20922485 0.06749189 0.2362216 0.11473621 -0.094488636 0.2362216 -0.094488636
-0.0607427 -0.31046268 -0.26321834 0.15523134 -0.19572647 -0.047244318 0.05399351 -0.3509578
-0.1214854 -0.094488636 0.0067491885 -0.19572647 -0.16872971 -0.37795454 0.094488636 0.013498377
0.11473621 -0.14848214 -0.047244318 -0.14173296 -0.5129383 0.05399351 -0.08773945 -0.22947241
-0.047244318 -0.18897727 -0.1754789 -0.357707 0.0 0.08099026 -0.11473621 -0.357707
0.08099026 0.16198052 0.0 0.1214854 -0.43869725 -0.14173296 -0.15523134 0.2902151
-0.26996756 -0.07424107 0.21597403 -0.5939286 -0.22947241 -0.5939286 -0.13498378 0.62092537
-0.56018263 -0.24971998 -0.2429708 0.2429708 0.08099026 -0.2902151 -0.465694 -0.06749189
-0.1754789 -0.2362216 -0.18222809 0.04049513 -0.22947241 0.0067491885 0.43194807 -0.06749189
0.05399351 -0.22272322 0.047244318 -0.08773945 -0.18897727 -0.18222809 -0.0607427 -0.47919238
-0.0607427 -0.06749189 0.05399351 -0.26321834 -0.22272322 -0.49943995 -0.033745944 0.10798702
-0.020247566 -0.14848214 -0.020247566 0.11473621 -0.43194807 0.26996756 -0.357707 -0.24971998
00000000: 1510 e100 f209 fdc4 3718 2032 2412 3d0e
00000010: c70b 532a ca8f 044a eaca 1330 4ca1 c416
00000020: c94b 40c6 29f8 04d5 fde1 0efb ec21 1dce
00000030: 10f4 f5ef d491 e2cf dd03 3a31 1f57 e3b1
00000040: d904 dcf7 0a10 21ce 0a01 d21a 0c1c c41e
00000050: c1cd 178c cd96 1e65 c0e8 f013 15a8 d511
00000060: bf18 541f 1afb 30de daf4 eadb 26e3 19c3
00000070: eaf5 f7a9 d2d2 0d08 10d8 f2f5 b00d ffe2
00000080: 0df4 d604 e023 36c6 180e f711 e40c d51b
00000090: ace2 15b7 08ba df64 c2ed fefd f4af e320
000000a0: 08e1 0a23 11f2 23f2 f7d2 d917 e3f9 08cc
000000b0: eef2 01e3 e7c8 0e02 11ea f9eb b408 f3de
000000c0: f9e4 e6cb 000c efcb 0c18 0012 bfeb e92b
000000d0: d8f5 20a8 dea8 ec5c addb dc24 0cd5 bbf6
000000e0: e6dd e506 de01 40f6 08df 07f3 e4e5 f7b9
000000f0: f7f6 08d9 dfb6 fb10 fdea fd11 c028 cbdb

sequential/conv2d_1/Conv2D i1 [16, 3, 3, 32]
2 -34 -64 74 9 -26 -33 -6
23 18 6 -18 8 -7 -59 -40
19 -26 64 24 63 -24 16 -44
-19 -7 -43 -20 -32 58 -50 -62
11 -84 -21 62 6 -17 2 -14
-28 13 -4 -53 -2 -1 2 4
-18 45 -5 -20 -13 -15 7 -11
11 -49 -3 44 48 -17 4 24
30 -11 -4 -18 -25 -1 62 9
34 20 -19 -5 -7 -34 77 -9
50 -7 22 -2 20 25 -14 -67
-18 20 26 71 -49 -10 -9 -2
-26 -11 29 -3 -11 -1 -6 17
8 -43 -59 -38 -29 -64 23 -2
39 -19 2 11 32 22 4 3
17 14 -46 -1 -15 5 -1 -56
6 -57 12 11 -32 -11 30 0
13 4 30 -11 1 -15 -19 -17
22 -15 6 25 14 -9 -36 -23
25 8 -12 4 -19 21 33 -18
16 10 -32 64 -2 1 -52 34
-14 -21 19 -4 25 7 16 39
-5 31 9 10 21 -21 -90 -19
-4 15 33 -6 106 30 13 -3
-35 49 59 -7 10 33 -70 -4
5 -60 -44 48 -40 -16 37 37
54 -127 -50 47 -67 -54 -48 23
-21 18 28 18 -75 -51 39 43
-4 8 -64 37 2 10 -17 -8
4 -30 -4 -20 30 -38 -16 -82
-29 19 2 13 -5 -26 4 2
1 33 1 -6 0 -23 21 30
00000000: 02de c04a 09e6 dffa 1712 06ee 08f9 c5d8
00000010: 13e6 4018 3fe8 10d4 edf9 d5ec e03a cec2
00000020: 0bac eb3e 06ef 02f2 e40d fccb feff 0204
00000030: ee2d fbec f3f1 07f5 0bcf fd2c 30ef 0418
00000040: 1ef5 fcee e7ff 3e09 2214 edfb f9de 4df7
00000050: 32f9 16fe 1419 f2bd ee14 1a47 cff6 f7fe
00000060: e6f5 1dfd f5ff fa11 08d5 c5da e3c0 17fe
00000070: 27ed 020b 2016 0403 110e d2ff f105 ffc8
00000080: 06c7 0c0b e0f5 1e00 0d04 1ef5 01f1 edef
00000090: 16f1 0619 0ef7 dce9 1908 f404 ed15 21ee
000000a0: 100a e040 fe01 cc22 f2eb 13fc 1907 1027
000000b0: fb1f 090a 15eb a6ed fc0f 21fa 6a1e 0dfd
000000c0: dd31 3bf9 0a21 bafc 05c4 d430 d8f0 2525
000000d0: 3681 ce2f bdca d017 eb12 1c12 b5cd 272b
000000e0: fc08 c025 020a eff8 04e2 fcec 1eda f0ae
000000f0: e313 020d fbe6 0402 0121 01fa 00e9 151e

sequential/conv2d/Conv2D i1 [32, 3, 3, 1]
-21 71 127 31 52 -18 37 -48
-107 55 120 20 -7 55 127 -25
-104 32 12 -47 42 35 44 63
20 74 127 -127 28 119 36 6
25 119 -6 -118 127 -104 88 -72
1 72 -50 7 -28 -49 1 -127
-57 82 -27 -56 40 -22 127 -14
58 -35 -65 -40 -125 70 -29 -38
-111 127 -6 -4 54 -68 57 56
-81 -32 -64 -8 -36 -127 51 -41
-56 26 127 61 -71 27 -43 92
-60 -117 -51 -68 -27 63 127 26
88 41 -11 4 59 66 40 102
127 42 -45 22 -40 55 -67 -64
34 86 -16 -80 127 -89 -101 -61
127 81 -51 -31 51 16 -5 -52
-119 -79 -48 57 40 74 127 -113
-99 101 34 64 85 19 127 -22
63 -56 -103 -10 44 12 -18 4
127 -127 64 55 15 -71 -42 59
-45 78 57 4 -112 78 6 -127
-10 -7 -37 -18 -55 73 -6 127
-72 -36 33 -61 8 6 -69 86
-34 -127 10 -71 -36 -16 67 27
-1 23 -47 -53 -124 -127 110 -59
77 15 -36 -37 -92 60 -127 -33
99 -127 47 105 91 -93 -97 -31
75 46 -69 32 127 8 -18 103
88 -4 50 -90 17 37 -127 8
72 -92 -85 -105 -105 -54 70 8
23 127 124 -4 43 -49 -29 -127
79 -7 92 -64 -127 30 -16 -25
00000000: eb47 7f1f 34ee 25d0 9537 7814 f937 7fe7
00000010: 9820 0cd1 2a23 2c3f 144a 7f81 1c77 2406
00000020: 1977 fa8a 7f98 58b8 0148 ce07 e4cf 0181
00000030: c752 e5c8 28ea 7ff2 3add bfd8 8346 e3da
00000040: 917f fafc 36bc 3938 afe0 c0f8 dc81 33d7
00000050: c81a 7f3d b91b d55c c48b cdbc e53f 7f1a
00000060: 5829 f504 3b42 2866 7f2a d316 d837 bdc0
00000070: 2256 f0b0 7fa7 9bc3 7f51 cde1 3310 fbcc
00000080: 89b1 d039 284a 7f8f 9d65 2240 5513 7fea
00000090: 3fc8 99f6 2c0c ee04 7f81 4037 0fb9 d63b
000000a0: d34e 3904 904e 0681 f6f9 dbee c949 fa7f
000000b0: b8dc 21c3 0806 bb56 de81 0ab9 dcf0 431b
000000c0: ff17 d1cb 8481 6ec5 4d0f dcdb a43c 81df
000000d0: 6381 2f69 5ba3 9fe1 4b2e bb20 7f08 ee67
000000e0: 58fc 32a6 1125 8108 48a4 ab97 97ca 4608
000000f0: 177f 7cfc 2bcf e381 4ff9 5cc0 811e f0e7
