neural_network/models/full_int_model.tflite (tflite, 14520 bytes, 4 tensors)

sequential/dense_1/MatMul i1 [6, 32] scale=0.012044022 zero_point=0
000000 db e2 fe ff 4c cb d6 9a 25 e7 f7 83 4d ac e5 37
       -0.44562882 -0.36132064 -0.024088044 -0.012044022 0.91534567 -0.63833314 -0.50584894 -1.2284902 0.44562882 -0.30110055 -0.108396195 -1.5055027 0.9273897 -1.0116979 -0.32518858 0.6624212
000010 ed e1 81 23 96 f5 ad c0 8c f5 0b a7 bc e8 c6 22
       -0.22883642 -0.3733647 -1.5295907 0.42154077 -1.2766663 -0.13248424 -0.9996538 -0.7708174 -1.3971065 -0.13248424 0.13248424 -1.0719179 -0.8189935 -0.28905654 -0.69855326 0.40949675
000020 13 c1 16 e4 ed 2c f1 1b 0f 13 f0 eb cb ec fc ea
       0.22883642 -0.7587734 0.26496848 -0.33723262 -0.22883642 0.52993697 -0.18066032 0.32518858 0.18066032 0.22883642 -0.19270435 -0.25292447 -0.63833314 -0.24088043 -0.048176087 -0.26496848
000030 f0 de 3f 01 e5 d4 09 21 3a e4 16 dd 0a e0 e3 ef
       -0.19270435 -0.40949675 0.7587734 0.012044022 -0.32518858 -0.52993697 0.108396195 0.3974527 0.69855326 -0.33723262 0.26496848 -0.42154077 0.120440215 -0.3854087 -0.34927663 -0.20474838
000040 21 ff 22 cc cf 15 16 03 b3 fb c8 d6 d9 df dd 15
       0.3974527 -0.012044022 0.40949675 -0.6262891 -0.5901571 0.25292447 0.26496848 0.036132067 -0.9273897 -0.060220107 -0.67446524 -0.50584894 -0.46971685 -0.3974527 -0.42154077 0.25292447
000050 e9 02 ec a9 35 be 2b f1 02 2a d2 18 23 09 28 f0
       -0.2770125 0.024088044 -0.24088043 -1.0478299 0.63833314 -0.7949054 0.51789296 -0.18066032 0.024088044 0.50584894 -0.554025 0.28905654 0.42154077 0.108396195 0.48176086 -0.19270435
000060 19 ef f7 f1 13 0b 1e ec f3 1c 1b 14 ef fe 29 b7
       0.30110055 -0.20474838 -0.108396195 -0.18066032 0.22883642 0.13248424 0.36132064 -0.24088043 -0.15657228 0.33723262 0.32518858 0.24088043 -0.20474838 -0.024088044 0.4938049 -0.8792136
000070 10 f1 11 fe f5 f7 f5 0f 00 ef 02 fb 1c 0e de 25
       0.19270435 -0.18066032 0.20474838 -0.024088044 -0.13248424 -0.108396195 -0.13248424 0.18066032 0.0 -0.20474838 0.024088044 -0.060220107 0.33723262 0.16861631 -0.40949675 0.44562882
000080 ca e5 22 de fa e6 d9 c5 f9 2c ef 32 d5 bb 2a 08
       -0.65037715 -0.32518858 0.40949675 -0.40949675 -0.072264135 -0.31314456 -0.46971685 -0.7105973 -0.084308155 0.52993697 -0.20474838 0.6022011 -0.51789296 -0.8310375 0.50584894 0.096352175
000090 27 42 f7 2c 1e dc 13 cb cb d5 cb 1e 14 ab 13 08
       0.46971685 0.7949054 -0.108396195 0.52993697 0.36132064 -0.43358478 0.22883642 -0.63833314 -0.63833314 -0.51789296 -0.63833314 0.36132064 0.24088043 -1.0237418 0.22883642 0.096352175
0000a0 d6 0e e0 ec ea 1f 29 ca 0a d5 e7 be e6 3d d7 05
       -0.50584894 0.16861631 -0.3854087 -0.24088043 -0.26496848 0.3733647 0.4938049 -0.65037715 0.120440215 -0.51789296 -0.30110055 -0.7949054 -0.31314456 0.73468536 -0.4938049 0.060220107
0000b0 12 fc f8 b9 1c 0c ce 0c f5 1a 20 0d fd 47 ed 0f
       0.21679239 -0.048176087 -0.096352175 -0.85512555 0.33723262 0.14452827 -0.6022011 0.14452827 -0.13248424 0.31314456 0.3854087 0.15657228 -0.036132067 0.85512555 -0.22883642 0.18066032

sequential/dense/MatMul i1 [32, 208] scale=0.015422714 zero_point=0
000000 05 fb 03 e4 16 fa 06 fc 2e 1d fa 0c 01 01 eb 14
       0.07711357 -0.07711357 0.046268143 -0.43183598 0.3392997 -0.092536286 0.092536286 -0.061690856 0.7094448 0.4472587 -0.092536286 0.18507257 0.015422714 0.015422714 -0.323877 0.30845428
000010 05 02 f9 18 13 fd fc f0 05 36 07 0f ee 0b df 21
       0.07711357 0.030845428 -0.107958995 0.37014514 0.29303157 -0.046268143 -0.061690856 -0.24676342 0.07711357 0.83282655 0.107958995 0.2313407 -0.27760884 0.16964985 -0.5089496 0.5089496
000020 f8 11 00 18 0b 03 04 f3 0e 15 ff 01 f9 1b dc 16
       -0.12338171 0.26218614 0.0 0.37014514 0.16964985 0.046268143 0.061690856 -0.20049529 0.21591799 0.323877 -0.015422714 0.015422714 -0.107958995 0.41641328 -0.5552177 0.3392997
000030 fa 12 16 02 06 f8 fd ed f9 02 f5 08 fb 27 d2 13
       -0.092536286 0.27760884 0.3392997 0.030845428 0.092536286 -0.12338171 -0.046268143 -0.29303157 -0.107958995 0.030845428 -0.16964985 0.12338171 -0.07711357 0.60148585 -0.7094448 0.29303157
000040 0c 0e 28 12 fb 01 04 ea ff e2 f9 11 f4 04 e2 04
       0.18507257 0.21591799 0.61690855 0.27760884 -0.07711357 0.015422714 0.061690856 -0.3392997 -0.015422714 -0.4626814 -0.107958995 0.26218614 -0.18507257 0.061690856 -0.4626814 0.061690856
000050 06 1c 1b 1b ef 01 08 ea 0f e3 12 ff 10 09 c9 fc
       0.092536286 0.43183598 0.41641328 0.41641328 -0.26218614 0.015422714 0.12338171 -0.3392997 0.2313407 -0.4472587 0.27760884 -0.015422714 0.24676342 0.13880442 -0.84824926 -0.061690856
000060 09 17 f5 15 00 f7 fe e5 12 c5 05 00 02 05 d0 f2
       0.13880442 0.3547224 -0.16964985 0.323877 0.0 -0.13880442 -0.030845428 -0.41641328 0.27760884 -0.9099401 0.07711357 0.0 0.030845428 0.07711357 -0.7402903 -0.21591799
000070 fc 1b fe 0f f6 f7 f8 d7 f4 d8 0d 01 f8 f3 e9 e0
       -0.061690856 0.41641328 -0.030845428 0.2313407 -0.15422714 -0.13880442 -0.12338171 -0.63233125 -0.18507257 -0.61690855 0.20049529 0.015422714 -0.12338171 -0.20049529 -0.3547224 -0.49352685
000080 fd 19 10 04 0a 01 0b f1 f4 de 09 e7 00 fb ee ed
       -0.046268143 0.38556784 0.24676342 0.061690856 0.15422714 0.015422714 0.16964985 -0.2313407 -0.18507257 -0.5243723 0.13880442 -0.38556784 0.0 -0.07711357 -0.27760884 -0.29303157
000090 08 12 0d f0 10 04 fb f7 df d9 f9 cc eb ff f5 f4
       0.12338171 0.27760884 0.20049529 -0.24676342 0.24676342 0.061690856 -0.07711357 -0.13880442 -0.5089496 -0.60148585 -0.107958995 -0.80198115 -0.323877 -0.015422714 -0.16964985 -0.18507257
0000a0 01 00 ec fc e3 f8 fa 10 e8 fc 03 de e9 f0 d3 f2
       0.015422714 0.0 -0.30845428 -0.061690856 -0.4472587 -0.12338171 -0.092536286 0.24676342 -0.37014514 -0.061690856 0.046268143 -0.5243723 -0.3547224 -0.24676342 -0.6940221 -0.21591799
0000b0 07 f8 05 de f0 08 fd f9 f2 ec f8 cc eb ed de 06
       0.107958995 -0.12338171 0.07711357 -0.5243723 -0.24676342 0.12338171 -0.046268143 -0.107958995 -0.21591799 -0.30845428 -0.12338171 -0.80198115 -0.323877 -0.29303157 -0.5243723 0.092536286
0000c0 0b eb 03 d4 f9 00 06 e5 05 e6 01 ce eb df d2 fa
       0.16964985 -0.323877 0.046268143 -0.6785994 -0.107958995 0.0 0.092536286 -0.41641328 0.07711357 -0.40099058 0.015422714 -0.7711357 -0.323877 -0.5089496 -0.7094448 -0.092536286
0000d0 07 49 0f fb 23 f9 08 f6 0a 0e 05 fb 02 f0 0e fa
       0.107958995 1.1258581 0.2313407 -0.07711357 0.539795 -0.107958995 0.12338171 -0.15422714 0.15422714 0.21591799 0.07711357 -0.07711357 0.030845428 -0.24676342 0.21591799 -0.092536286
0000e0 fd 2f fd 24 fb fb f9 e0 2e f6 2a f9 04 e4 00 df
       -0.046268143 0.7248676 -0.046268143 0.5552177 -0.07711357 -0.07711357 -0.107958995 -0.49352685 0.7094448 -0.15422714 0.647754 -0.107958995 0.061690856 -0.43183598 0.0 -0.5089496
0000f0 fe 11 ef 15 11 f6 ff d6 33 f4 02 f9 f5 ea 00 d7
       -0.030845428 0.26218614 -0.26218614 0.323877 0.26218614 -0.15422714 -0.015422714 -0.647754 0.7865584 -0.18507257 0.030845428 -0.107958995 -0.16964985 -0.3392997 0.0 -0.63233125

sequential/conv2d_1/Conv2D i1 [16, 3, 3, 16]
000000 21 13 e8 09 b8 bc 1a c4 f3 b2 93 01 b7 bc a3 17
       33 19 -24 9 -72 -68 26 -60 -13 -78 -109 1 -73 -68 -93 23
000010 09 08 c7 f1 32 be 2d b9 fb b1 ca a8 e8 11 27 c3
       9 8 -57 -15 50 -66 45 -71 -5 -79 -54 -88 -24 17 39 -61
000020 29 be 1e 07 be fe e1 ee 25 36 b4 29 f2 33 22 2a
       41 -66 30 7 -66 -2 -31 -18 37 54 -76 41 -14 51 34 42
000030 a3 c7 bc 37 29 0b 19 29 d9 1c fa df 19 07 02 00
       -93 -57 -68 55 41 11 25 41 -39 28 -6 -33 25 7 2 0
000040 81 ce 22 18 12 cc e5 d3 00 ba e8 2c b4 fc fa f1
       -127 -50 34 24 18 -52 -27 -45 0 -70 -24 44 -76 -4 -6 -15
000050 8b af 3f 31 b5 bc ac df 92 17 b3 0c d3 b1 a9 95
       -117 -81 63 49 -75 -68 -84 -33 -110 23 -77 12 -45 -79 -87 -107
000060 a4 db f9 a6 93 c2 bf af 05 b8 09 2a e5 0e e5 e8
       -92 -37 -7 -90 -109 -62 -65 -81 5 -72 9 42 -27 14 -27 -24
000070 d3 ce b5 01 f9 d6 aa ce 9f b9 de 11 db 26 9b f9
       -45 -50 -75 1 -7 -42 -86 -50 -97 -71 -34 17 -37 38 -101 -7
000080 aa d0 29 d8 27 b3 40 d5 d3 08 0e 3e cc df 22 e5
       -86 -48 41 -40 39 -77 64 -43 -45 8 14 62 -52 -33 34 -27
000090 02 0b 0c 2c e8 b9 e8 fc f0 f4 2e 0f 19 17 f2 e4
       2 11 12 44 -24 -71 -24 -4 -16 -12 46 15 25 23 -14 -28
0000a0 11 21 37 c9 19 37 e8 15 eb 05 21 f1 f0 e0 02 e2
       17 33 55 -55 25 55 -24 21 -21 5 33 -15 -16 -32 2 -30
0000b0 f7 1d 46 0c 06 c4 23 ce b5 50 ff 81 de 23 bf 18
       -9 29 70 12 6 -60 35 -50 -75 80 -1 -127 -34 35 -65 24
0000c0 fa fe fa 1c ed d3 18 ed 0f 04 de c1 0e 0d ed 09
       -6 -2 -6 28 -19 -45 24 -19 15 4 -34 -63 14 13 -19 9
0000d0 25 0c 08 f5 f6 4b e8 26 06 00 24 f1 eb 1d 16 c1
       37 12 8 -11 -10 75 -24 38 6 0 36 -15 -21 29 22 -63
0000e0 f3 0d 0e e1 f7 de 03 11 e7 13 0a a0 cd f6 11 20
       -13 13 14 -31 -9 -34 3 17 -25 19 10 -96 -51 -10 17 32
0000f0 f2 ce da 1e e2 e6 2e 04 19 12 ba a6 01 fd 06 2a
       -14 -50 -38 30 -30 -26 46 4 25 18 -70 -90 1 -3 6 42

sequential/conv2d/Relu;sequential/conv2d/BiasAdd;sequential/conv2d_1/Conv2D;sequential/conv2d/Conv2D;sequential/conv2d/BiasAdd/ReadVariableOp1 i1 [16, 3, 3, 1]
000000 98 cd 89 06 98 8b 7f 54 33 c1 d2 4e 29 96 3e 0b
       -104 -51 -119 6 -104 -117 127 84 51 -63 -46 78 41 -106 62 11
000010 f0 7f 28 22 7f 0f ce 5a 39 81 2e 7f 28 52 05 4b
       -16 127 40 34 127 15 -50 90 57 -127 46 127 40 82 5 75
000020 32 a9 4a 04 a4 08 f2 fe 54 32 7f 6c c4 98 37 1a
       50 -87 74 4 -92 8 -14 -2 84 50 127 108 -60 -104 55 26
000030 92 dc 9e 6c 96 81 02 64 5a 01 7f 1c c3 77 e6 24
       -110 -36 -98 108 -106 -127 2 100 90 1 127 28 -61 119 -26 36
000040 39 4a 3d 03 c9 17 8c 81 74 4f 52 ed e9 00 95 a9
       57 74 61 3 -55 23 -116 -127 116 79 82 -19 -23 0 -107 -87
000050 81 1a 75 81 fa 4e a3 c5 01 cf 24 d5 ff e0 81 24
       -127 26 117 -127 -6 78 -93 -59 1 -49 36 -43 -1 -32 -127 36
000060 e3 ad 25 2c be ae 0b 81 a9 a2 8d f7 21 c2 0a 0a
       -29 -83 37 44 -66 -82 11 -127 -87 -94 -115 -9 33 -62 10 10
000070 15 7f 57 70 7b 4b 3d 81 21 3c 83 ec 19 92 26 47
       21 127 87 112 123 75 61 -127 33 60 -125 -20 25 -110 38 71
000080 e3 17 ae e5 e6 81 b5 ed 4c 32 b6 22 51 ac 03 7f
       -29 23 -82 -27 -26 -127 -75 -19 76 50 -74 34 81 -84 3 127
