neural_network/models/full_int_model.tflite (tflite, 14216 bytes, 3 tensors)

sequential/dense/MatMul i1 [6, 704] scale=0.004082125 zero_point=0
000000 03 f4 e1 0c 13 13 fe 1e ee 29 da f8 2d 09 10 30
       0.012246376 -0.048985504 -0.12654588 0.048985504 0.07756038 0.07756038 -0.00816425 0.122463755 -0.07347825 0.16736713 -0.15512076 -0.032657 0.18369563 0.036739126 0.065314 0.19594201
000010 b9 09 54 60 97 e0 da 0b 7f d0 db e2 f3 ae 14 f2
       -0.2898309 0.036739126 0.34289852 0.39188403 -0.42862314 -0.130628 -0.15512076 0.044903375 0.5184299 -0.19594201 -0.15103863 -0.122463755 -0.05306763 -0.33473426 0.0816425 -0.057149753
000020 e2 e3 ae c8 c7 1b fb c6 54 e4 b7 0c bd 1a 2b 0a
       -0.122463755 -0.11838163 -0.33473426 -0.22859901 -0.23268114 0.11021738 -0.020410625 -0.23676325 0.34289852 -0.114299506 -0.29799515 0.048985504 -0.27350238 0.10613526 0.17553139 0.04082125
000030 af e4 b5 f2 c4 ef 41 0d e8 f5 94 58 e6 11 01 10
       -0.33065215 -0.114299506 -0.30615938 -0.057149753 -0.24492751 -0.06939613 0.26533812 0.05306763 -0.09797101 -0.044903375 -0.4408695 0.359227 -0.10613526 0.06939613 0.004082125 0.065314
000040 2a ff ed dc 03 e7 03 fd ef 05 fe de 02 fe f8 e4
       0.17144926 -0.004082125 -0.07756038 -0.1469565 0.012246376 -0.10205313 0.012246376 -0.012246376 -0.06939613 0.020410625 -0.00816425 -0.13879226 0.00816425 -0.00816425 -0.032657 -0.114299506
000050 e3 dd 5f 56 d5 ec b3 42 29 c2 be dc cd c2 0b f8
       -0.11838163 -0.14287437 0.3878019 0.35106277 -0.17553139 -0.0816425 -0.31432363 0.26942027 0.16736713 -0.25309175 -0.26942027 -0.1469565 -0.20818838 -0.25309175 0.044903375 -0.032657
000060 27 96 b0 fd bf 3b f6 d5 6d f2 e2 c7 d8 04 2b 23
       0.15920287 -0.43270525 -0.32657 -0.012246376 -0.26533812 0.24084538 -0.04082125 -0.17553139 0.44495165 -0.057149753 -0.122463755 -0.23268114 -0.163285 0.0163285 0.17553139 0.14287437
000070 db da b7 0b 0b 06 d2 02 fa 03 c9 2f 09 e4 07 ec
       -0.15103863 -0.15512076 -0.29799515 0.044903375 0.044903375 0.024492752 -0.18777776 0.00816425 -0.024492752 0.012246376 -0.22451688 0.19185989 0.036739126 -0.114299506 0.028574876 -0.0816425
000080 11 28 ed f3 09 14 f2 17 06 0e f7 f4 1d fb fd 0f
       0.06939613 0.163285 -0.07756038 -0.05306763 0.036739126 0.0816425 -0.057149753 0.09388888 0.024492752 0.057149753 -0.036739126 -0.048985504 0.11838163 -0.020410625 -0.012246376 0.061231878
000090 d3 c2 58 3a c9 ea bc 1f 2b df d6 ef c6 e1 0e e1
       -0.18369563 -0.25309175 0.359227 0.23676325 -0.22451688 -0.08980675 -0.27758452 0.12654588 0.17553139 -0.13471013 -0.17144926 -0.06939613 -0.23676325 -0.12654588 0.057149753 -0.12654588
0000a0 0f ce aa 17 d9 43 f7 df 2a ee d0 e3 b6 1e 16 36
       0.061231878 -0.20410626 -0.35106277 0.09388888 -0.15920287 0.27350238 -0.036739126 -0.13471013 0.17144926 -0.07347825 -0.19594201 -0.11838163 -0.30207726 0.122463755 0.08980675 0.22043476
0000b0 f1 0a f3 d9 eb f6 d6 f5 20 fc c5 52 01 f7 02 1e
       -0.061231878 0.04082125 -0.05306763 -0.15920287 -0.08572463 -0.04082125 -0.17144926 -0.044903375 0.130628 -0.0163285 -0.24084538 0.33473426 0.004082125 -0.036739126 0.00816425 0.122463755
0000c0 ea f1 fc 28 1e 15 21 fb ff 0d 0e db 23 ea d9 fd
       -0.08980675 -0.061231878 -0.0163285 0.163285 0.122463755 0.08572463 0.13471013 -0.020410625 -0.004082125 0.05306763 0.057149753 -0.15103863 0.14287437 -0.08980675 -0.15920287 -0.012246376
0000d0 a5 b5 55 21 ad e1 cd 0f 27 d1 c3 fb b6 e2 1c f1
       -0.3714734 -0.30615938 0.34698063 0.13471013 -0.33881637 -0.12654588 -0.20818838 0.061231878 0.15920287 -0.19185989 -0.24900964 -0.020410625 -0.30207726 -0.122463755 0.114299506 -0.061231878
0000e0 eb b2 b6 d2 12 19 f0 f3 3c df df f5 cb fa 28 ff
       -0.08572463 -0.31840575 -0.30207726 -0.18777776 0.07347825 0.10205313 -0.065314 -0.05306763 0.24492751 -0.13471013 -0.13471013 -0.044903375 -0.21635263 -0.024492752 0.163285 -0.004082125
0000f0 be 14 0d f2 cd 00 ee e0 02 f5 f6 10 dd b6 0f fa
       -0.26942027 0.0816425 0.05306763 -0.057149753 -0.20818838 0.0 -0.07347825 -0.130628 0.00816425 -0.044903375 -0.04082125 0.065314 -0.14287437 -0.30207726 0.061231878 -0.024492752

sequential/conv2d_1/Conv2D i1 [16, 3, 3, 32]
000000 ee dd cb 08 d9 09 1d 25 c0 03 f9 f8 f2 05 fb ec
       -18 -35 -53 8 -39 9 29 37 -64 3 -7 -8 -14 5 -5 -20
000010 eb 03 14 f0 18 d8 f8 22 c3 19 cb 0a 06 28 f0 09
       -21 3 20 -16 24 -40 -8 34 -61 25 -53 10 6 40 -16 9
000020 d8 02 d8 c1 d0 05 ca fa 2b 00 d8 68 3c e3 1b 3b
       -40 2 -40 -63 -48 5 -54 -6 43 0 -40 104 60 -29 27 59
000030 e2 d0 16 02 02 0b ce 0f 20 3a b7 ef de 1e de e7
       -30 -48 22 2 2 11 -50 15 32 58 -73 -17 -34 30 -34 -25
000040 f9 d6 b1 19 ca ee b6 7f b5 36 92 fa c6 21 b4 1f
       -7 -42 -79 25 -54 -18 -74 127 -75 54 -110 -6 -58 33 -76 31
000050 1d e1 10 d4 13 13 02 0e 31 df e8 03 18 0c d5 f2
       29 -31 16 -44 19 19 2 14 49 -33 -24 3 24 12 -43 -14
000060 29 24 10 2b fc 0d f6 33 eb f2 e3 d3 03 29 f9 fb
       41 36 16 43 -4 13 -10 51 -21 -14 -29 -45 3 41 -7 -5
000070 0c fd 22 0f 42 c7 dd f3 e2 0f e0 0a f2 26 14 12
       12 -3 34 15 66 -57 -35 -13 -30 15 -32 10 -14 38 20 18
000080 de ad ce 31 d0 99 d2 36 48 34 10 15 fc 24 10 45
       -34 -83 -50 49 -48 -103 -46 54 72 52 16 21 -4 36 16 69
000090 04 a3 2c b9 ea 3b 21 0d 28 04 f1 f4 cc c3 07 16
       4 -93 44 -71 -22 59 33 13 40 4 -15 -12 -52 -61 7 22
0000a0 f6 e0 de 1d f1 07 fc 22 9f 0a c9 88 e1 e7 02 3b
       -10 -32 -34 29 -15 7 -4 34 -97 10 -55 -120 -31 -25 2 59
0000b0 f8 c7 31 fc fa ef f3 20 c1 e8 f3 ec e7 cb 10 11
       -8 -57 49 -4 -6 -17 -13 32 -63 -24 -13 -20 -25 -53 16 17
0000c0 e1 00 d2 17 10 14 e9 cb 2e d3 e6 cc e7 bd 1d 21
       -31 0 -46 23 16 20 -23 -53 46 -45 -26 -52 -25 -67 29 33
0000d0 14 a6 e1 0f fa 2c 2d 07 29 15 eb 19 17 0f f9 f1
       20 -90 -31 15 -6 44 45 7 41 21 -21 25 23 15 -7 -15
0000e0 af af a6 3d 1c a1 41 0d 17 29 f6 b3 84 12 a2 17
       -81 -81 -90 61 28 -95 65 13 23 41 -10 -77 -124 18 -94 23
0000f0 23 a2 cd c7 b7 34 40 18 af d1 fc e8 e2 fe 03 00
       35 -94 -51 -57 -73 52 64 24 -81 -47 -4 -24 -30 -2 3 0

sequential/conv2d/Conv2D i1 [32, 3, 3, 1]
000000 d6 10 bf 02 7f a6 da 41 86 3c 6e 39 89 5d 7f 9c
       -42 16 -65 2 127 -90 -38 65 -122 60 110 57 -119 93 127 -100
000010 0f bc 16 bb 32 e4 a9 10 da 7f 38 37 04 a0 04 fb
       15 -68 22 -69 50 -28 -87 16 -38 127 56 55 4 -96 4 -5
000020 81 e6 e0 8a 3f 86 8a 29 aa 10 ac 18 7f 23 fd 36
       -127 -26 -32 -118 63 -122 -118 41 -86 16 -84 24 127 35 -3 54
000030 b0 3f cd c1 7f a0 cb da 11 b6 81 c0 e5 11 94 62
       -80 63 -51 -63 127 -96 -53 -38 17 -74 -127 -64 -27 17 -108 98
000040 dd 84 5b 70 c9 83 7f 2b b2 c7 7f 45 a6 6a 15 e7
       -35 -124 91 112 -55 -125 127 43 -78 -57 127 69 -90 106 21 -25
000050 99 50 c2 46 0c 14 ea c4 4d 81 b6 fa 13 dc d0 33
       -103 80 -62 70 12 20 -22 -60 77 -127 -74 -6 19 -36 -48 51
000060 81 9f 22 fe bc 5d b8 1a d2 7f 56 3a cc ed 29 c3
       -127 -97 34 -2 -68 93 -72 26 -46 127 86 58 -52 -19 41 -61
000070 08 50 4c 7f 18 3c 7f fc 1b 48 ff 3f 42 20 79 73
       8 80 76 127 24 60 127 -4 27 72 -1 63 66 32 121 115
000080 11 c8 fc 2b 94 81 6f 21 ee 61 3d e4 f8 1b 22 81
       17 -56 -4 43 -108 -127 111 33 -18 97 61 -28 -8 27 34 -127
000090 14 7f 8c 2e b5 9b af c5 7d c9 86 07 81 0b fa 72
       20 127 -116 46 -75 -101 -81 -59 125 -55 -122 7 -127 11 -6 114
0000a0 7f 1b 39 66 b7 14 16 06 a7 97 7f a7 48 81 f0 2a
       127 27 57 102 -73 20 22 6 -89 -105 127 -89 72 -127 -16 42
0000b0 26 e9 0c 6b 46 5a 2b d2 06 6f 0b d5 7f 3e 20 e6
       38 -23 12 107 70 90 43 -46 6 111 11 -43 127 62 32 -26
0000c0 76 1b 81 76 ab b4 7d fe 56 1e ea 94 18 81 b5 4d
       118 27 -127 118 -85 -76 125 -2 86 30 -22 -108 24 -127 -75 77
0000d0 7f f1 27 62 ee bb f9 36 81 3a 1b 32 de f2 61 b6
       127 -15 39 98 -18 -69 -7 54 -127 58 27 50 -34 -14 97 -74
0000e0 fa 0e 58 7f fd 08 39 1e d7 32 6c 29 69 ff f6 f4
       -6 14 88 127 -3 8 57 30 -41 50 108 41 105 -1 -10 -12
0000f0 a6 a3 81 0b 4c 7f 25 4d 50 08 fb d6 ca 85 4b 35
       -90 -93 -127 11 76 127 37 77 80 8 -5 -42 -54 -123 75 53
