neural_network/models/full_int_model.tflite (tflite, 14864 bytes, 4 tensors)

sequential/dense_1/MatMul i1 [6, 32] scale=0.01713636 zero_point=0
-1.0281816 0.42840898 -0.47981808 -1.4051815 -0.01713636 0.44554535 -0.35986355 -0.8910907
-2.107772 -1.1824088 -0.94249976 0.9253634 0.20563632 -1.3366361 -1.5765451 0.35986355
0.22277267 -0.35986355 -1.4394542 -0.87395436 0.03427272 -1.3537724 -0.94249976 -2.1763177
1.6108178 0.34272718 -0.68545437 -0.5483635 0.7197271 -1.096727 -0.8054089 -1.7821814
-0.49695444 -0.42840898 -0.61690897 -0.29131812 -0.49695444 -0.44554535 -0.17136359 -0.13709088
0.56549984 -0.13709088 0.4626817 -0.47981808 -0.23990904 0.41127264 0.22277267 -0.56549984
-0.10281816 0.5312272 -0.30845448 0.29131812 -0.03427272 -1.1138633 0.15422724 -0.5997726
0.11995452 -0.01713636 0.13709088 -0.23990904 -0.30845448 -0.65118164 0.29131812 0.15422724
-0.7197271 -0.05140908 -0.6340453 -0.18849996 0.13709088 -0.13709088 0.30845448 0.22277267
-0.01713636 -0.03427272 -0.42840898 -0.3769999 0.22277267 0.27418175 -0.9939089 -0.18849996
0.03427272 -0.22277267 0.39413628 -0.27418175 -0.4626817 -0.5483635 0.23990904 0.03427272
-0.8910907 0.05140908 0.29131812 -0.41127264 -0.085681796 -0.39413628 0.39413628 0.44554535
0.085681796 -0.47981808 0.49695444 -0.01713636 -0.15422724 0.2570454 0.11995452 -0.11995452
0.01713636 0.27418175 -0.4626817 -0.32559082 0.29131812 -0.01713636 -0.11995452 0.11995452
-0.03427272 -0.01713636 0.03427272 0.085681796 0.29131812 0.085681796 0.0 -0.42840898
-0.2570454 0.41127264 -0.9082271 0.10281816 -0.94249976 0.085681796 -0.6340453 0.085681796
0.35986355 0.41127264 -0.6340453 -0.03427272 -0.8225453 -0.17136359 -0.70259076 0.32559082
-0.5312272 0.22277267 -0.6340453 0.03427272 -0.3769999 -0.5483635 -0.18849996 0.03427272
0.49695444 -0.65118164 -0.03427272 -0.22277267 0.30845448 -0.49695444 -0.18849996 0.5483635
-0.94249976 -0.01713636 -0.78827256 0.2570454 -0.34272718 0.65118164 0.03427272 0.3769999
-1.3366361 -0.9767725 -0.11995452 0.35986355 0.7197271 -0.68545437 -0.17136359 0.78827256
-0.03427272 -0.03427272 0.2570454 0.42840898 0.2570454 -0.8396816 -0.39413628 0.5140908
-0.66831803 0.6340453 0.42840898 0.11995452 -0.47981808 0.58263624 -0.6340453 0.10281816
0.56549984 0.18849996 0.085681796 -0.78827256 -0.8910907 -0.8225453 -0.78827256 0.05140908
00000000: c419 e4ae ff1a ebcc 85bb c936 0cb2 a415
00000010: 0deb accd 02b1 c981 5e14 d8e0 2ac0 d198
00000020: e3e7 dcef e3e6 f6f8 21f8 1be4 f218 0ddf
00000030: fa1f ee11 febf 09dd 07ff 08f2 eeda 1109
00000040: d6fd dbf5 08f8 120d fffe e7ea 0d10 c6f5
00000050: 02f3 17f0 e5e0 0e02 cc03 11e8 fbe9 171a
00000060: 05e4 1dff f70f 07f9 0110 e5ed 11ff f907
00000070: feff 0205 1105 00e7 f118 cb06 c905 db05
00000080: 1518 dbfe d0f6 d713 e10d db02 eae0 f502
00000090: 1dda fef3 12e3 f520 c9ff d20f ec26 0216
000000a0: b2c7 f915 2ad8 f62e fefe 0f19 0fcf e91e
000000b0: d925 1907 e422 db06 210b 05d2 ccd0 d203

sequential/dense/MatMul i1 [32, 208] scale=0.02132247 zero_point=0
0.04264494 -0.95951116 -0.12793481 -0.23454717 -0.21322471 -0.49041682 -0.44777188 0.42644942
0.12793481 0.06396741 -0.46909434 0.27719212 -0.06396741 -0.14925729 -0.44777188 -0.51173925
-0.14925729 -1.1087685 0.04264494 -0.34115952 -1.0661235 0.08528988 -0.55438423 -0.85289884
0.31983706 0.08528988 -0.78893137 -0.08528988 -0.04264494 -0.85289884 -0.42644942 -0.12793481
0.02132247 -1.0021561 -0.12793481 -0.85289884 -0.29851457 -0.25586963 -0.12793481 -0.78893137
0.21322471 -0.36248198 0.06396741 0.44777188 -0.25586963 -0.98083365 -0.51173925 -0.72496396
0.106612355 -0.98083365 0.08528988 -0.81025386 -0.59702915 -0.34115952 -1.1514134 -0.49041682
0.12793481 0.106612355 -0.19190224 0.21322471 -0.14925729 -0.87422127 -0.59702915 0.36248198
-0.14925729 -0.78893137 -0.12793481 -0.78893137 -0.04264494 -0.44777188 0.06396741 -0.04264494
0.0 -0.23454717 -0.17057976 -0.12793481 -0.25586963 -0.38380447 -1.044801 -0.42644942
-0.12793481 0.06396741 -0.106612355 -0.70364153 0.27719212 -1.3859606 0.51173925 -0.25586963
0.08528988 0.04264494 -0.29851457 0.42644942 -0.14925729 -1.4286056 -0.49041682 -0.34115952
0.08528988 0.36248198 0.02132247 0.14925729 0.38380447 -0.78893137 -0.02132247 -0.59702915
0.08528988 0.9381887 -2.0682795 1.0234785 -0.23454717 -0.23454717 -0.31983706 -0.04264494
0.0 0.34115952 0.04264494 -0.25586963 0.25586963 -1.72712 0.106612355 -0.42644942
0.04264494 -0.29851457 -1.0661235 -0.14925729 -0.17057976 -0.70364153 0.23454717 -0.29851457
0.08528988 -0.44777188 -0.17057976 0.49041682 0.31983706 -0.68231905 -0.34115952 -0.6396741
0.06396741 -0.17057976 -0.23454717 -0.23454717 -0.27719212 -0.85289884 0.106612355 0.17057976
0.106612355 0.6396741 0.106612355 0.14925729 -0.40512693 -0.61835164 0.0 -0.17057976
0.02132247 0.44777188 -1.2153808 -1.1940583 -0.31983706 -0.12793481 0.38380447 -0.29851457
0.08528988 0.51173925 -0.08528988 0.34115952 -0.87422127 -0.106612355 -0.61835164 0.81025386
0.06396741 0.21322471 -1.044801 -1.1727358 -0.31983706 -0.34115952 -1.769765 -0.89554375
-0.12793481 0.46909434 -0.04264494 0.21322471 -0.70364153 0.21322471 0.42644942 0.68231905
0.17057976 0.23454717 0.02132247 -1.4925729 -0.12793481 0.17057976 -0.04264494 0.68231905
-0.02132247 0.36248198 -0.02132247 0.29851457 -0.06396741 0.31983706 0.83157635 0.14925729
0.19190224 0.27719212 0.23454717 -0.23454717 -0.36248198 -0.72496396 0.12793481 0.6396741
-0.06396741 -0.17057976 0.06396741 0.44777188 0.40512693 -0.12793481 0.42644942 0.44777188
0.08528988 0.21322471 0.72496396 -0.38380447 -0.27719212 -1.4925729 0.36248198 -0.27719212
-0.04264494 -0.55438423 -0.23454717 0.51173925 -0.06396741 -0.51173925 -0.76760894 1.5565404
0.0 0.78893137 0.5757067 -0.23454717 -0.08528988 -0.70364153 0.27719212 -0.61835164
-0.02132247 -0.12793481 0.02132247 -0.74628645 -0.19190224 0.08528988 -0.44777188 0.91686624
-0.06396741 0.72496396 -1.3433156 -0.61835164 -0.27719212 -1.6844752 -1.1087685 -0.51173925
00000000: 02d3 faf5 f6e9 eb14 0603 ea0d fdf9 ebe8
00000010: f9cc 02f0 ce04 e6d8 0f04 dbfc fed8 ecfa
00000020: 01d1 fad8 f2f4 fadb 0aef 0315 f4d2 e8de
00000030: 05d2 04da e4f0 cae9 0605 f70a f9d7 e411
00000040: f9db fadb feeb 03fe 00f5 f8fa f4ee cfec
00000050: fa03 fbdf 0dbf 18f4 0402 f214 f9bd e9f0
00000060: 0411 0107 12db ffe4 042c 9f30 f5f5 f1fe
00000070: 0010 02f4 0caf 05ec 02f2 cef9 f8df 0bf2
00000080: 04eb f817 0fe0 f0e2 03f8 f5f5 f3d8 0508
00000090: 051e 0507 ede3 00f8 0115 c7c8 f1fa 12f2
000000a0: 0418 fc10 d7fb e326 030a cfc9 f1f0 add6
000000b0: fa16 fe0a df0a 1420 080b 01ba fa08 fe20
000000c0: ff11 ff0e fd0f 2707 090d 0bf5 efde 061e
000000d0: fdf8 0315 13fa 1415 040a 22ee f3ba 11f3
000000e0: fee6 f518 fde8 dc49 0025 1bf5 fcdf 0de3
000000f0: fffa 01dd f704 eb2b fd22 c1e3 f3b1 cce8

sequential/conv2d_1/Conv2D i1 [16, 3, 3, 16]
-77 -48 0 5 8 -10 -47 -10
15 -49 18 -34 -59 33 -54 10
-41 -43 -8 -37 -37 -14 -66 -43
-31 2 -9 4 -17 -8 -23 24
-76 -73 -28 -39 9 -52 11 -39
34 18 10 13 -58 -38 21 28
-42 -6 -73 22 7 -30 46 0
-127 2 -4 -23 49 -37 22 -98
-39 -21 44 -73 -44 -83 -11 -21
-26 -79 -43 -55 -60 -44 -69 25
3 -55 12 4 -66 -58 -23 -42
1 9 -26 25 -16 3 33 -23
-78 -25 -105 -45 2 -62 -58 2
-10 -12 -65 -13 -85 1 -77 -88
17 -23 24 -17 -36 -66 -65 -59
-16 -84 1 26 33 -3 -38 -68
38 -94 -67 19 -13 19 5 37
-71 -3 -67 -41 -89 27 13 -48
33 1 -11 -25 -22 -13 0 -19
-3 8 -75 3 -9 45 -68 0
28 56 -4 -17 13 -38 -27 -29
-45 19 27 4 -19 0 -127 -1
28 -13 10 5 14 -15 -79 -4
62 -2 8 2 -36 -21 27 10
21 -18 5 -48 -21 -19 34 -20
-8 -5 -34 -32 -1 44 -26 -15
57 44 -6 -48 -2 16 0 -16
-36 -5 8 17 16 10 -99 -14
8 3 4 -20 -31 -14 -11 20
42 -32 2 -14 -32 -37 19 -4
25 -66 -7 -43 -16 -15 -8 17
0 11 6 -56 29 17 1 35
00000000: b3d0 0005 08f6 d1f6 0fcf 12de c521 ca0a
00000010: d7d5 f8db dbf2 bed5 e102 f704 eff8 e918
00000020: b4b7 e4d9 09cc 0bd9 2212 0a0d c6da 151c
00000030: d6fa b716 07e2 2e00 8102 fce9 31db 169e
00000040: d9eb 2cb7 d4ad f5eb e6b1 d5c9 c4d4 bb19
00000050: 03c9 0c04 bec6 e9d6 0109 e619 f003 21e9
00000060: b2e7 97d3 02c2 c602 f6f4 bff3 ab01 b3a8
00000070: 11e9 18ef dcbe bfc5 f0ac 011a 21fd dabc
00000080: 26a2 bd13 f313 0525 b9fd bdd7 a71b 0dd0
00000090: 2101 f5e7 eaf3 00ed fd08 b503 f72d bc00
000000a0: 1c38 fcef 0dda e5e3 d313 1b04 ed00 81ff
000000b0: 1cf3 0a05 0ef1 b1fc 3efe 0802 dceb 1b0a
000000c0: 15ee 05d0 ebed 22ec f8fb dee0 ff2c e6f1
000000d0: 392c fad0 fe10 00f0 dcfb 0811 100a 9df2
000000e0: 0803 04ec e1f2 f514 2ae0 02f2 e0db 13fc
000000f0: 19be f9d5 f0f1 f811 000b 06c8 1d11 0123

sequential/conv2d/Relu;sequential/conv2d/BiasAdd;sequential/conv2d_1/Conv2D;sequential/conv2d/Conv2D;sequential/conv2d/BiasAdd/ReadVariableOp1 i1 [16, 3, 3, 1]
36 -11 49 -5 -31 91 20 -78
127 16 23 38 18 -46 30 3
-127 -96 33 29 -127 5 64 -10
-21 -7 73 110 15 -31 -8 28
63 -127 -77 -52 -76 64 -3 -19
117 127 19 98 11 -40 -35 -34
-61 -79 -127 47 -20 -11 88 127
87 -8 44 -40 -79 -73 -122 -65
50 25 -6 49 1 83 41 -127
29 -38 -10 12 44 -127 12 30
-121 41 112 50 -13 127 28 -11
77 -35 127 -8 43 28 60 -42
2 47 -118 41 51 113 -47 -112
-127 21 5 -64 -127 -104 -38 4
-42 -31 87 98 109 -16 -121 4
15 -109 16 -54 -127 121 -44 75
-13 21 -14 -35 -56 8 -127 -24
-35 64 -1 32 127 39 94 71
00000000: 24f5 31fb e15b 14b2 7f10 1726 12d2 1e03
00000010: 81a0 211d 8105 40f6 ebf9 496e 0fe1 f81c
00000020: 3f81 b3cc b440 fded 757f 1362 0bd8 ddde
00000030: c3b1 812f ecf5 587f 57f8 2cd8 b1b7 86bf
00000040: 3219 fa31 0153 2981 1dda f60c 2c81 0c1e
00000050: 8729 7032 f37f 1cf5 4ddd 7ff8 2b1c 3cd6
00000060: 022f 8a29 3371 d190 8115 05c0 8198 da04
00000070: d6e1 5762 6df0 8704 0f93 10ca 8179 d44b
00000080: f315 f2dd c808 81e8 dd40 ff20 7f27 5e47
