neural_network/models/model.tflite (tflite, 943944 bytes, 4 tensors)

sequential_3/dense_7/MatMul i1 [6, 128] scale=0.009709867 zero_point=0
000000 02 fb cf c6 08 ff ac 14 20 ef da b7 e1 bb cc a4
       0.019419733 -0.04854933 -0.47578347 -0.5631723 0.077678934 -0.009709867 -0.8156288 0.19419733 0.31071573 -0.16506773 -0.36897492 -0.7088203 -0.30100587 -0.6699808 -0.5049131 -0.89330775
000010 f4 ee f0 f8 db a9 cc ee f7 be ce 91 fb bd e4 81
       -0.1165184 -0.1747776 -0.15535787 -0.077678934 -0.35926506 -0.8447584 -0.5049131 -0.1747776 -0.0873888 -0.6408512 -0.48549333 -1.0777951 -0.04854933 -0.6505611 -0.27187628 -1.2331531
000020 e8 ef e3 a8 ec 32 fa 00 bb 14 ef 95 d7 19 2b f4
       -0.2330368 -0.16506773 -0.28158614 -0.8544683 -0.19419733 0.48549333 -0.0582592 0.0 -0.6699808 0.19419733 -0.16506773 -1.0389557 -0.39810455 0.24274667 0.41752428 -0.1165184
000030 c3 f4 0d f6 ce b5 f7 d8 02 be bb 9e e0 3a db cd
       -0.59230185 -0.1165184 0.12622827 -0.09709866 -0.48549333 -0.72824 -0.0873888 -0.38839465 0.019419733 -0.6408512 -0.6699808 -0.95156693 -0.31071573 0.5631723 -0.35926506 -0.4952032
000040 a2 08 12 b7 1f 9e 0a 86 fc 0d 15 fb e7 08 f0 00
       -0.9127275 0.077678934 0.1747776 -0.7088203 0.30100587 -0.95156693 0.09709866 -1.1846037 -0.038839467 0.12622827 0.2039072 -0.04854933 -0.24274667 0.077678934 -0.15535787 0.0
000050 e4 02 03 0c f1 bf a4 f1 0b b8 b3 fc f9 22 da 01
       -0.27187628 0.019419733 0.0291296 0.1165184 -0.145648 -0.63114136 -0.89330775 -0.145648 0.106808536 -0.6991104 -0.74765974 -0.038839467 -0.06796907 0.33013546 -0.36897492 0.009709867
000060 e7 df b8 38 43 ca e3 16 c8 e6 15 04 cb 10 b1 0b
       -0.24274667 -0.3204256 -0.6991104 0.54375255 0.6505611 -0.5243328 -0.28158614 0.21361707 -0.54375255 -0.25245655 0.2039072 0.038839467 -0.5146229 0.15535787 -0.7670795 0.106808536
000070 16 f7 d7 de cd 0a 09 2e 10 10 be ba c0 f2 e8 0b
       0.21361707 -0.0873888 -0.39810455 -0.33013546 -0.4952032 0.09709866 0.0873888 0.44665387 0.15535787 0.15535787 -0.6408512 -0.67969066 -0.62143147 -0.13593814 -0.2330368 0.106808536
000080 12 f0 f9 13 f3 08 10 e3 f2 04 e5 01 ff f4 f9 0f
       0.1747776 -0.15535787 -0.06796907 0.18448746 -0.12622827 0.077678934 0.15535787 -0.28158614 -0.13593814 0.038839467 -0.2621664 0.009709867 -0.009709867 -0.1165184 -0.06796907 0.145648
000090 02 ef f3 de f8 0f 12 f4 fa 14 ed 1d ef e6 da 14
       0.019419733 -0.16506773 -0.12622827 -0.33013546 -0.077678934 0.145648 0.1747776 -0.1165184 -0.0582592 0.19419733 -0.18448746 0.28158614 -0.16506773 -0.25245655 -0.36897492 0.19419733
0000a0 f2 f0 d4 15 fc 0b f2 fe f3 ef 0d 1d fa e8 e5 e7
       -0.13593814 -0.15535787 -0.42723414 0.2039072 -0.038839467 0.106808536 -0.13593814 -0.019419733 -0.12622827 -0.16506773 0.12622827 0.28158614 -0.0582592 -0.2330368 -0.2621664 -0.24274667
0000b0 0a f3 05 08 f8 eb ab f7 df ec 1e fa 06 c2 06 0a
       0.09709866 -0.12622827 0.04854933 0.077678934 -0.077678934 -0.2039072 -0.82533866 -0.0873888 -0.3204256 -0.19419733 0.291296 -0.0582592 0.0582592 -0.60201174 0.0582592 0.09709866
0000c0 04 fb f7 0f e0 10 08 14 f9 0e 1e 0a 18 ed f9 f2
       0.038839467 -0.04854933 -0.0873888 0.145648 -0.31071573 0.15535787 0.077678934 0.19419733 -0.06796907 0.13593814 0.291296 0.09709866 0.2330368 -0.18448746 -0.06796907 -0.13593814
0000d0 e6 d4 e2 d8 f3 15 e2 fc e9 eb fd 0a f8 cc f2 ef
       -0.25245655 -0.42723414 -0.291296 -0.38839465 -0.12622827 0.2039072 -0.291296 -0.038839467 -0.22332694 -0.2039072 -0.0291296 0.09709866 -0.077678934 -0.5049131 -0.13593814 -0.16506773
0000e0 c3 fc 1a c7 d6 ee f3 d5 03 ef df f1 fa e0 12 00
       -0.59230185 -0.038839467 0.25245655 -0.5534624 -0.4078144 -0.1747776 -0.12622827 -0.41752428 0.0291296 -0.16506773 -0.3204256 -0.145648 -0.0582592 -0.31071573 0.1747776 0.0
0000f0 f6 e7 04 19 11 f8 f9 03 cd 0e d9 f8 f1 f9 ee d4
       -0.09709866 -0.24274667 0.038839467 0.24274667 0.16506773 -0.077678934 -0.06796907 0.0291296 -0.4952032 0.13593814 -0.3786848 -0.077678934 -0.145648 -0.06796907 -0.1747776 -0.42723414

sequential_3/dense_6/MatMul i1 [128, 7168] scale=0.02486353 zero_point=0
000000 31 f8 19 11 04 05 05 00 01 09 01 e4 fa 00 f7 00
       1.218313 -0.19890824 0.62158823 0.42268002 0.09945412 0.124317646 0.124317646 0.0 0.02486353 0.22377177 0.02486353 -0.69617885 -0.14918119 0.0 -0.22377177 0.0
000010 f5 00 05 fe 01 fe 00 02 ff 09 fa 01 02 05 ff 00
       -0.27349883 0.0 0.124317646 -0.04972706 0.02486353 -0.04972706 0.0 0.04972706 -0.02486353 0.22377177 -0.14918119 0.02486353 0.04972706 0.124317646 -0.02486353 0.0
000020 ff 01 08 01 01 fe ed 09 de fd e7 fc fe 00 ff 01
       -0.02486353 0.02486353 0.19890824 0.02486353 0.02486353 -0.04972706 -0.47240707 0.22377177 -0.84536004 -0.07459059 -0.62158823 -0.09945412 -0.04972706 0.0 -0.02486353 0.02486353
000030 fe 00 0a ff 00 ff 04 d7 04 02 fb 03 e8 ff 01 0a
       -0.04972706 0.0 0.24863529 -0.02486353 0.0 -0.02486353 0.09945412 -1.0194048 0.09945412 0.04972706 -0.124317646 0.07459059 -0.59672475 -0.02486353 0.02486353 0.24863529
000040 03 ec e0 f8 01 02 f7 05 00 02 ff dd f9 02 fa 00
       0.07459059 -0.49727058 -0.79563296 -0.19890824 0.02486353 0.04972706 -0.22377177 0.124317646 0.0 0.04972706 -0.02486353 -0.8702235 -0.17404471 0.04972706 -0.14918119 0.0
000050 b6 02 02 ff 00 ff 00 01 00 02 0e ff 01 fc 02 1e
       -1.8399012 0.04972706 0.04972706 -0.02486353 0.0 -0.02486353 0.0 0.02486353 0.0 0.04972706 0.34808943 -0.02486353 0.02486353 -0.09945412 0.04972706 0.7459059
000060 01 01 15 01 02 00 f3 01 f1 10 20 f6 fb 00 fd 07
       0.02486353 0.02486353 0.5221341 0.02486353 0.04972706 0.0 -0.3232259 0.02486353 -0.37295294 0.39781648 0.79563296 -0.24863529 -0.124317646 0.0 -0.07459059 0.17404471
000070 01 00 00 03 07 fe fb e1 02 00 f8 01 fa ff 02 10
       0.02486353 0.0 0.0 0.07459059 0.17404471 -0.04972706 -0.124317646 -0.7707694 0.04972706 0.0 -0.19890824 0.02486353 -0.14918119 -0.02486353 0.04972706 0.39781648
000080 f3 07 e9 d4 03 fb fc 00 02 00 01 bf fc 00 fc 05
       -0.3232259 0.17404471 -0.5718612 -1.0939953 0.07459059 -0.124317646 -0.09945412 0.0 0.04972706 0.0 0.02486353 -1.6161294 -0.09945412 0.0 -0.09945412 0.124317646
000090 0b 00 01 ff 00 00 01 01 03 01 01 01 01 00 02 07
       0.27349883 0.0 0.02486353 -0.02486353 0.0 0.0 0.02486353 0.02486353 0.07459059 0.02486353 0.02486353 0.02486353 0.02486353 0.0 0.04972706 0.17404471
0000a0 00 02 e8 02 03 fe fc 02 04 f3 e8 e9 00 02 00 ff
       0.0 0.04972706 -0.59672475 0.04972706 0.07459059 -0.04972706 -0.09945412 0.04972706 0.09945412 -0.3232259 -0.59672475 -0.5718612 0.0 0.04972706 0.0 -0.02486353
0000b0 ff 00 02 ff 00 02 09 d1 00 00 00 00 fd ff fb 14
       -0.02486353 0.0 0.04972706 -0.02486353 0.0 0.04972706 0.22377177 -1.1685859 0.0 0.0 0.0 0.0 -0.07459059 -0.02486353 -0.124317646 0.49727058
0000c0 10 0d fa fe 05 ff 00 01 02 02 01 0d fe 00 04 07
       0.39781648 0.3232259 -0.14918119 -0.04972706 0.124317646 -0.02486353 0.0 0.02486353 0.04972706 0.04972706 0.02486353 0.3232259 -0.04972706 0.0 0.09945412 0.17404471
0000d0 10 00 01 ff 00 00 00 01 fe 01 f8 00 00 07 01 fe
       0.39781648 0.0 0.02486353 -0.02486353 0.0 0.0 0.0 0.02486353 -0.04972706 0.02486353 -0.19890824 0.0 0.0 0.17404471 0.02486353 -0.04972706
0000e0 01 03 22 01 02 fd e3 06 ff e6 0d ed 02 ff fe 01
       0.02486353 0.07459059 0.84536004 0.02486353 0.04972706 -0.07459059 -0.7210424 0.14918119 -0.02486353 -0.6464518 0.3232259 -0.47240707 0.04972706 -0.02486353 -0.04972706 0.02486353
0000f0 01 02 02 01 fe 00 09 04 01 00 02 00 20 00 02 0f
       0.02486353 0.04972706 0.04972706 0.02486353 -0.04972706 0.0 0.22377177 0.09945412 0.02486353 0.0 0.04972706 0.0 0.79563296 0.0 0.04972706 0.37295294

sequential_3/conv2d_7/Conv2D i1 [64, 3, 3, 32]
000000 fd fd 01 ff 0b 0b 11 09 e5 fb f6 04 e1 fb 09 ff
       -3 -3 1 -1 11 11 17 9 -27 -5 -10 4 -31 -5 9 -1
000010 e5 cb f5 c4 ea 06 04 db 0e 07 07 23 d6 06 0c 13
       -27 -53 -11 -60 -22 6 4 -37 14 7 7 35 -42 6 12 19
000020 f6 fe 07 f2 f2 00 bb 0f cd 08 00 e8 c7 f7 10 f0
       -10 -2 7 -14 -14 0 -69 15 -51 8 0 -24 -57 -9 16 -16
000030 f3 e8 01 de 1d 0d 08 44 fb fd fe 10 00 f4 11 08
       -13 -24 1 -34 29 13 8 68 -5 -3 -2 16 0 -12 17 8
000040 fe ff fa 04 f8 0a 00 f6 da f1 fb f1 e2 97 d5 ec
       -2 -1 -6 4 -8 10 0 -10 -38 -15 -5 -15 -30 -105 -43 -20
000050 f7 ed d9 09 3d 01 ff fc fe d9 f4 f5 fe 03 d6 12
       -9 -19 -39 9 61 1 -1 -4 -2 -39 -12 -11 -2 3 -42 18
000060 f9 f6 ff ee e2 05 02 0d d7 11 fc 02 db 0a 0b fd
       -7 -10 -1 -18 -30 5 2 13 -41 17 -4 2 -37 10 11 -3
000070 d8 f5 ed cd fa 21 07 e1 05 04 01 08 d4 13 14 fe
       -40 -11 -19 -51 -6 33 7 -31 5 4 1 8 -44 19 20 -2
000080 f8 fd 06 df f7 0e ac 0a fa e6 fa fb c5 01 18 06
       -8 -3 6 -33 -9 14 -84 10 -6 -26 -6 -5 -59 1 24 6
000090 f0 ed 16 a2 cb 0c fd 27 fa 0c 02 e5 01 f6 1b b7
       -16 -19 22 -94 -53 12 -3 39 -6 12 2 -27 1 -10 27 -73
0000a0 01 fe 07 fd f1 ff f9 f6 af 04 ff e3 e3 a5 fd f2
       1 -2 7 -3 -15 -1 -7 -10 -81 4 -1 -29 -29 -91 -3 -14
0000b0 fc f4 e7 10 df f6 ff f3 16 e2 fa 00 fa e5 f8 ff
       -4 -12 -25 16 -33 -10 -1 -13 22 -30 -6 0 -6 -27 -8 -1
0000c0 00 fe 05 f4 f6 03 fa 04 e6 eb fc ef f9 1a 07 f4
       0 -2 5 -12 -10 3 -6 4 -26 -21 -4 -17 -7 26 7 -12
0000d0 f0 f3 f0 b1 00 e9 00 d1 f6 0b ff e1 08 ea e7 f3
       -16 -13 -16 -79 0 -23 0 -47 -10 11 -1 -31 8 -22 -25 -13
0000e0 fe fb 03 f0 08 09 87 03 f0 ea fa f5 81 f4 08 09
       -2 -5 3 -16 8 9 -121 3 -16 -22 -6 -11 -127 -12 8 9
0000f0 e7 e7 0c 94 fc e9 f7 f4 02 1c fa e1 fc f9 0c c5
       -25 -25 12 -108 -4 -23 -9 -12 2 28 -6 -31 -4 -7 12 -59

sequential_3/conv2d_6/Relu;sequential_3/conv2d_6/BiasAdd;sequential_3/conv2d_6/Conv2D;sequential_3/conv2d_6/BiasAdd/ReadVariableOp1 i1 [32, 3, 3, 1]
000000 35 63 65 e9 d0 87 19 81 1e 0a 3a 50 6e 33 cd 28
       53 99 101 -23 -48 -121 25 -127 30 10 58 80 110 51 -51 40
000010 81 16 18 3d 81 fe 97 da 1c 12 bd 44 7f 44 ed 5c
       -127 22 24 61 -127 -2 -105 -38 28 18 -67 68 127 68 -19 92
000020 02 ae d6 06 e5 ad d7 20 96 39 ce 90 7f 3e 9e 8e
       2 -82 -42 6 -27 -83 -41 32 -106 57 -50 -112 127 62 -98 -114
000030 22 ce 97 e4 cd 81 9a 54 37 77 fb 7c 42 81 18 05
       34 -50 -105 -28 -51 -127 -102 84 55 119 -5 124 66 -127 24 5
000040 81 f9 26 eb 06 ff 63 2a 2a 5e 0e 26 03 11 fc 81
       -127 -7 38 -21 6 -1 99 42 42 94 14 38 3 17 -4 -127
000050 cd 1d 81 cd 04 ee dc 16 43 ff 04 f0 fb 09 91 81
       -51 29 -127 -51 4 -18 -36 22 67 -1 4 -16 -5 9 -111 -127
000060 0a 0b f5 05 05 81 23 13 f9 0e 50 e6 eb 14 0e e9
       10 11 -11 5 5 -127 35 19 -7 14 80 -26 -21 20 14 -23
000070 44 36 2f 1e 7f 43 7f 27 f8 1e e1 19 79 43 21 21
       68 54 47 30 127 67 127 39 -8 30 -31 25 121 67 33 33
000080 f8 00 eb cc e6 de 81 33 2d 91 f3 4f 81 34 54 cf
       -8 0 -21 -52 -26 -34 -127 51 45 -111 -13 79 -127 52 84 -49
000090 ee d7 c5 bc 15 54 81 8c 25 13 7f 22 08 33 4a 23
       -18 -41 -59 -68 21 84 -127 -116 37 19 127 34 8 51 74 35
0000a0 f6 dd 9c 59 aa 55 a3 01 2c f2 7f 54 58 7f cf d1
       -10 -35 -100 89 -86 85 -93 1 44 -14 127 84 88 127 -49 -47
0000b0 fb d3 c3 a1 7f 05 ec e4 12 14 8e f2 15 b6 12 d2
       -5 -45 -61 -95 127 5 -20 -28 18 20 -114 -14 21 -74 18 -46
0000c0 0e 33 ae 63 a7 81 f0 81 fd 43 39 f0 2b 00 f0 0c
       14 51 -82 99 -89 -127 -16 -127 -3 67 57 -16 43 0 -16 12
0000d0 61 c9 f1 7f 0f d0 d2 ab fa 28 7f 1b 0c f5 2f ac
       97 -55 -15 127 15 -48 -46 -85 -6 40 127 27 12 -11 47 -84
0000e0 9b 6b 99 81 ee dc b4 d4 1c 58 29 f0 fb f4 43 81
       -101 107 -103 -127 -18 -36 -76 -44 28 88 41 -16 -5 -12 67 -127
0000f0 21 ad cd 7f d8 2d dd ef b2 cf d4 a7 cc fa 81 f9
       33 -83 -51 127 -40 45 -35 -17 -78 -49 -44 -89 -52 -6 -127 -7
