neural_network/models/no_quant_model.tflite (tflite, 45932 bytes, 8 tensors)

sequential_3/conv2d_6/BiasAdd/ReadVariableOp f4 [32]
000000 d1 74 76 bd 35 45 03 3c 4a d1 72 be f9 0d e9 3d
       -0.06017 0.008012106 -0.2371265 0.11379618
000010 e7 a3 22 bd b0 93 99 bd 3d a4 1b be cf c1 1a be
       -0.03970709 -0.07498872 -0.1519937 -0.15112995
000020 af 79 3a be a8 f7 f3 bd cc 39 9a be 2a 1b 08 3c
       -0.18210481 -0.11912471 -0.3012222 0.008307258
000030 cc 5f 87 be d5 5b 88 bd 21 1a 84 bd 14 a6 d5 bd
       -0.26440275 -0.066581406 -0.06450296 -0.104320675
000040 03 f6 95 bd 62 62 04 be f2 0d d4 bd 8c 9a 46 be
       -0.07322314 -0.12928155 -0.10354222 -0.19394892
000050 6c 6c 8d 3c 77 65 9c bd 9e 85 4f be 0d 31 0c 3d
       0.017263614 -0.076365404 -0.20265815 0.034226466
000060 3e e2 45 bc 58 be 8f bd 6a 36 cf bd 7c dd d0 3d
       -0.012077866 -0.07018727 -0.101178005 0.10198495
000070 ec 4a 47 be 76 c5 d2 bd 27 07 82 bd 69 a2 81 be
       -0.19462174 -0.10291569 -0.063490205 -0.25319222

sequential_3/conv2d_7/BiasAdd/ReadVariableOp f4 [16]
000000 8d fd 7b bd 37 9d 31 bd ae 7c 27 3d b6 0e b0 3c
       -0.0615211 -0.043362822 0.04089039 0.02149139
000010 82 be a4 bd be 59 4c 3e 5c 6e a4 bc 7e 12 12 be
       -0.08044149 0.19956109 -0.020072155 -0.14264867
000020 6e 72 a2 3c dc bf 58 be ff c0 bb 3c da 11 7e 3e
       0.019829955 -0.21166939 0.022919176 0.24811497
000030 3e 07 1f bc b7 dd 8a bd e7 6d 72 3e 48 7a 14 3d
       -0.0097063165 -0.0678057 0.23674737 0.03624943

sequential_3/conv2d_6/Conv2D f4 [32, 3, 3, 1]
000000 55 b9 28 be 14 15 12 be 8b 80 9b be e4 4b 2e be
       -0.16476949 -0.14265853 -0.30371508 -0.17021137
000010 f0 c0 30 bc 81 26 fb 3d e8 b1 06 3e 9f c4 12 3e
       -0.010788187 0.122632034 0.13153803 0.14332817
000020 1e 7a af 3e 65 db f7 bd 11 a9 d4 3d d1 6a c9 3c
       0.34272856 -0.12102393 0.10383809 0.024587067
000030 cb 60 c2 bd 83 7f 95 3d fa 60 76 bd 6f eb 80 3d
       -0.09491118 0.072997116 -0.060151078 0.062949054
000040 46 ab 08 3e ea a7 89 be 7e 35 ad be fd 73 e9 3c
       0.13346586 -0.2688592 -0.33829874 0.02849769
000050 5b e8 a7 3c 18 7f 53 3e 4d ac b0 3d 7b 68 c1 bd
       0.020496538 0.20653951 0.08626614 -0.09443756
000060 39 94 76 3e 8e d9 06 be f1 47 b2 bd bd ed 6d be
       0.2407998 -0.13168928 -0.08705128 -0.23235221
000070 fb c9 a8 bd f1 d3 df bc 1e d8 a5 bd 3e c3 82 bd
       -0.0824165 -0.027322741 -0.08097862 -0.06384896
000080 08 a7 41 be ad 6a 32 3e d3 d5 a2 3c 49 c6 31 be
       -0.18911374 0.17423506 0.01987735 -0.17360796
000090 43 3e 1e 3e 2d 10 38 be 69 f3 cd 3d 9d b3 7d 3d
       0.15453438 -0.1797492 0.100561924 0.06193887
0000a0 44 2d d4 3d 0e b6 c2 bd 9f 7f 1a be 88 73 06 3e
       0.10360196 -0.095073804 -0.15087746 0.13130009
0000b0 1e fd 88 be 96 59 37 3c a5 73 f4 3d cf 51 b2 be
       -0.26755613 0.011190793 0.1193612 -0.3482804
0000c0 57 1c 2a bb 26 ae 70 39 68 c8 c8 be 76 df 6e bc
       -0.0025956833 0.00022953059 -0.39215398 -0.014579644
0000d0 6f 8a e5 3d 6b 45 87 be ab fe 6a be 6c 9a 9f bd
       0.11208045 -0.2642015 -0.2294871 -0.077931255
0000e0 3e 28 9b be ab e4 ca 3d ac df 18 3d e6 b6 f2 be
       -0.3030414 0.09906896 0.037322685 -0.47405165
0000f0 c4 3c 40 3e 98 be 8c bd 10 d7 e6 be 16 3e 71 3d
       0.1877318 -0.068722904 -0.45085955 0.0588971
000100 f9 49 d0 bd 8d 8f b6 3e e6 92 f1 3d 28 bf 4f bd
       -0.10170359 0.35656396 0.11795597 -0.05071941
000110 a4 bf 89 bd a0 f3 1b 3e 68 a6 fd 3d 90 d3 e1 be
       -0.06726006 0.15229654 0.12385255 -0.44106722
000120 c0 26 fd 3d d0 6b 90 3d 82 ee 36 be 27 0e 98 bd
       0.123609066 0.070518136 -0.17864421 -0.07424574
000130 a7 1f ff 3d e5 0f 30 be 06 20 90 bc 76 8f ee 3c
       0.12457209 -0.17193563 -0.017593395 0.029121142
000140 3e 45 a5 bd 36 e2 7c 3e 0f 3e 06 be 94 18 b7 bd
       -0.080698475 0.24695668 -0.13109611 -0.08940235
000150 d9 df 9d bd e2 ef 74 3c 85 90 90 bc 3a 0a 5f be
       -0.07708711 0.014949771 -0.017647037 -0.21781245
000160 54 54 4a 3e 71 42 b9 3c e2 15 8a bc 3a 9d b6 3c
       0.19758731 0.02261469 -0.016856138 0.022291768
000170 2c ac 61 bd b4 90 89 3d d2 ca aa bc 30 86 31 3e
       -0.055095837 0.06717053 -0.020848665 0.17336345
000180 1f a1 b0 bd 66 38 81 3d e2 4e 51 3e a9 d5 cd 3d
       -0.086244814 0.06309585 0.20440248 0.10050518
000190 c8 2b 3b 3e 12 13 b9 bd 62 b6 24 3d b6 ee 4f 3e
       0.1827842 -0.090368405 0.040212996 0.20305905
0001a0 05 31 0a be 20 ad 98 3c 49 86 d6 3d 18 a4 a6 bd
       -0.13495262 0.01863724 0.104748316 -0.08136767
0001b0 5d e9 27 3e c2 f4 0b bd d1 7a 11 be 7d 56 09 3e
       0.16397615 -0.034168966 -0.14207007 0.13411899
0001c0 6e 7f c9 bd c5 f0 ae bd 60 3a 42 bd 32 f6 a9 bd
       -0.098387584 -0.08542017 -0.047418952 -0.08298911
0001d0 ee 6e 23 bd b9 e1 13 be b6 8e e8 bd 4f f7 83 be
       -0.039900713 -0.14441575 -0.11355345 -0.2577462
0001e0 7f a3 e9 bc da 4f 90 bd d4 a5 c1 bd 3f 01 63 bd
       -0.028520344 -0.070464805 -0.09455457 -0.05542111
0001f0 ee 0f 59 3d d2 48 86 3e b1 c7 23 be 7c 01 ba bc
       0.052993707 0.26227432 -0.15994145 -0.022705786
000200 02 21 30 bc b6 7f 59 be e0 28 1e 3c 8f a5 e9 3d
       -0.010750057 -0.21240124 0.0096533 0.11408531
000210 14 62 71 3e 85 26 36 be 6f 4c 10 bd 61 31 08 be
       0.2357257 -0.17788132 -0.035229143 -0.13300087
000220 0e 94 b7 bd 41 5b f6 3d a6 0e 82 bd 46 cd 2d be
       -0.08963786 0.12029124 -0.0635045 -0.16972837
000230 d3 71 09 be 57 d8 1a 3e 5f f7 fc bd 94 1a 70 be
       -0.13422327 0.1512159 -0.1235187 -0.23447639
000240 7c df 59 3c 18 3b 26 be c9 29 50 3e 94 08 db 3d
       0.013297912 -0.1623348 0.2032844 0.106949955
000250 1b c7 5c 3e 95 59 8f 3e 25 82 ff 3d 3b 28 97 3e
       0.21560328 0.27998033 0.12475995 0.2952288
000260 84 f2 56 3e 1f a8 cf bd d8 ae 4b 3e d3 2b 96 bd
       0.2099095 -0.101394884 0.19890916 -0.073325776
000270 49 9c 15 bd 2a b6 10 3e fa 16 6b bd a4 6c 2e be
       -0.036526 0.1413199 -0.05739496 -0.1703363
000280 a9 85 ff bc fc ec f2 bd a5 c3 e3 bd 4a cf 88 3d
       -0.031191664 -0.118616074 -0.111213006 0.06680162
000290 b5 ea ed bd 74 cb 4f bd 63 2c 3e bd 3d 47 5b 3d
       -0.116170324 -0.050731137 -0.04642905 0.053534735
0002a0 20 f0 74 3d 20 46 45 3c de c7 28 3e ea 64 b1 3d
       0.059799314 0.012040645 0.16482493 0.08661826
0002b0 50 30 da 3c b0 40 07 bc 03 6b b7 3d 06 d0 92 bd
       0.026634365 -0.008255169 0.08955958 -0.071685836
0002c0 f2 63 18 be a9 f4 c9 bd 8c 3c 05 3e 29 f5 39 be
       -0.14881876 -0.09861118 0.13011378 -0.18159927
0002d0 6b 24 be 3d 5c 8a f7 3d 64 bc 97 bd 28 b2 ca 3d
       0.0928429 0.12086937 -0.074089795 0.09897262
0002e0 57 b8 51 3e 86 78 9c 3d 14 36 0e 3e b4 a2 09 3e
       0.20480476 0.076401755 0.13887817 0.13440973
0002f0 c6 ca 3a 3e db 32 25 be cf 51 89 bd 27 d7 0a 3f
       0.18241414 -0.16132681 -0.06705057 0.54234546
000300 2c 2c 24 3e 3a dd dc bc b4 d5 1f 3d 1c 4c 39 3e
       0.16032475 -0.026960958 0.039022163 0.1809544
000310 40 2f d5 3d c9 ef 15 bf 81 8b f2 3d 48 e8 70 3d
       0.10409403 -0.5856901 0.118430145 0.05881527
000320 b4 99 ca 3c 6b bd 5e 3e 42 41 87 3e 86 15 ab bd
       0.024731494 0.21751945 0.26416975 -0.08353715
000330 82 f8 d7 3d e4 1e 75 3d fa 34 9a 3e 71 5e d8 bd
       0.10545446 0.059843913 0.30118543 -0.10564888
000340 47 62 51 be bb 6b 13 be a1 7b af 3d 5a 1f 46 3e
       -0.20447646 -0.14396565 0.08568502 0.19347897
000350 69 f0 46 bd a1 f2 0e 3e b5 02 9d bd 9d 14 b6 3d
       -0.048569117 0.13959743 -0.07666532 0.088906504
000360 c3 1b 8b bd ca 92 84 be 63 ca ba bd 2f 32 b0 3d
       -0.067924045 -0.2589324 -0.091206335 0.08603322
000370 ae 7d f5 3d ad d0 92 3a b9 21 b2 3d 55 3f 45 3e
       0.11986862 0.0011201106 0.08697838 0.1926244
000380 e0 80 9a 3e bd a7 0e be 75 31 2a 3d 21 d8 91 3e
       0.3017645 -0.13931175 0.041551072 0.28485206
000390 7a 23 08 be 31 fd 0a 3e c8 a3 ef 3d 78 ff 82 3d
       -0.13294783 0.13573147 0.11701161 0.06396383
0003a0 13 a5 4d 3e 1b 5a 1c be bf d8 e0 3d 1f 75 4a 3e
       0.20082502 -0.15268748 0.10978841 0.1977124
0003b0 1a 13 ec 3e 5d ae 99 3b 7c 32 59 3e 1d a8 ff 3e
       0.46108323 0.004689975 0.21210665 0.49932948
0003c0 04 9c 38 3c 4b ac d9 bd 00 54 90 3e 39 f3 0a 3d
       0.011267666 -0.106285654 0.28189087 0.03392336
0003d0 4b d1 89 3e e7 95 a2 bb b8 45 e6 3c 6d e3 04 3e
       0.2691749 -0.0049617174 0.028109416 0.12977381
0003e0 e1 94 cc bd e3 84 cc 3c c8 88 6b 3d 71 96 84 be
       -0.09989334 0.02496571 0.05750349 -0.25896028
0003f0 85 6d 08 3e 5e b7 53 3c ec 16 4e 3e b1 c4 1d bd
       0.13323028 0.012922136 0.20125932 -0.038517658

sequential_3/conv2d_7/Conv2D f4 [16, 3, 3, 32]
000000 83 a2 30 3d ed 74 01 3e 91 9c 75 bd 59 d2 87 3d
       0.043123733 0.1264226 -0.059963766 0.066319175
000010 41 32 03 bd dd 48 e5 bd c9 84 92 bd 2d 74 8b be
       -0.032030348 -0.11195538 -0.07154233 -0.27237073
000020 4f b5 d4 bd ea fb 92 bd c7 81 bc 3d 08 45 a1 bd
       -0.10386144 -0.07176955 0.092044406 -0.07874495
000030 1a c9 ba bd 9a 8a d8 bc 19 ab c8 3d d5 88 1c 3a
       -0.09120388 -0.026433278 0.09798259 0.00059713173
000040 3b e4 92 be b5 92 d4 bd 05 a5 85 bd 79 b4 d8 bd
       -0.2868975 -0.10379545 -0.065256156 -0.105812974
000050 dc 48 33 be cd 8b 16 be af 3f 97 be 9c 5f 07 be
       -0.17508262 -0.14701767 -0.29540774 -0.13220066
000060 db da ac bd 99 c1 e4 3d 30 c4 e8 bd 00 57 2a be
       -0.08440181 0.11169738 -0.11365545 -0.1663475
000070 02 24 58 be 6b bf f7 bd aa 0b a5 3d 93 f4 b0 3d
       -0.21107486 -0.12097057 0.08058865 0.08640399
000080 2c 51 3f be 03 84 12 3e 9d a4 c1 3d ea a3 fb 3b
       -0.18683308 0.14308171 0.094552256 0.007679452
000090 77 24 dd 3d 6f 92 a7 bd 5e 9f 68 3d 6c 98 e5 3d
       0.10797971 -0.08182227 0.05679261 0.11210713
0000a0 b2 47 b2 bc 87 85 44 3c f1 51 f7 3c 0e 6a 6f 3d
       -0.021762703 0.011994726 0.03019044 0.05845075
0000b0 42 68 db bd 45 e4 c7 3b af 46 ba bc 5c 83 9f bd
       -0.10713245 0.00610021 -0.022738783 -0.07788727
0000c0 9d 11 ea 3d 0e 37 d6 bd cf a3 c0 bd 2f 5c a7 3d
       0.11429141 -0.104597196 -0.09406244 0.081718795
0000d0 bf 0e e6 3d c8 cb 82 3e d7 6b 3c 3e 5a 63 de 3d
       0.11233281 0.25546098 0.18400513 0.108587936
0000e0 22 d5 22 bd 5c a2 bf 3d cb 7a e6 3d 72 0e 8a 3d
       -0.03975404 0.093571395 0.1125389 0.067410365
0000f0 44 a7 67 3d 8d 89 52 bd 8e 95 16 be 9b ca 5e be
       0.056556 -0.05140071 -0.14705488 -0.21756975
000100 2a 5c d7 3d 22 22 e4 3b 68 8e 99 be cc b5 48 bc
       0.10515626 0.0069620768 -0.2999146 -0.012250375
000110 bb 71 00 bd 73 42 89 bd 19 46 f9 bd fc 04 12 be
       -0.03135846 -0.06702127 -0.12171573 -0.14259714
000120 0e aa 74 3d 00 30 e7 3d 6a 53 27 be 7e 84 50 3d
       0.05973249 0.11288452 -0.16340414 0.050907604
000130 68 0b 18 3e a3 48 ce 3c 73 f3 a1 be 5d 7a 92 be
       0.14848101 0.02518112 -0.3163105 -0.2860898
000140 d6 66 dd bd 2f 70 02 3d 11 81 b3 bc be f5 76 bc
       -0.1081063 0.031845268 -0.02191213 -0.015073238
000150 1c a3 ad bd bc 5d b4 be 20 31 47 3c 27 5e ae bb
       -0.08478376 -0.35227764 0.012157708 -0.0053212824
000160 67 20 9e 3d 87 e3 ad 3b 3f 7f f7 bb ea 90 35 3d
       0.07721024 0.0053066644 -0.0075530107 0.044327654
000170 23 9b b3 bc 64 41 0a be fc c1 3d 3d dd 8d 2f 3e
       -0.02192456 -0.13501507 0.046327576 0.1714396
000180 ca 8e 0e bd 5d 24 42 3b e2 38 13 3d c9 31 2f bd
       -0.034804143 0.0029623725 0.03594292 -0.04277209
000190 01 ad 01 bb 33 1d 02 3e 94 0e 61 3b 2e 73 f8 3b
       -0.0019786956 0.12706451 0.0034340965 0.00758209
0001a0 0d 3a 27 3b 3e 9c 2a bd 4e 24 27 3d 39 3f b2 bd
       0.0025516779 -0.04165291 0.040806107 -0.08703465
0001b0 71 81 4a 3a a2 5b 35 be 6d 05 0d be 9b ab 0e 3d
       0.0007724977 -0.17710736 -0.13771601 0.034831624
0001c0 d2 6d 1a be 22 32 b2 3b 9b b9 8a bd 0b 19 29 3e
       -0.15080956 0.005438105 -0.06773683 0.1651346
0001d0 f2 0f 06 be 12 6d 3d 3e 72 d9 1b bd 9c bc f4 bb
       -0.1309202 0.18498638 -0.03804917 -0.007468773
0001e0 cf 40 1d 3a 96 8d f2 3d 8b b1 c3 3c af 61 e3 3c
       0.0005998732 0.118434116 0.02388837 0.02775654
0001f0 2a 84 c5 bd 6c 71 b6 3d ef 88 fc 3c 4f 5e a9 3c
       -0.09644349 0.08908352 0.030827014 0.020674853
000200 c4 a3 3e 3d 1c bf f3 bd e0 49 34 3e 38 67 52 bd
       0.046542898 -0.119016856 0.17606306 -0.05136797
000210 34 da c3 bc 53 74 c3 3d 1d 74 2c bd 14 ef a0 3c
       -0.023907758 0.095436715 -0.04210292 0.019645251
000220 22 10 f2 bd 14 c6 ea 3d 7f 25 40 be a9 68 2a bd
       -0.11819483 0.11463562 -0.18764304 -0.041603718
000230 7d 39 22 3e 1e 81 5c bd 39 93 7f 3c e9 e1 5a bd
       0.15842243 -0.053834073 0.015599065 -0.0534381
000240 fb c4 be bd 79 19 78 bd 51 f3 e7 3c a6 80 c7 bb
       -0.09314915 -0.060571168 0.028314264 -0.006088334
000250 f4 09 85 bd 07 87 e2 3d bb 3a d6 bd fc 1d c2 bd
       -0.06496039 0.11060911 -0.10460421 -0.09478375
000260 e2 36 b9 bd ca ef 30 bd c0 58 2b be b6 7b 90 3d
       -0.09043671 -0.04319743 -0.16733074 0.07054846
000270 f7 f9 4d 3d 74 cb 7c 3d 5b 65 fa bd 55 07 71 bd
       0.050287213 0.061717466 -0.12226363 -0.058844883
000280 ab 6c 99 3d 69 3c 5e 3e 04 85 eb bd c5 9e 13 be
       0.0749143 0.21702732 -0.1149998 -0.14416035
000290 06 0d 8e be 99 b4 9c bd e2 4b 1d be c6 46 12 be
       -0.2774431 -0.07651634 -0.15360978 -0.1428481
0002a0 dd 77 5e bd 85 6b c5 3d 35 70 50 3e 7f 1e ef ba
       -0.05431353 0.09639648 0.20355304 -0.0018243341
0002b0 bc 8a ca be 43 f4 94 3d 05 76 84 bd f0 f6 db be
       -0.3955897 0.07273152 -0.06467823 -0.42961836
0002c0 27 fa db 3d c5 f5 3c bd f4 d6 39 3b fa ab 23 be
       0.10741072 -0.04613282 0.0028356882 -0.15983573
0002d0 73 94 86 bd 56 74 65 be de 35 e4 bc ff 64 fc bd
       -0.06571283 -0.2240766 -0.027857717 -0.12323951
0002e0 94 9f 24 3e ae 16 1a 3e b2 d0 8e 3d de 3d 04 bd
       0.16076499 0.15047714 0.06973399 -0.032285564
0002f0 39 dc d0 bd fe 42 99 bd 35 ea 79 3e 0f f1 e7 3d
       -0.10198254 -0.07483481 0.24405749 0.11325275
000300 af de 60 be ae 2b 3b 3e 82 43 dc 3d c2 53 a1 bc
       -0.21959947 0.18278381 0.107550636 -0.01969326
000310 05 64 f9 3d 84 dc 90 3e df 36 f9 3d 0f d9 24 3e
       0.1217728 0.2829324 0.12168669 0.16098426
000320 2c b7 1f 3e 2e af df bb 6f 96 62 bc b7 79 df 3d
       0.15597218 -0.006826303 -0.0138298115 0.10911887
000330 b6 61 1d 3d 72 1d 4b bd 4a 1d 63 be 88 a3 85 bd
       0.038423263 -0.049588628 -0.22179142 -0.06525332
000340 23 5e 1a 3e 90 93 9b bc 99 8d 52 3c f1 eb aa 3d
       0.15074973 -0.018991262 0.012851142 0.083457835
000350 39 03 87 3d 8a b5 94 3e 48 f0 9a bd f9 02 8f 3d
       0.065924115 0.29044753 -0.07565361 0.06982989
000360 cd c9 2c 3e e7 24 98 bc 47 fb 7e 3c 85 69 51 3d
       0.16873856 -0.018572284 0.015562839 0.051126022
000370 67 6c 91 3d c2 ad ab bc 98 10 ca bd 26 be 59 be
       0.07100754 -0.020956878 -0.09866446 -0.21263942
000380 c0 12 b8 3c a9 85 48 be 8a 8d f8 bd 17 21 59 bc
       0.022469878 -0.19582237 -0.121363714 -0.013252518
000390 19 6d 3e be b4 41 34 bd 84 a4 60 be 6d c0 01 be
       -0.18596305 -0.044007972 -0.21937758 -0.12671061
0003a0 8a 4f 21 be dd e8 f2 3d 5a 07 07 3d dd 9d bb bd
       -0.15752998 0.118608214 0.032965995 -0.091609694
0003b0 2d a0 26 3c cb 08 2a 3e 41 f9 f2 bb ca 1f 94 bd
       0.010170025 0.16604917 -0.0074149673 -0.07232626
0003c0 62 1a 04 be 83 07 83 bd 95 49 db 3d 65 19 4a bc
       -0.12900689 -0.06397917 0.10707394 -0.012335156
0003d0 3b 4d ce bd 82 69 93 bd 61 23 19 bd 8d 8c a2 bd
       -0.10073324 -0.071978584 -0.037387256 -0.07936964
0003e0 4e bf 7f bd 7e c5 11 bd e6 32 1b 3d e3 87 35 be
       -0.0624383 -0.035588734 0.037890337 -0.17727618
0003f0 9c 23 8e bd c7 55 54 be 81 ae 54 3d d5 3c 0f 3e
       -0.06940386 -0.20735846 0.051924232 0.1398805

sequential_3/dense_5/BiasAdd/ReadVariableOp f4 [4]
000000 8b d5 0a 3f d8 c7 ee bd 0f 96 dd be 11 01 b3 3e
       0.5423209 -0.11659211 -0.43278548 0.3496175

sequential_3/dense_4/BiasAdd/ReadVariableOp f4 [8]
000000 a1 8c bf 3c 7a cc 2a 3c ba 5a c9 3d ee c6 ec 3d
       0.023382487 0.010424728 0.09831758 0.1156138
000010 47 55 62 3d de fc 99 3d 70 cc 09 3d 2f 6b 9f 3d
       0.055257108 0.07518934 0.033642232 0.077841155

sequential_3/dense_4/MatMul f4 [8, 704]
000000 d5 a5 41 3c a3 1b 07 3e fa 20 98 bd 5b 52 b0 bd
       0.011819323 0.13194136 -0.07428165 -0.08609458
000010 12 49 a8 bc 0b bf 40 be b4 9e e4 bb 14 5b cd bc
       -0.020542655 -0.18822877 -0.0069769267 -0.025067843
000020 12 db 28 bd fd 85 0c be bb 05 5e be 4b 19 da bd
       -0.041224547 -0.13722987 -0.21681874 -0.106493555
000030 eb 21 e5 bd 2f a6 1b 3d 6a 70 19 be 26 5d 93 be
       -0.1118811 0.038000282 -0.14984289 -0.28782004
000040 71 40 a4 bc 4f 6b c9 3a a3 4a be bd 06 c0 cc 3d
       -0.02005026 0.0015367063 -0.092915796 0.09997563
000050 d0 28 24 be 51 f7 2d bd c4 d0 b9 bd 51 04 36 3d
       -0.16031194 -0.042472187 -0.09073022 0.04443771
000060 5d 4e bd bd 8d 1f 8f bc d4 e6 d8 bc 7e 9a 1a 3b
       -0.09243462 -0.0174711 -0.026477255 0.002359062
000070 0e b3 8b bd 2d 19 87 bd ba 27 e1 bd 98 3a b1 3d
       -0.06821261 -0.06596599 -0.10993905 0.08653754
000080 c0 af 1e bd dc b8 c2 3d 79 0c 8e 3d 1c d0 3d be
       -0.038741827 0.095079154 0.06935973 -0.18536419
000090 11 d5 04 be 87 bb 0b be b1 6b 44 3d 6f c2 6f bd
       -0.12971903 -0.13645755 0.047954265 -0.058535036
0000a0 04 af 99 bd a8 fc 91 bd 0c 5d 8f 3e aa 42 03 3e
       -0.07504085 -0.071282685 0.28000677 0.12818399
0000b0 36 42 5e be 3d 62 a8 3b ca 3e 14 3e 32 b9 24 be
       -0.21704945 0.005138664 0.14477077 -0.16086271
0000c0 96 3a dc bc 0c 06 c3 bb 9b 54 1d 3d b7 22 19 be
       -0.026883405 -0.0059516486 0.038410764 -0.14954649
0000d0 c7 0d ab be d5 b8 21 bd fc 40 cc bd 08 8d 8d bc
       -0.3340895 -0.03948291 -0.09973332 -0.017279163
0000e0 69 fd 2e bd 9f 01 19 bd 71 7d 17 3e cc fa 39 3d
       -0.04272214 -0.03735506 0.14793946 0.045405194
0000f0 9d 28 13 3c 5e 5c 1e be 4a d7 64 bc b7 22 66 3d
       0.008981851 -0.15464923 -0.013967345 0.05618545
000100 4e ec 13 3e ab 50 04 3e c1 62 88 bb c8 5a 5d bd
       0.14445612 0.12921397 -0.004162163 -0.054041654
000110 d2 84 6b 3d 96 f3 18 3d 67 64 74 3d 09 bc d2 bd
       0.057499714 0.037341677 0.059666064 -0.10289771
000120 06 11 5c bc 77 a7 3e bd fc 2c 64 be 78 43 26 bd
       -0.013431793 -0.046546426 -0.22282785 -0.040591687
000130 c9 70 1b 3c 04 c6 a5 3d d1 73 16 be 75 f6 4f bd
       0.009487339 0.08094409 -0.14692618 -0.05077215
000140 ea a1 25 3e f9 ad 19 bd c0 f9 bd 3b 29 00 a6 bd
       0.16175047 -0.03751943 0.005797595 -0.08105499
000150 fc 0a 01 3e 61 3b 8f 3d 89 ab c4 bd 35 aa 9a bc
       0.12601846 0.069937475 -0.0960303 -0.01887999
000160 4b 22 97 bd 81 ca 67 bc a3 64 50 be 6f 18 c7 3d
       -0.07379588 -0.014147402 -0.2035089 0.09721457
000170 cf 83 49 3d 25 76 e7 3a ba 1e 67 be 6a 25 30 3d
       0.049197968 0.0017659111 -0.22570315 0.04300443
000180 fe a2 06 bc fc 29 42 bd 36 34 54 3c df 9e 5b bd
       -0.008217571 -0.04740332 0.012951901 -0.05361831
000190 d3 29 f9 3d 8a 2a 41 bc 1c 2e ab 3d ab 63 72 3d
       0.121661805 -0.011789927 0.08358404 0.059177082
0001a0 95 63 31 3d 85 af d5 bd aa ac cb 3d 25 bd 94 3d
       0.04330786 -0.10433868 0.099450424 0.07262639
0001b0 65 17 10 3e 4d 33 9d 3d 1d 21 a7 3d 14 ba 3e be
       0.14071424 0.076758005 0.08160613 -0.1862567
0001c0 74 8a 6a 3e b8 64 8e 3d 6e 1f 86 3c f9 ab 4b be
       0.22904378 0.06952804 0.016372409 -0.19889821
0001d0 86 2c b8 bc 45 89 07 3e 3a cd 31 3d 50 e4 e6 bd
       -0.022482168 0.13235958 0.04340861 -0.11274016
0001e0 35 95 0e 3e f3 1a 8d bc ea 23 63 3e 5c dd 20 be
       0.13924105 -0.017224764 0.22181669 -0.15709442
0001f0 44 8e 09 3e 79 bc b6 3e 4c 61 bf 3c 47 e5 a3 bd
       0.13433176 0.35690668 0.023361824 -0.080027156
000200 94 c0 33 3d 5c 1b ba 3c 4c be 2f bd d4 54 05 3e
       0.04388483 0.022718124 -0.04290609 0.1302064
000210 e5 6c b5 3c 03 53 ac 3c b8 ae 91 3d 53 39 1f 3e
       0.022146652 0.021035677 0.07113403 0.15549211
000220 40 b7 bc bd a2 9b 90 3d 48 00 8f bd 48 ef 45 be
       -0.0921464 0.070609346 -0.069824755 -0.1932956
000230 69 5f 99 3e b9 c7 93 3d 3f 3f 1e be 64 92 0e 3e
       0.29955605 0.072158284 -0.15453814 0.13923031
000240 ca 20 28 3e a9 c1 18 be 03 c7 15 be ee f9 16 3d
       0.16418758 -0.14917625 -0.14626698 0.036859445
000250 dd 21 ad bd 32 ab fb bd b0 7d 85 bd 95 5b cd bb
       -0.084537245 -0.12288512 -0.065181136 -0.006267021
000260 be f4 b5 bc f5 95 6d be 2e 50 50 be 97 e2 97 3d
       -0.022211429 -0.23201735 -0.20343086 0.074162655
000270 d5 7b db 3d 06 60 b9 3c 3d c1 1a be 2f 62 3b 3e
       0.107169785 0.022628795 -0.15112777 0.18299173
000280 5f 86 85 bd d8 b7 c8 bc d8 bc dd 3d 40 7f e4 3d
       -0.0651977 -0.024501726 0.10827035 0.111570835
000290 8d 89 59 3d 1b 8a 33 bd 3e dd e8 3d e5 59 c1 3d
       0.053109694 -0.04383288 0.113703236 0.09440974
0002a0 13 5b 00 3e 6d b4 bc bd 7d 1b 74 3c cb c6 d1 3d
       0.12534742 -0.09214101 0.014899132 0.10242995
0002b0 9e 2e 6f 3e 3d 66 2c 3d e7 de 2d be 9a 3e 95 bc
       0.23357627 0.04208969 -0.16979562 -0.018218327
0002c0 54 b2 93 3e c9 9f b6 3d 00 69 06 3e 2c c1 a8 bd
       0.2884699 0.08917195 0.13125992 -0.082399696
0002d0 9b 7f ff bd 1a 08 98 bd 2c 73 ea 3c 3c b1 9d bd
       -0.12475511 -0.0742342 0.028619371 -0.076998204
0002e0 e5 6a 78 3d 37 8c a6 3a e6 3b ff 3d 55 2e 3b 3b
       0.060648818 0.0012706582 0.124625966 0.0028561552
0002f0 8e 8e 73 bc b7 b9 9b bd 87 79 2e 3e ac 68 b3 bd
       -0.014865531 -0.07603782 0.17038547 -0.08760199
000300 5e 03 0e 3e b7 e7 ce 3c d3 02 4d be 9d f3 31 3c
       0.13868472 0.025256975 -0.20020609 0.010861305
000310 6a 07 1b 3d 9f e4 99 3d 9d 0a b6 bb 5a 58 bd 3c
       0.037848867 0.07514309 -0.0055554644 0.023113418
000320 30 c6 50 3d de cd 70 3e 22 8b 81 3d 99 57 19 be
       0.050970256 0.23516032 0.063253656 -0.14974822
000330 99 49 45 3e 4f eb 0e 3e 95 60 24 bd 94 90 62 3d
       0.19266357 0.1395695 -0.04013117 0.05531366
000340 4f d8 cf 3d ec 7f fd bd ae 41 18 3e 9d 15 11 be
       0.101486795 -0.12377915 0.14868805 -0.14168401
000350 30 6a 5a 3d ba 88 ab be c4 d2 29 be 49 40 e8 3c
       0.053323925 -0.33502752 -0.16584307 0.028350966
000360 13 c1 51 bd e4 32 15 be a2 0f 24 be 79 0d a0 3d
       -0.05120952 -0.14570194 -0.16021588 0.0781507
000370 0e 4b d3 bc 40 e6 6a 3e 03 73 8f 3d ee 28 2e 3e
       -0.025792625 0.22939396 0.070043586 0.17007801
000380 8f ea fd 3d e1 bf 68 bd 7b 8b e7 3d b2 ec b6 3c
       0.12398254 -0.056823615 0.11305901 0.022329662
000390 ce 7b 0b 3d 6c 11 a1 bd e3 12 0b 3d ae 2b f8 bb
       0.034053616 -0.07864651 0.03395356 -0.0075735664
0003a0 80 ea ce 3d f0 1a 40 be ce d6 a5 3d 0b 80 49 3c
       0.10103321 -0.18760276 0.08097611 0.012298594
0003b0 fc 42 4f 3e d4 77 53 bd 0c ed 7a bd 6f b6 0a be
       0.20240396 -0.05162795 -0.06126122 -0.13546155
0003c0 62 f3 a1 3d f3 3c fa bd 5d 6c 7d 3e ad 16 a5 bd
       0.0790775 -0.122186564 0.24748369 -0.08060966
0003d0 c7 2b 82 3d a1 3a 5c be 3b da b2 3d a8 d3 5f 3d
       0.06356006 -0.2150674 0.087330304 0.05464521
0003e0 41 85 1c 3e a4 a7 ee 3c 4d ef 66 3e aa d4 7f be
       0.15285207 0.029132672 0.22552224 -0.24983469
0003f0 a0 a8 e1 3d 3c 80 11 3e 82 01 0f 3e d8 76 d1 3b
       0.11018491 0.14209074 0.13965419 0.006392341

sequential_3/dense_5/MatMul f4 [4, 8]
000000 35 eb 9b bf 60 53 b9 bf 5e ee 13 3f 48 4e ba bf
       -1.2181154 -1.4478569 0.57785594 -1.455514
000010 ed 95 bc bf 88 42 08 3f 29 9a b4 bf 9a 53 a1 bf
       -1.4733254 0.5322652 -1.4109546 -1.2603638
000020 6b fa 8d 3d 9b 81 e6 3e 37 bb 28 bf 37 db e4 be
       0.06932529 0.45020756 -0.6591067 -0.44698498
000030 e7 75 0e bf 72 59 39 bf 09 3a 80 3e ac 8b d1 3e
       -0.55648655 -0.7240211 0.25044277 0.40926874
000040 e2 cb 23 3d 6b e4 8d be d1 38 b1 3e ae 4c 96 3e
       0.03998936 -0.27713332 0.3461366 0.29355377
000050 e5 eb bc 3e 60 4a 5f be 74 45 50 3e 9b 4d 1e be
       0.36898723 -0.21805716 0.20338994 -0.15459292
000060 e3 6a 3b bf a7 54 28 3f db 10 21 bf 1a 60 a0 be
       -0.7320997 0.6575417 -0.62916344 -0.3132332
000070 1d 6f 03 3f 83 dc dd 3e e5 cb 48 bf 7f 60 7f bf
       0.5134142 0.433323 -0.7843612 -0.99756616
