neural_network/models/no_quant_model.tflite (tflite, 160664 bytes, 10 tensors)

sequential_30/conv2d_55/Relu;sequential_30/conv2d_55/BiasAdd;sequential_30/conv2d_55/Conv2D;sequential_30/conv2d_55/BiasAdd/ReadVariableOp f4 [32, 3, 3, 1]
000000 44 37 18 3d 92 ee 5d 3d a1 2e 94 3d 75 83 46 bc
       0.03716208 0.054182597 0.07235456 -0.012116303
000010 10 bb 93 bb 57 2f 27 3d 48 62 be bc b9 22 35 bc
       -0.0045083836 0.04081663 -0.023240224 -0.011055642
000020 46 0e 84 bd 76 73 b1 3d 53 14 75 3d 6b 25 a3 3d
       -0.06448035 0.086646006 0.059833836 0.07966121
000030 62 88 7c bb 70 73 e3 bb be e8 fc 3c 51 64 66 bd
       -0.003853344 -0.0069412515 0.030872699 -0.056248013
000040 28 3c 9d bd ee 84 f4 bc 5d 44 85 bd b6 bf 9d bc
       -0.076774895 -0.029848542 -0.0650718 -0.019256454
000050 90 d0 ce 3d ae de 4e 3c 3f e3 43 bd 53 40 53 3c
       0.10098374 0.012626333 -0.04782414 0.012893754
000060 f2 56 98 3d 04 dd 1f 3b 76 5d ce bc c3 d1 89 3d
       0.074384585 0.002439321 -0.02519105 0.06729462
000070 6a 9c 18 3d 4a 01 3a bc ed 39 a8 bc 11 e4 97 bc
       0.037258543 -0.011352846 -0.020535434 -0.018541368
000080 83 b2 cd bd ac a6 90 bd 3f e2 55 3d 25 98 d5 ba
       -0.10043814 -0.0706304 0.05221772 -0.0016295953
000090 d9 9d 9f bd 01 e8 9f 38 81 93 32 3d a0 11 34 3d
       -0.07793779 7.624925e-05 0.043597702 0.04396212
0000a0 82 76 3e 3c 77 67 40 bd 57 8e 67 3d e7 79 4b 3d
       0.011624934 -0.04697367 0.05653223 0.049676802
0000b0 70 ac aa bd d9 10 80 bd b5 83 bb ba e3 80 a6 3d
       -0.08333671 -0.062532134 -0.001430622 0.08130052
0000c0 1f 48 11 3d 40 6a ca 39 e1 77 8e 3c ca 3c 9f 3d
       0.03546917 0.00038607605 0.017391147 0.077752665
0000d0 e4 01 96 3c 10 1f 87 bd 7c 4c 40 3d b4 08 8a bd
       0.018311448 -0.065977216 0.04694794 -0.06739941
0000e0 27 ea 2c bd ca 48 99 bd 93 36 38 bd 61 13 e7 3c
       -0.042215493 -0.074845865 -0.04497392 0.028207483
0000f0 6d 9b 0a bd 35 8b 7a 3d 69 35 bf 3d 02 17 2d bd
       -0.03383963 0.061167914 0.09336359 -0.04225827
000100 c9 d8 3b 3c 74 10 f8 3b 96 e4 36 bc 11 7f ab 3c
       0.01146526 0.0075703207 -0.011162898 0.020934613
000110 9f 90 94 bd 62 c3 73 3c 8f d1 0f 3d 2b db 87 bd
       -0.07254147 0.014878126 0.03511196 -0.066336
000120 88 ed 81 bc a2 fd ea 3c 02 87 ab bc ea 3e 5e bc
       -0.015860334 0.028685395 -0.0209384 -0.013564805
000130 7f 1d 65 3d 6f bd 33 3b 14 2f 10 bd b3 72 8b 3d
       0.055936333 0.0027426144 -0.035201147 0.068089865
000140 4b c7 1b bd 4e e9 51 bc ad 56 f4 bc 10 f7 14 3d
       -0.038031857 -0.012811972 -0.029826486 0.03636843
000150 19 7c e9 3c 92 02 89 bc 04 a1 77 3d 46 2f 62 3c
       0.028501557 -0.016724858 0.06045629 0.013805216
000160 cc be 3d 3c f1 9a 0b 3d 27 a6 5a 3d 4c e8 c8 3b
       0.011581134 0.03408331 0.05338111 0.0061312076
000170 6c d2 1a 3c 08 c7 78 b8 54 3e c6 bb 8c 8b 68 3d
       0.009449583 -5.931317e-05 -0.0060499106 0.056773707
000180 e9 9b dc bc c0 47 49 bc e3 12 09 3d de 89 51 3d
       -0.026929813 -0.012285173 0.033465277 0.05115687
000190 69 4d e9 3c a7 b8 8b 3d 79 b1 97 3d 25 7a 8b bc
       0.028479295 0.06822329 0.07406897 -0.017026016
0001a0 8c 8e 49 bb 76 3d 73 b9 87 ef c6 bd 98 f1 a2 bd
       -0.003075513 -0.00023197182 -0.09713655 -0.079562366
0001b0 a9 f3 84 bd 7f db 80 bd 1a 54 00 3d 36 70 16 3d
       -0.06491787 -0.062918656 0.031330206 0.036728106
0001c0 7c 9e 3f bc 37 ca 3f bd fb 76 99 3d 1e 17 ad 3d
       -0.0116955 -0.046823706 0.07493397 0.08451675
0001d0 5c 62 b7 3d 0f 33 6f 3d 36 bc 99 3c c9 5c 87 bd
       0.089543074 0.058398303 0.018766504 -0.06609494
0001e0 6a 2a ae bc ba 8c e1 3c b6 1c 78 bd 28 e2 7e bd
       -0.021260459 0.027532924 -0.060574256 -0.0622274
0001f0 79 45 f1 3c 5a da f7 3c 44 ee 67 bd 9f 41 94 3d
       0.029452072 0.030255485 -0.056623712 0.07239079
000200 b1 2d cc 3d 93 df 81 bd c5 13 9a bd 08 d9 81 bc
       0.099696524 -0.063414715 -0.07523302 -0.015850559
000210 5a 1e 72 3d f2 d2 1d bc f0 e9 d4 bc 9e ac 99 3b
       0.059110977 -0.009632813 -0.025990456 0.004689767
000220 bc a3 87 3c 93 ab a0 b9 50 87 24 3d 0d 24 fc 3c
       0.016557567 -0.0003064541 0.040168107 0.03077891
000230 19 02 90 bd 2a 8e 19 bc ac bb 77 3d 2d de 9c bd
       -0.0703165 -0.009372273 0.060481712 -0.07659564
000240 30 e3 3e bb 77 97 b8 bd 71 9a 68 bd 75 44 22 bc
       -0.0029127114 -0.090132646 -0.05678791 -0.009904017
000250 f6 d2 25 3d 85 96 5e 3d 12 40 cd bd 32 37 df 3c
       0.04048439 0.054342765 -0.10021986 0.027247999
000260 6b 25 88 3d 08 45 02 3d fd a0 1e bc c5 09 f0 3c
       0.06647762 0.031804115 -0.009681937 0.029301533
000270 cf 6a 35 3d 05 04 0d bc 99 5f 3d 3d f0 46 e9 bc
       0.044291314 -0.008606915 0.046233747 -0.028476208
000280 e4 a0 32 bc 21 b4 51 3d ee 38 99 bc e7 50 69 3d
       -0.010902617 0.051197175 -0.018703904 0.05696192
000290 e8 13 3c bc 62 00 ea bc 6c 15 83 3d d9 15 69 bc
       -0.011479355 -0.028564636 0.0640057 -0.0142264
0002a0 f4 5d 1e bd c7 5a 77 3d c0 88 1c bd 98 47 aa bc
       -0.03866382 0.060389306 -0.038216352 -0.020786092
0002b0 a1 fd ad bd 9e 3f ff bc 73 44 62 3d ca d4 bb bc
       -0.084956415 -0.031158265 0.05524106 -0.022928614
0002c0 32 8f af bd 84 7b 81 3d 7e 03 5b 3d d3 51 28 3d
       -0.08572234 0.06322387 0.053470127 0.04109366
0002d0 d6 87 1a 3d e3 d6 22 3d 0e 18 a4 3d 9d 48 1d 3c
       0.0377272 0.039755713 0.080124006 0.009599832
0002e0 c1 a7 32 bd 2a e2 66 3d a6 5d 82 bb b0 45 25 bd
       -0.043617014 0.05636803 -0.003978449 -0.040349662
0002f0 8c f0 3e bc 82 03 a0 3c 86 11 0d bd 56 9b 17 bd
       -0.0116540305 0.019532923 -0.03444054 -0.037013374
000300 90 70 e7 bc 11 4a d5 3c 7e 47 33 3d da 36 09 bd
       -0.028251916 0.026036294 0.043769352 -0.033499576
000310 3e c4 ba 3d 9c 4b 1b 3d f2 a9 1a 3b 3d d3 16 3d
       0.091194615 0.037913904 0.002359983 0.036822546
000320 01 e2 24 3c e3 c0 72 bc 61 f4 5a 3d 38 00 7e 3c
       0.010063649 -0.014816496 0.053455714 0.015502982
000330 24 ee 22 bd 3a ec 56 3d 9e 4d 72 bc 85 d8 22 3d
       -0.03977789 0.052471377 -0.014789013 0.03975727
000340 d2 3c 22 bd cb 5a a6 bd 8f 1a c4 bc c0 40 c9 3c
       -0.039608784 -0.08122786 -0.023938445 0.024567008
000350 96 2d 04 bd a8 b8 1f bd cf 1b 4d 3d f4 ea 53 3d
       -0.032270037 -0.03899446 0.05007535 0.05173774
000360 e2 b9 a7 bd 9c 87 b1 3c 40 6a 6d 3c 6a 43 12 3d
       -0.08189751 0.021671109 0.014490664 0.035708822
000370 f6 55 a0 3c d6 2b 96 bd 5c da 33 3d aa 45 5f 3d
       0.01957224 -0.0733258 0.043909416 0.054509796
000380 2e df 96 bd d0 cc 53 3b 09 1d b5 bd 75 e3 29 bd
       -0.07366787 0.0032318123 -0.08843429 -0.041476686
000390 27 23 71 3c 7a 0f de bc 6b 2c f4 3c 73 c5 84 3d
       0.014717854 -0.02710699 0.029806336 0.06482973
0003a0 92 68 b2 3c 45 7c 9a 3d 07 65 89 bc 3a b0 19 3c
       0.021778379 0.07543234 -0.016771806 0.009380395
0003b0 ad ab 3c 3d ab e0 d8 bc e3 ed e1 bb 6e b7 14 bd
       0.04606216 -0.026474318 -0.0068948134 -0.036307745
0003c0 3d e1 52 3c 30 37 97 3c 1d 35 a9 bd 5c b7 18 bc
       0.012871084 0.018458933 -0.08262084 -0.00932106
0003d0 b4 eb 0b bd fe b0 9e bd e2 35 56 3c 67 05 73 3b
       -0.03416033 -0.07748602 0.01307437 0.0037082077
0003e0 c4 b5 28 bd a4 39 1f 3d 7c eb 67 3d 5e 21 55 3d
       -0.04118897 0.03887333 0.05662106 0.052033775
0003f0 51 9c c6 bc 65 4c 5d 3d d4 72 c2 bc 80 8f ed bc
       -0.02424446 0.054027934 -0.023736395 -0.02899909

sequential_30/conv2d_55/BiasAdd/ReadVariableOp f4 [32]
000000 e9 42 a1 be cf e0 d2 bf 6f b2 c8 be c2 23 65 bd
       -0.3149636 -1.6474856 -0.39198634 -0.055942304
000010 55 e2 1b bd 45 65 19 be 24 14 27 c0 21 d1 6c 3d
       -0.038057644 -0.14980038 -2.6106043 0.05781663
000020 65 3a 3c be 3e 62 6f be d5 91 3c be 67 34 4d bf
       -0.18381651 -0.2337732 -0.18415006 -0.80158085
000030 33 d4 da bf d2 9d 2b 3c ad a8 6a bf 2e 82 b2 bd
       -1.7096008 0.010474639 -0.9166363 -0.08716236
000040 0b 96 12 c0 0e bb 6f be e2 ce 01 be 75 63 83 bf
       -2.290408 -0.234112 -0.12676576 -1.0264727
000050 1f ce c6 be 9e 5c 5e be c3 fb f8 bd 2c ed cf 3a
       -0.38829133 -0.21715018 -0.12157395 0.0015863529
000060 16 42 2b bd 74 fe 4e be 51 32 9c 3d 96 ab a8 bd
       -0.04181107 -0.20214254 0.076267846 -0.082358524
000070 67 e9 c9 bd 17 87 9e bd 6a 8d 55 be 06 cb bb bd
       -0.09858971 -0.0774061 -0.20854726 -0.09169583

sequential_30/conv2d_56/BiasAdd/ReadVariableOp f4 [16]
000000 f7 6d b1 bd 3d 63 03 3d ef 9d 33 be ac bd 68 be
       -0.08663552 0.032077063 -0.17540716 -0.22728604
000010 48 ec 0f be 49 cf 7c 3e 7a 5d 3f 3e 92 9d 9e bd
       -0.14054978 0.24688448 0.18688002 -0.07744898
000020 59 7f 22 be 82 e2 a5 3d 43 a2 dd bd 3f f3 02 bf
       -0.15868892 0.080998436 -0.108219646 -0.51152414
000030 78 ae 8f bd 2e 3e 4a bc 1d 32 11 be ac 9f 1c be
       -0.07015699 -0.012343926 -0.14179273 -0.15295285

sequential_30/conv2d_56/Conv2D f4 [16, 3, 3, 32]
000000 97 1f 40 3e a3 13 17 bf f5 8d 79 3e de 8b 55 bd
       0.1876205 -0.5901434 0.24370559 -0.05213534
000010 ef f6 ce 3e 48 62 05 3e e1 29 8b 3d ab fc 06 3e
       0.4042277 0.13025773 0.06795097 0.13182323
000020 fb e5 ce bd 5c 7e 5d bc 2d 4c ac 3d 49 66 3e be
       -0.10102459 -0.013518896 0.08412967 -0.18593706
000030 de 69 5f be 86 b1 4c 3e e1 3a 8a 3c fd 7a 7b 3e
       -0.21817729 0.19989595 0.016873779 0.24558635
000040 c8 fd e8 bc 17 b9 a9 3e 4d e7 78 3d 93 b4 b1 be
       -0.028441325 0.33149025 0.06076746 -0.3470808
000050 e7 3f 5d bd 7f 97 14 bf ec 80 2d 3d 35 d4 93 bd
       -0.05401602 -0.58043665 0.042359278 -0.0721821
000060 78 ff 0a 3e 77 96 16 bd ea da 9d 3c 7d ae b2 3d
       0.13574016 -0.03676459 0.019269425 0.08724687
000070 cc 17 25 be be c3 a3 3e e2 a8 92 3c 90 3e 8d 3e
       -0.16122359 0.31985277 0.017902795 0.27586794
000080 cc 3c c4 be 9d 79 eb bd 66 cf de 3c 3a 1b 80 3e
       -0.38327634 -0.11497805 0.027198505 0.25020772
000090 ac 50 4e bf 4c 4a 35 bf 5d 8e e7 3c 3c af 6a 3e
       -0.80591846 -0.70816493 0.028266126 0.22918409
0000a0 17 6d 6b bf 6c b5 6c bf 12 08 f7 be a9 16 6a 3c
       -0.9196333 -0.9246433 -0.48248345 0.014287629
0000b0 64 b7 f2 be 18 91 cc 3e 27 72 38 bd a3 46 a9 be
       -0.4740554 0.39954448 -0.04503074 -0.33061704
0000c0 41 84 52 3c 10 3e 39 bf e5 2f 41 bf 7f e5 e1 3d
       0.012848915 -0.72360325 -0.75463706 0.11030101
0000d0 5f c9 93 be 14 08 dd be 51 98 51 bf 77 81 7f 3e
       -0.2886457 -0.43170226 -0.8187304 0.2495173
0000e0 e8 37 1e bf bf f4 67 3d b5 09 87 3d 0e 12 22 3d
       -0.61804056 0.056629892 0.06593648 0.039568
0000f0 27 19 07 bf 53 95 80 bd db a8 47 bf 9a 10 25 3e
       -0.52772754 -0.06278481 -0.7799203 0.16119614
000100 21 a4 6d bf 4b 39 53 3e 6b 30 a6 3d 80 53 c7 3e
       -0.92828566 0.20627324 0.08114704 0.38930893
000110 9e 12 bc bd 81 06 eb 3e 15 e7 48 3e 4f ad 87 be
       -0.091832384 0.459034 0.19619401 -0.2649941
000120 a6 1c 20 3e f9 e7 0a 3f a2 36 97 3d bf c9 54 bf
       0.15635929 0.5426021 0.07383467 -0.8312034
000130 30 42 87 be c5 24 b5 3e 4a 52 66 be 3e 2d 43 bf
       -0.26417685 0.35379615 -0.22492328 -0.7624091
000140 59 04 a4 3e d2 26 0d be fd 3e e8 3d 3a 06 11 bf
       0.32034567 -0.1378434 0.11340139 -0.56650126
000150 83 62 e6 be 06 ea 01 3f 0d c3 03 3e 6b 5a b3 3e
       -0.44997033 0.50747716 0.12867375 0.3502992
000160 a6 41 41 be 37 1e aa 3e 96 7e ee be 72 36 53 be
       -0.18872699 0.33226177 -0.46580952 -0.20626238
000170 47 0c d8 3e 54 38 57 bf 91 a5 d5 3c 8c 7f 3a bc
       0.42196867 -0.84070325 0.026079925 -0.011382949
000180 c4 ca 00 3f 66 73 ab be 62 1c 3a be f9 1d 01 3e
       0.50309396 -0.3348648 -0.1817489 0.1260909
000190 76 f6 37 3d ec e6 66 3c 9e 0b 40 bf 70 a9 b5 bd
       0.044912778 0.014093142 -0.75017726 -0.08870208
0001a0 e6 ac 5a bf 58 82 30 bf 07 5a 41 3d 7a b7 35 bf
       -0.8542007 -0.6894889 0.047204997 -0.7098309
0001b0 6f d1 30 bf ee cb 24 3f 68 be 42 bf 4b 52 c7 3d
       -0.6906957 0.6437367 -0.76071787 0.09732493
0001c0 a0 0a 53 bf d2 c3 0c bf 9b 80 11 bf 2e 6c 19 bf
       -0.8243809 -0.549863 -0.5683686 -0.59930694
0001d0 04 2a b0 bd fe 05 1e bf 76 74 48 bf 6c e5 8d 3e
       -0.08601764 -0.61727893 -0.78302705 0.27714097
0001e0 3f 03 09 3f 5a f4 b5 be 81 ef c2 3e 28 bb 3c 3e
       0.5352058 -0.35537988 0.38073352 0.1843077
0001f0 32 54 3f bf cd db 91 3d c2 39 ab be ff ed fc 3e
       -0.74737847 0.07122002 -0.33442503 0.49400327
000200 c6 3f 15 bf 59 cc 1b be 17 d7 fb bd 1f d7 20 be
       -0.58300436 -0.15214671 -0.122968845 -0.15707062
000210 1e 00 c8 be cc fc 03 bd 0b 91 ff be ff 19 8d be
       -0.3906259 -0.032223508 -0.49915347 -0.27558896
000220 0f 91 a5 be 25 87 00 3b a4 68 2f bf 30 a0 77 bf
       -0.32337233 0.0019611802 -0.68519044 -0.967288
000230 ff 24 60 bf 58 ab 05 3d 38 b9 46 bf 07 7d 71 bf
       -0.8755645 0.03263411 -0.7762637 -0.943314
000240 16 82 bc be 7e 70 b4 be 12 9b 19 bf 71 e0 7f be
       -0.36817998 -0.35242075 -0.60002244 -0.24987961
000250 77 25 71 bf f0 7f 34 be 19 77 db be c9 a6 34 3e
       -0.9419779 -0.1762693 -0.42864302 0.17641748
000260 64 6a 48 bf 5d a2 41 3d 63 7f 97 be c3 6e 4f bd
       -0.7828734 0.047273982 -0.29589376 -0.05064274
000270 14 e7 53 bf 96 a1 72 bf 89 34 37 bd e8 76 ea be
       -0.8277447 -0.9477781 -0.044727836 -0.45793843
000280 53 32 fd bd b9 47 1a be 46 15 24 be e6 04 a3 be
       -0.12363114 -0.15066423 -0.1602374 -0.31839675
000290 fa 9a 01 3f 6d 76 15 3f 97 be 9b be a6 50 1e bf
       0.506271 0.5838383 -0.30418846 -0.6184181
0002a0 28 6f d4 3e 95 90 02 3f f7 81 15 3e a9 6e b2 bd
       0.41491055 0.51001865 0.14600359 -0.08712513
0002b0 b7 cf 2c bf 01 78 0c bf d6 0b 21 bf 02 2b c1 be
       -0.6750445 -0.5487061 -0.62908685 -0.37728125
0002c0 d1 ae f3 be 70 68 50 3e 9d 73 01 3f 53 33 13 bf
       -0.47594312 0.2035234 0.50567037 -0.5750019
0002d0 13 3d 10 3e ab 3f d0 3e 77 0c 3b 3e 0f 56 6e be
       0.14085798 0.40673575 0.18266474 -0.23275016
0002e0 db 17 0b be bb b7 dd bc a3 3a 4f bf f7 3f 36 bf
       -0.13583319 -0.027065149 -0.8094885 -0.7119135
0002f0 10 9e b1 3e cc dd 06 be 30 f2 cc 3e 13 ad 64 bf
       0.34690905 -0.13170546 0.40028524 -0.8932659
000300 63 21 a2 be 84 37 2d 3e 19 39 60 bf ad 09 b9 3e
       -0.31666097 0.16915709 -0.87587124 0.36140195
000310 05 2f 01 bf 95 2a 56 bf f4 11 06 bf 24 08 4a be
       -0.5046237 -0.83658725 -0.52371144 -0.19729668
000320 63 ae 18 be 72 47 ca bd b2 b4 67 be b8 3f 06 bf
       -0.14910273 -0.09876908 -0.22627524 -0.5244098
000330 cd c5 c7 be 0c 4a 88 3e 03 af 67 be 98 3a 4c be
       -0.39018098 0.26618993 -0.22625355 -0.19944227
000340 51 aa ce bd 20 8a e4 be 3c 95 3c bf a7 dd 8e be
       -0.10091079 -0.4463663 -0.73665214 -0.27903482
000350 e8 5a 88 bd b6 50 e1 3d d5 72 7c be d0 9c e0 3e
       -0.06657964 0.110017225 -0.2465318 0.43869638
000360 a7 34 08 bf e6 71 ab 3e 33 4c e4 bd de c1 45 3d
       -0.5320534 0.33485335 -0.11147346 0.04828059
000370 a6 cd 1b bf 54 b6 51 be 12 ad a3 be c0 29 d8 3e
       -0.6086067 -0.20479709 -0.3196798 0.42219353
000380 68 04 0b bf 3c ff 6e bf fe f7 a5 3e 41 16 6f bf
       -0.543036 -0.93358207 0.32415766 -0.9339333
000390 6a 9a 8e bb a3 13 17 3f 85 a9 57 bf b4 09 b8 be
       -0.0043519037 0.5901434 -0.8424304 -0.35944903
0003a0 fc 74 89 3d ae 64 97 3e d9 9b bd bd 89 55 7d be
       0.06711766 0.29569 -0.09258241 -0.2473966
0003b0 36 90 be bd 88 ba 7c be ec b0 d4 be 3c 11 86 3a
       -0.0930485 -0.24680531 -0.4154123 0.0010228525
0003c0 90 fe 6d bf 77 a0 82 3e a2 de 87 3e 17 a0 3b be
       -0.92966557 0.2551305 0.26537043 -0.18322788
0003d0 46 96 5f bd 0f 4e 5f 3e f4 3f ad 3e d3 04 51 3e
       -0.05458667 0.2180712 0.33837855 0.20411997
0003e0 7f c1 92 3d 92 3d 1c 3e 3d a0 2f bf eb c2 e1 3b
       0.07165813 0.15257862 -0.6860388 0.006889691
0003f0 fe 35 43 3e 10 15 9d be 55 45 5f 3e cb 3c 57 bf
       0.19063565 -0.30680132 0.21803792 -0.8407714

sequential_30/dense_64/BiasAdd/ReadVariableOp f4 [6]
000000 48 56 f4 3e b7 ba 44 3e 86 d6 b6 bd 29 9d ae bc
       0.47722077 0.19211851 -0.08927636 -0.021315174
000010 0d 91 c0 3e f4 56 62 bf
       0.37610665 -0.8841393

sequential_30/dense_63/BiasAdd/ReadVariableOp f4 [32]
000000 a7 52 1b c0 95 73 52 3f e5 c9 26 c0 5a d3 0e c0
       -2.4269197 0.82207614 -2.6060727 -2.2316499
000010 e6 aa 36 c0 3b 6e f6 bf b7 59 9f bf ec 94 ae bf
       -2.8541808 -1.925239 -1.2449254 -1.3639197
000020 4c 9b f4 bf e9 d1 75 bf 00 f4 d0 bf 05 12 0e c0
       -1.9109893 -0.9602342 -1.6324463 -2.2198498
000030 e7 8f c2 bc 7e a0 44 bf 71 b7 19 3c fb 3c 85 3f
       -0.023750259 -0.7680739 0.009382115 1.0409235
000040 54 79 10 c0 7d de ae 3f 78 e6 03 c0 17 5b 90 3f
       -2.2574053 1.3661648 -2.0609417 1.1277798
000050 0a d3 40 3f a0 ed 92 bf 93 c6 a7 be 21 d6 e3 bf
       0.7532202 -1.1478767 -0.32768688 -1.7799722
000060 f1 ef 07 c0 b6 a4 b9 bf 77 8b 30 be 87 c8 4e 40
       -2.1240199 -1.4503391 -0.17240702 3.2309892
000070 1c 27 0f 40 a4 26 42 c0 1c db 57 3e fa 2a 4c 3f
       2.236762 -3.0336084 0.21079677 0.7975308

sequential_30/dense_62/BiasAdd/ReadVariableOp f4 [32]
000000 e9 1b 87 3f a7 06 04 40 4b 17 c4 3f 9c 42 b6 3e
       1.0555393 2.062906 1.5319608 0.35597694
000010 75 63 09 be cf 7b 62 bf 4d 54 c3 bf 12 e3 9e bf
       -0.13416846 -0.88470167 -1.5260102 -1.2413046
000020 9a ed a3 be 95 08 0a 40 40 3b cf bf 1c 75 d2 bf
       -0.32017213 2.1567738 -1.6189957 -1.6441989
000030 99 a9 6f 3f 05 52 b8 bf c6 66 86 be bf 1b 37 3f
       0.9361816 -1.440003 -0.26250285 0.7152671
000040 38 81 0d 3f b1 3e 17 40 71 b8 9c 3e 7a 67 64 be
       0.552753 2.3632014 0.30609468 -0.22305098
000050 02 3e 7e 40 23 d5 8c 3f 85 7c 9d bf 0c c6 01 c0
       3.9725347 1.1002544 -1.2303625 -2.0277128
000060 a9 c4 a9 bf ad 26 10 bf d2 a3 50 3f 2e 5e 14 40
       -1.3263141 -0.56309015 0.8149997 2.3182483
000070 b3 be 31 bf 0a c0 38 bd ab 0f bf 3e dd c2 60 bf
       -0.6943161 -0.045105018 0.3731664 -0.8779734

sequential_30/dense_62/MatMul f4 [32, 1024]
000000 ec c3 d2 be b1 75 83 bf 85 99 12 bf 9a b0 5e bf
       -0.41165102 -1.0270292 -0.572655 -0.8698822
000010 a4 d5 15 bf d5 34 a2 be 9a 2b 62 3e 33 03 2e bf
       -0.58529115 -0.31680933 0.22086945 -0.6797363
000020 e9 0f ec bc 3a 62 10 3e dc 3a ed be 1a 15 a4 3d
       -0.02881618 0.1409997 -0.4633397 0.08011837
000030 fe dc 9f 3d 8f 36 98 bd f8 b7 30 bf 93 6f ad 3e
       0.07805823 -0.07432281 -0.69030714 0.33874187
000040 ce ef 92 be 76 d3 cb bd 9c 89 cf bf c3 2b 2e be
       -0.2869858 -0.09952442 -1.621387 -0.17008881
000050 6f 2f 8e bf ba 90 e1 3e dd aa 8a be a8 e9 2c be
       -1.1108226 0.4405573 -0.27083483 -0.16886008
000060 e6 a4 09 3d 00 b0 9f bf 3f 1f 91 bf ff ed 9a bc
       0.033604525 -1.2475586 -1.133766 -0.018912314
000070 5b c0 8a 3e a8 fa 05 3e 66 03 10 bf c8 65 79 bd
       0.2709988 0.13083899 -0.56255186 -0.06088808
000080 24 a5 a4 bf 0f 6b f2 3e 79 bc 7e be 2d 1f 8d 3f
       -1.2862897 0.47347304 -0.24876584 1.1025139
000090 b9 23 9a be 08 da f9 bf 10 70 89 3f a8 b6 ed 3e
       -0.3010538 -1.9519663 1.0737324 0.46428418
0000a0 78 da 95 ba c9 f1 7f bf 2e 6b bb 3e 60 6d 3b bb
       -0.0011432907 -0.9997831 0.3660521 -0.0028599128
0000b0 31 e5 10 bf e0 b9 4e be 56 76 38 bf f6 6f 06 c0
       -0.5659972 -0.20188093 -0.72055566 -2.1005836
0000c0 38 bc 4c be ab dd 75 3e f7 34 64 be 72 fb 44 bf
       -0.19993675 0.24010341 -0.2228583 -0.76946175
0000d0 03 29 7e 3f 1c 46 eb bd 03 de 7f 3f 88 27 81 bf
       0.9928133 -0.11487982 0.9994814 -1.0090189
0000e0 b8 f5 da 3b 1e 3f da bf 59 d0 1a bf 88 17 a6 bd
       0.006682124 -1.7050512 -0.60474163 -0.08109957
0000f0 56 d4 39 3e 5e 30 b9 3e ee 5c ec bc 05 bf 40 3f
       0.18147406 0.36169714 -0.028852906 0.7529147
000100 73 22 0b 3f b6 99 23 be d2 02 77 3f 20 20 42 bf
       0.5434944 -0.15976605 0.9648868 -0.7583027
000110 27 68 b4 3e 42 40 85 be d1 e0 9b bc 77 a3 87 bf
       0.35235712 -0.26025587 -0.0190281 -1.059676
000120 a2 78 9f bd 29 3b ee 3f 32 91 1b 3f af c2 26 bd
       -0.07786681 1.8611804 0.60768425 -0.04071301
000130 30 5e 0a c0 40 cb a3 3d ba 68 0f 3f 7e 32 67 bf
       -2.1619987 0.07997751 0.56019175 -0.9031142
000140 14 fa 4f 3f e8 98 cf 3e 42 92 fe bd bf 1a 32 3d
       0.81240964 0.40546346 -0.1243024 0.04348254
000150 74 8d a6 bf d6 47 5b 3f 2a 09 6b 3e 0d 0b 29 3f
       -1.3011918 0.8565649 0.22952715 0.6603249
000160 40 4f 84 3c 78 36 8b 3f da b0 c7 3e 87 2e 26 bd
       0.01615107 1.0875998 0.39002115 -0.040571716
000170 0e 2a 69 3f 07 c7 a2 bf 58 75 0c 3f 6e fb 48 3f
       0.91079795 -1.2716988 0.5486655 0.7850865
000180 f8 86 6c 3c 8e d4 1c 3f 68 2f ab 3f 21 5d 15 3f
       0.014436476 0.6126183 1.3373842 0.5834523
000190 15 f7 06 3f 00 51 6b 3f 92 a2 02 3e 60 ad 34 bf
       0.5272077 0.9192047 0.12757328 -0.7057705
0001a0 dd f0 b4 bc 5c 22 db bd fc b1 5c be 8f 84 88 bc
       -0.022087509 -0.10699913 -0.2155227 -0.016664771
0001b0 7a 8a 2b 3f fc ca dd 3d d1 7b 0d 3e 46 5a 0a 3f
       0.67008173 0.10829732 0.13816763 0.54043996
0001c0 ee 6d 2a 3f ed c2 12 bf 71 b2 12 bf 3e 8e fe be
       0.6657399 -0.57328683 -0.5730353 -0.49717897
0001d0 38 7b 37 3f 61 38 15 3f 98 c5 16 be 60 c7 3b bf
       0.7167239 0.5828915 -0.14723814 -0.733511
0001e0 7e 4e 01 bd e3 e5 54 bf 73 d6 23 bf 31 85 f3 bc
       -0.031568997 -0.8316328 -0.639991 -0.029726597
0001f0 c9 c8 a5 3e cc 19 97 3e e4 5e 92 3e 64 63 a0 3f
       0.3237975 0.2951187 0.2858802 1.2530332
000200 af 9f 6e 3e e7 39 33 3f fb 56 d6 3c 3b 88 15 3d
       0.23303102 0.70010227 0.026164522 0.036506873
000210 16 cf 40 3d 7a ee 12 c0 d7 8f 41 c0 48 9d 9a bf
       0.047072493 -2.2958055 -3.0244043 -1.2079248
000220 2a c4 4a bc f3 e8 34 3f fc 23 52 3d 4f 1b e3 3c
       -0.012375871 0.7066795 0.05130385 0.027722983
000230 35 38 ae bd b8 2b 4d 3f c2 01 0b bf fa 44 0e bf
       -0.085068144 0.80144835 -0.5429956 -0.55574
000240 0c 59 68 bf 6b 7a 3b bf 6f 8a 0b 3d 33 5b b8 bf
       -0.90760875 -0.7323367 0.034067567 -1.4402832
000250 2b 7d 76 3f 14 58 fb be c6 9f 23 bf 6e e7 bf bf
       0.9628474 -0.49090636 -0.6391567 -1.4992502
000260 b8 e1 9a bc 00 0d a5 be d2 d7 84 3e 54 25 3a bd
       -0.01890646 -0.3223648 0.25945908 -0.045445755
000270 1b b2 f4 bf 12 a8 0c bf f1 46 83 be 6a 9e 00 3f
       -1.9116853 -0.54943955 -0.25640061 0.5024172
000280 70 7f 3a bf 97 3a 49 c0 b3 8a 83 bf 79 b5 6d 3e
       -0.72850704 -3.144201 -1.0276703 0.23213758
000290 87 c1 25 bf cd bc 06 40 e3 39 0b 40 bf f0 67 bf
       -0.64748424 2.1052735 2.1754081 -0.90601724
0002a0 97 90 7a 3c a9 11 9d 3f 53 d6 93 bd 4c 79 c5 3c
       0.015293262 1.2271014 -0.072186135 0.02410569
0002b0 f0 02 73 bf ee 0d 37 be 67 dd 50 bf 43 ec 4e bf
       -0.9492636 -0.17876408 -0.81587833 -0.80829257
0002c0 0b 2e 54 3f ad 26 87 3f 78 a3 89 3f 33 56 8d 3f
       0.82882756 1.0558678 1.0753012 1.1041931
0002d0 2e de ca be 1d ee 8b 3e 00 7f 8c 3f a5 84 68 3f
       -0.39622635 0.27330104 1.0976257 0.908274
0002e0 51 a1 90 3d 6b 71 3e bf 45 08 b7 3e 70 3c 7d bd
       0.07062019 -0.7439181 0.35748497 -0.061825216
0002f0 66 69 db 3e b0 d6 80 3f 17 36 c2 bf 00 54 8e bf
       0.4285385 1.0065517 -1.5172757 -1.1119385
000300 b6 66 0c be c8 8d 10 3f 6c 5e 7a 3f f8 d9 ed 3f
       -0.13711056 0.5646634 0.97800326 1.8582144
000310 6a 06 e5 be 26 6b 55 3e 90 c0 aa bd a2 f2 1c 3e
       -0.44731456 0.20841655 -0.0833751 0.15326932
000320 17 36 16 3d e6 f3 6a bf 5f 65 a5 3f 5f 01 64 bc
       0.036672678 -0.9177841 1.2921561 -0.0139163425
000330 ab 33 ea bd d0 5e 87 bf ff 25 72 bf 67 c4 7e bf
       -0.11435636 -1.057581 -0.9458923 -0.99518436
000340 26 e1 86 3f c4 e2 07 3e ee a6 03 bf d9 56 68 bf
       1.053746 0.13270098 -0.5142659 -0.9075752
000350 7a 9d 26 3f 84 5d 48 3f 8d 4b 8f 3f 19 ed b9 3f
       0.6508404 0.78267694 1.1194931 1.4525481
000360 69 db 3f bc eb 3b 0c c0 0c 9c be 3f b8 d5 c0 bd
       -0.011710026 -2.191157 1.4891372 -0.094157636
000370 42 fa 07 c0 59 d5 1f be 53 f0 3c be b0 d9 ed 3f
       -2.1246495 -0.1560873 -0.18451051 1.8582058
000380 2c b3 57 3f 15 f1 37 3f a4 9e 96 bd ad b4 97 3e
       0.8425777 0.71852237 -0.07354477 0.29630032
000390 22 45 3f 3f 2d b5 a8 bf af ba 41 3f 95 4c 88 3e
       0.74714863 -1.318029 0.7567548 0.26620927
0003a0 e4 b1 69 bd 13 a4 bf 3f d9 7c ed 3e bf c0 c9 bd
       -0.057054415 1.4971946 0.46384314 -0.098512165
0003b0 99 fd 7d bf 97 fe 9d 3d 1b ba 1d 3f 6a 69 bd 3e
       -0.99215084 0.07714575 0.616121 0.36994487
0003c0 8e da 8a bf 46 8b 2e bf 06 29 52 bf d2 56 bc be
       -1.0847948 -0.68181264 -0.82093847 -0.3678499
0003d0 81 71 77 3d ba 47 66 40 5a 45 8d bf 5a cc 1e 3e
       0.06041098 3.5981278 -1.103679 0.15507641
0003e0 03 9d 03 3d 28 16 df bd f4 19 99 bf fa 24 bb 3c
       0.03213216 -0.10892898 -1.1961045 0.02284478
0003f0 13 ec 57 3e 4f 85 a8 be 8d 55 98 be 72 7f 10 3f
       0.21086149 -0.32914206 -0.2975277 0.56444466

sequential_30/dense_63/MatMul f4 [32, 32]
000000 30 cc bd bd 18 e8 f5 be 35 c5 b5 be 83 24 a6 be
       -0.09267461 -0.48028636 -0.3550202 -0.3244973
000010 94 a7 3e be 56 a7 0c bf 00 be e8 bd 33 c3 90 bc
       -0.18618613 -0.54942834 -0.113643646 -0.017671203
000020 55 56 b3 be 5c e3 4f bf 1b a9 78 bf 5a 40 a4 be
       -0.35026804 -0.812063 -0.97133034 -0.32080346
000030 3e 26 a0 3e 9d 45 86 3e 21 de 43 be 14 56 d4 be
       0.31279176 0.26224986 -0.19127704 -0.41471922
000040 28 4b 48 bf 6b 23 92 bd a0 a0 73 be 8b 27 23 3e
       -0.7823968 -0.07135662 -0.23791742 0.15933053
000050 34 27 7d 3e 3b 4a 86 be a6 1c fc 3d d9 3d 0e be
       0.24721986 -0.26228508 0.12310152 -0.1389078
000060 ee dc 0e 3e 61 cb a4 3e df b8 1a be 4a 2e 9c be
       0.13951465 0.32186416 -0.15109585 -0.30504066
000070 fc 73 a8 bc e2 0f 7a 3e 82 29 36 bf 7d 6a 27 bf
       -0.020563118 0.24420121 -0.71157086 -0.65396863
000080 8b 63 2f be 3f 9e 22 bf 79 72 ad be 06 f3 e3 3c
       -0.17127816 -0.63522714 -0.33876398 0.027825844
000090 d0 81 f3 bd c6 d5 73 be 82 61 21 3e 29 b5 c1 3e
       -0.11889994 -0.23812017 0.15759853 0.37833527
0000a0 82 7e fc bb 58 e7 03 be 7e e3 23 3d b0 4d 9e 3e
       -0.0077055106 -0.1288122 0.040011875 0.30918646
0000b0 b2 18 56 bd 61 3b e5 be bd ba ac 3d 55 8a ac 3e
       -0.052269645 -0.44771865 0.08434055 0.3369929
0000c0 10 d2 00 be ee 7d 48 be 2b 7b 94 3e 7e 6d b5 be
       -0.12580132 -0.19579288 0.2900022 -0.35435098
0000d0 9b b8 3f bf 95 15 a0 bd 6a 86 93 be 47 d1 e5 3e
       -0.7489106 -0.078166164 -0.28813487 0.44886228
0000e0 e1 24 9c be 6b 47 1d bf 3f 7d c3 3c 29 0d e5 bd
       -0.30496886 -0.614371 0.023863433 -0.11184151
0000f0 2d dd ef be 3a 67 4d 3e 08 8b 94 bd 64 fa 9f 3e
       -0.4684843 0.20058909 -0.072530806 0.3124572
000100 33 37 a5 3e 9e 01 98 bd 15 32 94 3d d5 60 d8 bc
       0.32268676 -0.074221835 0.07236115 -0.02641336
000110 e3 5d 90 bd 4e b0 84 3e c6 0c 6a bf 0e 9c f8 3d
       -0.070491575 0.2591576 -0.9142574 0.1213914
000120 bc 24 ff bd de 6b 9a bf fc 74 05 bf 74 ff 75 3d
       -0.124581784 -1.2064168 -0.5213163 0.060058072
000130 01 7d 5f bc 61 fc 5b 3f b3 35 cf 3d 57 30 79 bf
       -0.013640643 0.85931975 0.10117664 -0.97339386
000140 d5 13 16 bf bb a0 dc be 94 cb 88 bf 6c 62 54 bc
       -0.5862401 -0.43091378 -1.0687127 -0.012962919
000150 e4 fb bf be db d6 a7 be 32 3f 5b 3e 8f c7 9b bb
       -0.37496865 -0.3278111 0.21410826 -0.004754014
000160 c8 1b 2c 3e 6f ee b1 3e 74 08 e8 be 56 5e 60 bd
       0.16807473 0.34752223 -0.4531895 -0.054777466
000170 be 98 49 bd a8 df 21 3d fb 28 92 bf 6c 7a bf 3d
       -0.049217932 0.039519936 -1.1418756 0.09349522
000180 9b 77 0b bf 9b e7 22 3e e2 84 d6 bd e4 c3 d5 be
       -0.5447938 0.15908663 -0.10474564 -0.41751015
000190 01 b9 a4 be 8f 00 a6 3d fb 39 44 bf 3c dd 42 be
       -0.32172397 0.08105575 -0.7665097 -0.19029707
0001a0 f3 57 2c bf 49 58 c8 bd 25 fd 6e be b7 a9 27 be
       -0.673217 -0.09782464 -0.23338754 -0.16373335
0001b0 21 ca 11 bf 69 6d c1 3c a4 da a6 3c 05 71 c8 be
       -0.5694905 0.023611741 0.020367928 -0.39148727
0001c0 c4 f4 6a 3d 77 72 3b bf eb 43 9f be 6e 2a 9f 3e
       0.057362333 -0.73221534 -0.31106505 0.3108706
0001d0 38 ab bc be 04 bc 68 bf 62 33 db be 2d 78 67 be
       -0.3684938 -0.9091189 -0.4281264 -0.22604437
0001e0 01 01 57 bc dc 11 1a bd 24 00 89 be 3b 20 e5 be
       -0.013122798 -0.03761469 -0.2675792 -0.44751152
0001f0 33 df ae be 8c 77 8b 3e 48 11 0f bf b4 f0 12 be
       -0.34154662 0.27239645 -0.55885744 -0.14349633
000200 a3 e7 ea bd c4 7d d2 bc 4d da 00 bf 1d 79 76 be
       -0.114699624 -0.025694735 -0.503331 -0.24069639
000210 6c 18 b1 3e ec 65 f5 bd 05 15 90 bf e4 56 03 3e
       0.34588945 -0.11982331 -1.1256415 0.12826115
000220 e0 e4 05 be a6 7e 88 bd 0c 9c 6f bf 75 50 ce 3d
       -0.1307559 -0.06664781 -0.93597484 0.1007394
000230 8a 1c 68 bd 9b 44 79 3e 9b 11 1d 3e 23 9e 28 bf
       -0.056667842 0.24342577 0.15338747 -0.658663
000240 5d b0 fc bd fe 51 c3 be 5c 7a 72 bf 81 59 3c be
       -0.12338326 -0.38148493 -0.94717956 -0.18393518
000250 34 38 4e bc 0b c5 8a be be 24 94 3e d6 64 95 bc
       -0.012586642 -0.27103457 0.28934282 -0.018236559
000260 b4 00 06 be e6 af 19 3e 12 78 f1 be 6d 23 10 bf
       -0.13086206 0.15008506 -0.4716192 -0.56304055
000270 b0 93 04 be f2 ca 96 3e 7d 8f b2 bf e0 8d 73 bf
       -0.12946963 0.2945171 -1.3950039 -0.9513836
000280 61 f5 a4 be 71 e7 83 be 50 39 37 bf a3 01 01 be
       -0.3221846 -0.25762513 -0.71571827 -0.1259828
000290 e8 ad d6 be 06 67 bb 3d d3 bd db bd c6 66 6c bd
       -0.41929555 0.091505095 -0.107295655 -0.0577152
0002a0 64 6e 03 be 3c a3 e9 be 70 1c d5 be f3 bc 80 bf
       -0.1283508 -0.4563235 -0.4162326 -1.0057663
0002b0 fd e1 34 bc e0 c5 0e 3f cd f1 eb bb 3b b6 e0 be
       -0.011040208 0.55770683 -0.0072004558 -0.4388903
0002c0 08 af e9 be 71 8e 61 3d 1c 28 c5 be 7d 32 78 3d
       -0.4564135 0.055067483 -0.38507164 0.060595024
0002d0 ed c5 db bf 45 01 59 bf 85 3c 0c be 10 7c b9 be
       -1.7169777 -0.8476756 -0.13694961 -0.36227465
0002e0 41 4d 8a be 1d ab 23 bf 6a 2c 2a bf 13 b2 c8 be
       -0.27012065 -0.63932973 -0.6647402 -0.3919836
0002f0 6f a1 26 bf c0 14 6f 3e 75 a4 6d bf 6d 27 f7 be
       -0.6509008 0.23347759 -0.92829067 -0.48272267
000300 c2 20 75 be 5f e5 6b bf 61 7d f6 be 69 ba ad bf
       -0.23938277 -0.9214687 -0.48142532 -1.3572513
000310 54 39 09 bf d4 1b 96 be 8d a8 ac be 22 19 ca 3e
       -0.536031 -0.29318106 -0.33722344 0.394723
000320 ee d1 93 bf e6 8b 26 bc 61 df 35 bf a0 96 80 3e
       -1.154844 -0.01016519 -0.71043974 0.25114918
000330 0f d6 fb be 33 0b 25 be 0f 7b 4a 3e 41 59 49 bd
       -0.4918675 -0.16117553 0.19773506 -0.049157385
000340 dd ba a5 be 28 4f 65 bf e0 81 94 be ec cd b6 bd
       -0.32369128 -0.8957391 -0.29005337 -0.08925995
000350 29 ad 2c bf 0e 03 84 be e2 3c d9 be b4 e3 2d bd
       -0.6745172 -0.2578358 -0.42429262 -0.042453483
000360 a0 2a b1 3d db 37 79 bf 2e f1 2e bf cf 81 27 bf
       0.08650708 -0.97350854 -0.6833676 -0.6543245
000370 fc bf 07 bf bf ef a5 3d 26 e0 33 bf 95 af 83 be
       -0.5302732 0.081023686 -0.702639 -0.25719896
000380 43 fe 80 be a8 28 03 bf 55 79 fb be d4 6b 84 bf
       -0.25193986 -0.5123391 -0.49116006 -1.0345407
000390 00 d9 92 be 6c b3 bf 3c 72 64 36 be a5 0f eb ba
       -0.28681183 0.023400985 -0.17811754 -0.001793374
0003a0 7f 32 3d 3e 23 89 64 bf 40 b5 23 bf 34 3a 05 bf
       0.18476294 -0.89271754 -0.6394844 -0.52041936
0003b0 68 92 34 3c ae 3a cd 3c 62 fd a5 bd 0a c3 c8 bd
       0.011021234 0.025052395 -0.081049696 -0.09802826
0003c0 6f 7a c8 bd d6 72 e8 3c db 06 60 be b5 fd 46 be
       -0.09788977 0.02837507 -0.21877615 -0.19432719
0003d0 1f c6 ae 3e 49 2a 14 bf 99 8b 51 be a3 a5 2c bf
       0.3413553 -0.5787702 -0.20463409 -0.6744024
0003e0 05 57 34 be 96 e6 2a bd 4f 44 40 bf fd 0d 64 bf
       -0.1761132 -0.04172381 -0.7510423 -0.89083844
0003f0 f0 8c 37 bf be 6e c6 bd 94 0a 82 bc 79 00 b6 be
       -0.7169943 -0.09689091 -0.015874185 -0.35547236

sequential_30/dense_64/MatMul f4 [6, 32]
000000 18 dd b3 be 13 57 ec be b1 8a d7 3d 05 47 dd be
       -0.3512962 -0.46160182 0.105245 -0.43218246
000010 f9 c1 e2 bd be db d2 bd bc 57 8f bf a5 de 03 be
       -0.110721536 -0.10295819 -1.119865 -0.12877901
000020 61 44 29 bf 69 62 94 be ac b8 de be 4f 77 e6 be
       -0.6611996 -0.2898133 -0.43500268 -0.450129
000030 ff 6c af bd 24 c7 a4 be 3a 42 78 bf f6 b0 66 bd
       -0.08565711 -0.32183182 -0.96976054 -0.056321107
000040 38 a4 a6 be b7 9f 9e be db 1d d8 bf 3b 13 9b bf
       -0.32547164 -0.30981228 -1.6884111 -1.2115244
000050 79 f0 f6 bd 13 ee 8e be 9a 20 b9 bf da a7 9b be
       -0.12057585 -0.2791601 -1.4463074 -0.30401498
000060 90 5b ee be b0 56 f3 be c8 e1 10 c0 94 f5 22 3d
       -0.46554232 -0.47527075 -2.2637806 0.039784983
000070 8c 6a 51 be 65 ec d0 bd 3e 71 22 bf d0 0e f0 3c
       -0.204508 -0.10201339 -0.63454044 0.029303938
000080 05 68 46 bf 22 84 84 bc 00 af 25 be af 9e 9f be
       -0.7750247 -0.016176287 -0.16180038 -0.31175753
000090 60 ac 84 be 5e 68 2c be 8f 3b 3c be bd 18 0d bf
       -0.25912762 -0.16836688 -0.18382095 -0.5511587
0000a0 ad ee ee be 08 e6 9a bb 84 40 c4 be 88 a3 1f bf
       -0.4666647 -0.004727129 -0.38330472 -0.62358904
0000b0 d5 61 63 3c e4 1d 32 bf 70 c4 42 bd 29 8d 5c 3e
       0.013878305 -0.6957686 -0.04755062 0.21538223
0000c0 4f 4d b5 bd 12 2e 66 3e 2a 28 6e bf 20 1a a2 3d
       -0.08852636 0.22478512 -0.93030035 0.07915139
0000d0 5f 62 4c bd 41 72 c7 bd 51 b4 b9 bd d4 ef b1 be
       -0.0498985 -0.09738589 -0.09067596 -0.34753287
0000e0 36 6a ce bd b4 b4 18 bf 9c e7 20 be fc 71 5f 3e
       -0.10078852 -0.5965073 -0.15713352 0.21820825
0000f0 ba 33 96 3e 54 c2 14 be 2b ed 10 bf e5 80 8a be
       0.2933634 -0.14527255 -0.5661189 -0.27051464
000100 fa 0b 1e bf 1e 7c 84 bb ec 11 74 be 05 d1 83 be
       -0.61737025 -0.0040431162 -0.23834962 -0.25745407
000110 ca 05 c1 be bd c3 3a bd 7c 22 de 3d 59 bf 0b bf
       -0.3769973 -0.045596827 0.10846421 -0.5458885
000120 8f 49 15 bf a7 5a b3 be cf c2 12 bf 45 ab a3 bf
       -0.58315367 -0.350301 -0.57328504 -1.2786642
000130 f2 6f e5 3d f9 ee 66 bf bc d2 0d 3e f8 75 f4 3d
       0.112029925 -0.90208393 0.1384992 0.11936563
000140 fc 27 93 be 22 29 b2 bc b7 6c 6a bf 48 65 49 3e
       -0.28741443 -0.02174813 -0.91572136 0.19667542
000150 f1 eb 02 be 26 03 29 be 6b 74 ea bd f3 34 3a bf
       -0.12785317 -0.16505107 -0.11447986 -0.72737044
000160 82 8b 9b be e2 39 12 bf 40 65 01 bd 44 c5 83 3e
       -0.30379874 -0.5711957 -0.0315907 0.2573644
000170 6a b9 48 be 44 ea 89 bd 21 1d 7e bf 97 d6 7e be
       -0.1960198 -0.06734136 -0.992632 -0.24886547
000180 66 fb 1e bf 27 79 12 3e 68 1a 99 bd ac a9 92 be
       -0.62102354 0.14304028 -0.0747574 -0.28645074
000190 aa 70 2a be 49 8e a1 bd 68 53 de 3d a6 9e 91 be
       -0.1664454 -0.07888467 0.10855752 -0.28441352
0001a0 bc 62 0c bf bc dc d8 bd de d9 22 bf 82 57 15 bf
       -0.54838157 -0.10588977 -0.6361369 -0.5833665
0001b0 d6 16 af 3d af 9f 0b be 34 f4 5e 3d 74 4c d4 3d
       0.085492775 -0.13635133 0.05443211 0.10366145
0001c0 f6 94 13 3d 72 7d c1 3d cd e4 33 bf 9d cc 83 3d
       0.036030732 0.09447755 -0.70271 0.06435511
0001d0 72 b3 e3 bd ac a3 21 be 9e b2 57 3e 90 36 9d be
       -0.11118211 -0.15785092 0.21064231 -0.3070569
0001e0 b9 99 43 bd 69 ba 9c be dd 74 83 be c7 af 97 3e
       -0.047754023 -0.3061097 -0.25675097 0.29626295
0001f0 94 cf b2 3b ec eb 88 be 59 b1 08 bf a0 b2 4c be
       0.005456874 -0.26742494 -0.5339561 -0.19990015
000200 48 4b cc be 7c 3a ee bc 40 9b 28 bc e0 57 9a be
       -0.39901185 -0.029080622 -0.010290921 -0.30145168
000210 c0 0a 15 be 6d 09 29 3c 44 ad f9 3d 7f f7 c7 be
       -0.14554882 0.010317189 0.12191251 -0.39056012
000220 01 d1 10 bf 1c c4 b4 bd ef 9e 30 bf 39 c9 22 bf
       -0.56568915 -0.088264674 -0.68992513 -0.6358829
000230 79 81 b7 3d 06 34 ed be fe c0 24 3d 38 7d 30 be
       0.08960242 -0.46328753 0.040223114 -0.17235267
000240 e2 23 09 3d d0 20 60 3d a5 24 2b bf ca 94 17 be
       0.033481486 0.054718792 -0.6685279 -0.14802852
000250 eb bf 4d be 52 96 86 bc 2a 78 91 3e e0 ea a6 be
       -0.20092742 -0.0164291 0.2841199 -0.3260107
000260 83 ba 0f be 6d 83 c8 bd ec ef 74 be 5f 8f f4 3e
       -0.14035992 -0.097906925 -0.23919648 0.47765633
000270 42 cf 11 bd 07 c8 1c be 73 45 de be 1f aa 50 be
       -0.035598047 -0.1531068 -0.4341236 -0.20377396
000280 30 41 99 be fe 55 92 3d 22 01 1a be fd 4e 4b bf
       -0.29932547 0.07145308 -0.15039495 -0.794174
000290 b7 95 80 bf 80 14 88 3c 31 21 86 be 06 6c 9f be
       -1.0045689 0.016611338 -0.26197198 -0.31137103
0002a0 7f ef f4 bf 57 5f da 3d f7 fd 49 bf cc 60 21 bf
       -1.9135588 0.10662716 -0.78903145 -0.63038325
0002b0 85 42 90 3e e3 f2 77 bf d1 c4 6a 3c c6 a6 45 3e
       0.2817575 -0.9685499 0.014329151 0.193019
0002c0 60 d9 24 3d 4e a5 5c be cf 48 88 bf 76 e6 a3 bd
       0.040246367 -0.21547434 -1.064722 -0.08002941
0002d0 1a b6 4c be 38 fa 02 be 38 a2 47 3d eb 8e 65 be
       -0.19991341 -0.12790763 0.04873869 -0.224178
0002e0 44 99 c3 be ed 26 d8 be ba b7 82 be 30 00 36 3e
       -0.3820287 -0.42217198 -0.25530797 0.17773509
0002f0 d7 10 7a 3d 06 2c 68 bf 53 96 bb bf b2 02 4a be
       0.061051216 -0.90692174 -1.465525 -0.1972759
