neural_network/models/no_quant_model.tflite (tflite, 41468 bytes, 10 tensors)

sequential/conv2d/BiasAdd/ReadVariableOp f4 [32]
000000 72 01 09 bf 29 fc 89 be 51 5e c1 be b3 94 e2 bd
       -0.5351783 -0.26950195 -0.3776727 -0.110635184
000010 50 5a cb be a3 1f 90 be 10 fb 4f bd c9 39 c5 be
       -0.3971734 -0.28149137 -0.05077654 -0.3852065
000020 96 aa 8d be 9b 71 f1 bd a8 0c 46 be ab 3e 49 bf
       -0.2766921 -0.11789247 -0.19340765 -0.7861125
000030 98 3b f6 be c3 9f e8 bd 7b 40 94 be c9 39 15 bf
       -0.4809234 -0.11358597 -0.28955445 -0.582913
000040 b7 83 2b 3e c3 21 bd bd f6 19 6c be 33 4a 6a be
       0.16749464 -0.09234955 -0.23056778 -0.22879867
000050 f2 ab f4 bd 90 8b a3 be 08 e8 68 be d3 f1 94 be
       -0.119468585 -0.31942415 -0.22744763 -0.29090747
000060 f4 71 17 be dc 3e f6 bd f8 ef 5a be 64 4f 0a be
       -0.14789563 -0.12023708 -0.21380603 -0.13506848
000070 1e f7 5f 3e e6 c9 cd bc 1e d2 8a be 02 28 2f be
       0.21871611 -0.025120687 -0.27113432 -0.17105106

sequential/conv2d_1/BiasAdd/ReadVariableOp f4 [16]
000000 26 4c e7 be 0c 15 96 be ee 48 e4 bd e6 19 ed be
       -0.45175284 -0.29312932 -0.11146723 -0.4630882
000010 cb a9 f8 3d 12 7e ec bd 36 dd 91 bd c2 6d 3b 3c
       0.121417604 -0.115474835 -0.07122271 0.0114397425
000020 cb 4c 9f bd ba 30 d5 be bf ab c3 3d 7b d0 78 be
       -0.07778319 -0.41638738 0.09554242 -0.24298279
000030 35 7d 12 bd b6 46 91 bd 2f b6 52 3c b9 54 b1 be
       -0.035763938 -0.07093565 0.012860819 -0.3463495

sequential/conv2d/Conv2D f4 [32, 3, 3, 1]
000000 06 17 86 3d 36 16 ae 3d aa a5 8d 3e e1 7e 9f be
       0.0654736 0.0850033 0.27665454 -0.31151488
000010 fa 69 1e bd 5d 95 a0 3e 38 34 19 3e 15 fd 98 be
       -0.038675286 0.31363955 0.14961326 -0.29880586
000020 a9 a9 f6 be bf b1 0a be 67 1d 52 3e ac b9 91 3d
       -0.48176315 -0.13544367 0.20519029 0.07115492
000030 a7 61 c5 3d 00 6c e8 bd e1 57 b5 3e f9 09 a0 3d
       0.09637766 -0.11348724 0.3541861 0.07814402
000040 37 ae 9b be 0d 60 43 bd 09 cb b2 bc bc 65 fa bc
       -0.30406353 -0.047699023 -0.02182533 -0.030566089
000050 3a 27 ce be 7b 45 8c bd de ed 3e be 9d ff 02 be
       -0.40264302 -0.0684919 -0.18645427 -0.12792821
000060 78 f2 ef bd 1a 24 21 bd 9b 8a 64 3d 7f e9 56 be
       -0.11716169 -0.03934107 0.055796247 -0.20987509
000070 b6 e6 dd 3d 76 bb f9 bd 66 b8 b7 bd cf fe 66 be
       0.1083502 -0.121939585 -0.08970718 -0.2255814
000080 01 07 b2 3d 46 63 94 bc 8a d6 88 be 91 53 92 be
       0.08692742 -0.018113744 -0.2672618 -0.2857938
000090 ac fc 38 3e 88 86 8c bd e1 25 5f be 1e c2 15 3e
       0.18065137 -0.06861597 -0.21791793 0.14624831
0000a0 18 46 4b 3d bf 9c e1 bd 0f 84 93 be 4d 50 27 3e
       0.049627393 -0.11016225 -0.2881169 0.16339226
0000b0 2a 16 21 3e bf e9 89 3e ed 04 62 be 48 9f d8 3c
       0.15731111 0.26936147 -0.22072192 0.026443139
0000c0 2e b9 b3 bc 3d 5f 21 be 2b b4 a7 be ed 90 24 be
       -0.021938886 -0.15758987 -0.32754645 -0.1607091
0000d0 93 39 10 3e 94 33 5f bd 3c 7c f1 3c b1 33 5f 3d
       0.14084463 -0.054492548 0.029478185 0.054492656
0000e0 19 b8 42 3e dd 43 fe 3d 7e 22 b9 ba 9e 23 7d 3e
       0.1901554 0.12415288 -0.0014124659 0.24720618
0000f0 b6 cc 86 3d 91 6c 21 bc 86 6c a3 bd ee f7 42 bd
       0.06582014 -0.009852544 -0.079796836 -0.047599725
000100 c1 35 01 3c 59 77 0d 3e 12 b9 33 3c 24 1d f5 bd
       0.007886351 0.13815059 0.010969417 -0.11968449
000110 0c 11 bc 3e f7 e3 49 be 18 01 18 be 42 a1 9d 3d
       0.36731756 -0.19715868 -0.14844167 0.07696773
000120 7a 33 ac 3e 64 e6 06 3e 91 8d b5 3e db b0 14 bd
       0.33633024 0.13173825 0.3545957 -0.036301475
000130 a9 c9 1c be 11 19 96 be be d0 6a be ed 20 d9 bd
       -0.15311302 -0.29316 -0.22931191 -0.10601983
000140 7d 30 44 be 78 21 32 3e f0 57 e4 3d c7 f1 77 be
       -0.19159122 0.1739558 0.11149585 -0.24213324
000150 ea 8b d6 3c 4a 9d 37 bc 8b 6b 6f be ed 84 ba 3d
       0.026189763 -0.011206934 -0.23380868 0.09107385
000160 d8 70 e6 bd f5 8c 3c be d9 d9 b7 be 00 85 89 3d
       -0.11251992 -0.18413146 -0.35908392 0.06714821
000170 ae e8 d4 3e f5 b4 83 3d 4c 58 2f be 72 15 ac 3d
       0.4158377 0.06430999 -0.17123526 0.08402528
000180 80 f7 e0 3d 0d 8f 82 3e 40 ce c1 be 85 ed f3 3d
       0.10984707 0.25499764 -0.3785267 0.11910538
000190 79 99 6e be c0 f5 12 3d 65 f4 c8 3d 01 01 b7 3c
       -0.23300733 0.035878897 0.098122396 0.022339346
0001a0 3b f9 72 3d 62 6d e7 3d 92 33 ec 3d b8 b2 68 3e
       0.059319716 0.1130016 0.11533274 0.22724426
0001b0 cc b4 33 3e 9b 3f 8a be 8a 43 0f 3c 16 25 f3 3d
       0.17549437 -0.27001652 0.00874413 0.11872308
0001c0 d0 ea 5b 3e db 90 9c 3e 03 98 a5 be 95 c7 9e bd
       0.21476293 0.30579266 -0.32342538 -0.07752911
0001d0 a3 11 bb be 9a 1a 16 3d 6e 83 ff bb 28 af 7a be
       -0.36536893 0.036646463 -0.00779765 -0.2448088
0001e0 6b 12 3a bd 30 a6 2d 3e 39 1d 0c be c2 e7 35 be
       -0.04542772 0.16957927 -0.13683023 -0.1776419
0001f0 ae a7 dd 3d 25 57 6b bc b2 37 c0 3c 68 9b a1 be
       0.10822998 -0.014364039 0.023464058 -0.31563878
000200 3d 45 67 be 47 15 93 3d a1 5c 5b 3e 3f c6 ab 3e
       -0.22585006 0.07181793 0.21422054 0.33549687
000210 9d 88 66 3d b6 21 19 3e 65 27 04 3e 03 6a 06 bd
       0.05628263 0.14954266 0.12905653 -0.032815944
000220 d8 c1 74 3e 32 87 0b 3e ce 44 25 be 9a 06 5e be
       0.2390207 0.13625792 -0.16139528 -0.21682206
000230 59 04 d8 3d c5 73 8b 3e e7 d2 fa bb cf d3 a0 3e
       0.10547704 0.27236763 -0.007654536 0.31411597
000240 87 77 92 bd 2e 96 8c 3c 46 06 58 be 1c ce b7 3e
       -0.07151704 0.017161455 -0.21096143 0.35899436
000250 ed 9f b8 3e 1c 7f 03 3f ce 17 8e be df a1 c9 be
       0.36059514 0.5136583 -0.27752537 -0.3938131
000260 4f 89 80 be fc 53 22 3e 5a e0 5c be 37 6a 2e 3e
       -0.25104758 0.1585235 -0.21569958 0.17032705
000270 af 3a d6 3d 69 df 1b be bb 06 70 3d 4f c5 6a bc
       0.10460412 -0.15221943 0.05860017 -0.014329269
000280 f3 7a f3 bd 30 2d 7b 3d cf 4b 9e be 9f c1 c8 be
       -0.11888685 0.06132239 -0.30917212 -0.3921022
000290 da 5b 45 be d6 20 de bd 27 f8 90 3d a7 26 5a 3e
       -0.1927332 -0.10846107 0.07078581 0.21303807
0002a0 09 80 bc 3e df 28 9e 3e a5 f3 68 bc f4 02 11 bd
       0.36816433 0.30890557 -0.014218246 -0.035403207
0002b0 8c b9 9b bd 33 6d a2 3d d3 2e 94 bd c9 c1 1a bd
       -0.0760375 0.07930984 -0.072354935 -0.037782464
0002c0 3b 3f 64 3e 32 a8 56 3d 18 12 5f bc 32 86 10 3e
       0.22289746 0.052406497 -0.013615154 0.14113691
0002d0 06 ea a0 3e 0d 8a f6 3d 57 83 84 3e 56 a8 15 be
       0.31428546 0.1203805 0.25881454 -0.14614996
0002e0 f5 8a 1f 3e cb 2b 96 3d e1 ea 0a be a4 db 9e 3e
       0.15580352 0.073325716 -0.13566162 0.31026947
0002f0 d1 fb 9d 3d c6 3c 9f be 49 d9 c1 3d 81 83 a3 3b
       0.07714046 -0.31101054 0.09465272 0.0049900417
000300 3e ca 4c be bf fc 01 bd 95 4c 4f be 8c 61 93 3e
       -0.19999024 -0.031735178 -0.20244057 0.2878536
000310 1d f8 2d be e6 3e d4 be 91 4e 34 3e de 00 34 3e
       -0.16989179 -0.41454238 0.17608096 0.17578456
000320 a4 a6 88 be 03 0d a8 be 3c aa c0 3d 1f 1f 25 3e
       -0.26689637 -0.32822427 0.0940747 0.16125153
000330 35 ee 93 3d 38 5f 8a be 98 77 3a 3e f3 09 04 be
       0.07223169 -0.2702577 0.18209684 -0.1289442
000340 24 a3 84 3e 7c 65 74 bd 68 23 a5 bd 9d 15 f0 bb
       0.25905716 -0.059667096 -0.08063394 -0.0073267953
000350 1c e6 54 bb 06 4a 78 bd dd 6a 48 bd f5 70 b9 bd
       -0.0032485789 -0.06061747 -0.048930038 -0.09054748
000360 82 96 2f be 83 22 9a 3c e6 71 84 be b6 31 6d be
       -0.17147258 0.018815285 -0.25868148 -0.23163494
000370 67 74 af 3b 1c e5 22 3e d5 15 8b be 12 de c2 3d
       0.0053544524 0.15907711 -0.27165094 0.09515013
000380 ff 9d 5e 3e df d0 9c 3e fb 94 03 3f fe f9 02 3f
       0.21739958 0.30628106 0.513992 0.5116271
000390 eb 7f 48 bd 97 dd 80 3d c0 a2 65 3d 19 c6 aa be
       -0.048950117 0.06292265 0.056063414 -0.33354262
0003a0 6b e4 29 bf 9c 7c 0a bf fc d9 f7 bd 1d 53 22 be
       -0.66364163 -0.5409639 -0.12102124 -0.15852018
0003b0 b4 64 87 3d bd fd 91 be 12 af 55 be d2 97 1b bd
       0.066110045 -0.285139 -0.20867565 -0.037986584
0003c0 dd f7 c1 bd 21 ed 6f be b0 d9 03 3d 95 e2 83 3e
       -0.09471104 -0.23430301 0.032190025 0.25758806
0003d0 f7 02 08 3e 2a 87 9e 3e 32 cf 2a bd 8d a7 95 bd
       0.13282381 0.30962497 -0.041701503 -0.073073484
0003e0 2d c4 2f be 95 dd fd b8 e2 1d 21 3e f9 e8 85 be
       -0.17164679 -0.00012105253 0.15734056 -0.26154307
0003f0 45 15 0f 3e 45 9a bc bb dc f9 34 bd 07 9d aa 3d
       0.13972957 -0.005755695 -0.044183597 0.08330732

sequential/conv2d_1/Conv2D f4 [16, 3, 3, 32]
000000 7c b7 b6 bd 94 ba 1f 3e 5f a9 27 3e f7 b2 d6 3c
       -0.089217156 0.15598518 0.16373204 0.026208384
000010 f0 ee e8 be ed 95 11 be 1b 4f 45 be 6f 6f 9b 3e
       -0.45494795 -0.14217348 -0.19268458 0.30358455
000020 2a be f8 3d 2b 67 1b be 15 50 aa bd 64 c4 bb be
       0.12145646 -0.15176074 -0.08316056 -0.36673272
000030 2e 72 e6 bc df 6a 23 be b9 e8 47 be 5b 50 64 bd
       -0.028130617 -0.15958737 -0.1952237 -0.055740695
000040 3a 33 76 3d 17 3d 97 ba 23 62 c9 bd 23 b4 c3 3d
       0.060107447 -0.0011538592 -0.09833171 0.09555843
000050 82 90 ed bd bc 36 c7 3e 87 de 2f be 8b 6f 8e 3e
       -0.11599828 0.38908947 -0.17174731 0.27819476
000060 e3 8a e4 3e 86 8b cf bd c4 3f 56 3e 03 67 81 be
       0.44637212 -0.10134034 0.20922762 -0.25273904
000070 fc 93 c9 3d 05 c5 87 3d fd eb c7 3d 6b f7 30 3e
       0.09842679 0.06629375 0.09761808 0.17281882
000080 ce 93 13 bd 46 46 14 3d 72 3b 30 3d 25 05 50 3e
       -0.03602963 0.03619983 0.04302544 0.20314462
000090 a4 d9 84 be 59 b3 d6 3d 33 05 73 be 12 5c f9 bc
       -0.25947297 0.104834266 -0.23732452 -0.03043941
0000a0 de 80 0e be 8f ef f0 3d 04 2c bf be df 79 49 3e
       -0.13916346 0.11764442 -0.3733827 0.19675396
0000b0 2f af a5 3d 34 c7 dd 3d 5a 7d 3c bc 24 e1 60 bd
       0.08090054 0.108290106 -0.0115044955 -0.05490221
0000c0 1d 52 c6 bd 06 ed 67 3e 83 da 0e be 4b e0 92 bd
       -0.096836306 0.22649011 -0.13950543 -0.07171687
0000d0 af cc 61 be 0a 29 b1 3c 3b 32 b3 bd d0 a0 56 3e
       -0.22050737 0.021626014 -0.08749815 0.20959783
0000e0 43 e0 4e 3e 59 94 fb bb c1 0f 08 bc 66 45 05 bf
       0.20202737 -0.0076775965 -0.008304537 -0.5205902
0000f0 05 4e ad 3d 6a 81 15 bf 7a e9 bb bb 35 c0 bb bb
       0.08462147 -0.58400595 -0.0057346197 -0.0057297
000100 1c 6f c4 bd 08 9e 4c 3e 9f dc 33 3e a0 62 82 3d
       -0.09591505 0.19982159 0.17564629 0.063664675
000110 54 52 c5 be ab 84 25 be 6e b9 28 be a4 95 7f 3d
       -0.38539374 -0.1616389 -0.16476986 0.062398568
000120 f7 b5 df 3d 2a 9d 15 be 02 fa d2 be 07 10 8f 3d
       0.10923379 -0.14610735 -0.41206366 0.06985479
000130 0e 74 5a 3e 80 db 59 3c 15 eb 5f bd 77 98 2c be
       0.21333334 0.013296962 -0.05466755 -0.16855036
000140 bb 7b c0 bc e1 51 97 3d c7 2b 7d bd 58 94 cd bc
       -0.0234965 0.07388664 -0.061809327 -0.02509515
000150 6d 6a b3 bd 44 ed bb 3d 5e 68 82 be 63 58 af be
       -0.087605335 0.09176114 -0.2547025 -0.3424712
000160 30 af b1 3d 99 61 85 3d e2 6d 51 3d 48 79 62 3d
       0.086759925 0.06512756 0.051130183 0.055291444
000170 a0 8e ee 3d 1d e1 fa bc 43 42 44 3e 0d e3 39 be
       0.11648297 -0.03062492 0.19165902 -0.18153019
000180 8a ff bb bd 65 93 53 3d 24 7f 1d 3d c6 b2 d8 bd
       -0.091795996 0.05165424 0.03845133 -0.10580973
000190 3b 68 34 be 09 1f 5a 3e 63 34 8a bd 71 c8 b0 3d
       -0.17617886 0.21300901 -0.06748273 0.08631981
0001a0 ad b0 9c 3e 42 77 ca bc e0 48 3f be 84 c5 8b be
       0.30603543 -0.02471507 -0.18680143 -0.2729913
0001b0 64 cf c4 3e dc 88 1e be 68 0b 88 bc 0d 54 94 3e
       0.38439476 -0.15481895 -0.016607001 0.28970376
0001c0 f5 3e 9d 3d 9b 40 45 be af f8 52 3e f3 56 a0 3d
       0.07678024 -0.19262926 0.20602678 0.07829084
0001d0 12 05 11 bd 64 59 ed bd ae f9 41 be 30 71 e3 bc
       -0.035405226 -0.115893155 -0.18942901 -0.027763933
0001e0 ab 57 da ba f0 07 5f be 09 35 ae 3d 18 4e 9c be
       -0.0016658207 -0.21780372 0.085062094 -0.3052833
0001f0 c7 81 a3 3c f7 72 20 3e 3f 82 1a 3e 7e be d9 3e
       0.019959344 0.15668856 0.15088747 0.42528147
000200 d1 3a f6 bd 49 8f 87 bd 18 77 40 be e2 ab 33 be
       -0.12022937 -0.06619126 -0.1879543 -0.17546037
000210 8c 7b 75 bc 7a fb 3c 3e cc f4 32 bd d0 ba 17 3e
       -0.014983069 0.18455306 -0.043690488 0.14817357
000220 ed 08 ef bd fd a8 83 bd 1f 63 71 3c 19 fe 47 3e
       -0.11671624 -0.06428716 0.014733105 0.19530524
000230 44 36 8f 3e 54 0f 05 be db b7 a3 3d 4d 9e 52 3e
       0.2797109 -0.12994128 0.07994052 0.205682
000240 b3 72 e8 bd d9 b0 61 bd e9 02 b9 3d 78 fd 2d 3e
       -0.11350002 -0.055100296 0.09033758 0.16991222
000250 85 24 ad bc 1f b9 36 be c2 f6 97 3b b2 4c 08 bd
       -0.021135578 -0.17844056 0.00463757 -0.033276267
000260 9d a4 8b bd 83 71 0c bd 66 e5 2e be 3d ce 49 be
       -0.06818507 -0.03428794 -0.17079696 -0.1970758
000270 69 62 6b be 40 68 18 3e e6 7c a2 3d b2 10 6d 3e
       -0.22986759 0.14883518 0.07933979 0.231509
000280 c2 ce ef bc cb d7 60 be df 3e 62 bd 26 19 0f be
       -0.029273394 -0.21957318 -0.05523574 -0.13974437
000290 9a 74 af 3d 25 d0 81 bd 18 9d 64 be 32 9e 8f be
       0.08567162 -0.063385285 -0.22325552 -0.2805038
0002a0 2e 51 c8 bd e1 72 6d 3e ea 5f 57 be 53 a7 db 3d
       -0.09781109 0.23188354 -0.21032682 0.10725274
0002b0 ad ba 16 3e 8f e4 bf 3d c1 54 65 3c fc 1a fc 3d
       0.14719649 0.09369766 0.013997258 0.12309834
0002c0 22 c0 16 bd 56 bc 1a bc cd 0d 3b bd af e0 e1 bd
       -0.036804326 -0.009444317 -0.04566746 -0.11029183
0002d0 12 6f 71 3e 19 b6 05 be 8c 6d 97 be 91 24 81 bd
       0.23577526 -0.13057746 -0.29575765 -0.063058026
0002e0 37 64 d2 bd 31 17 6a be 5d d0 ad bd a1 32 e4 3c
       -0.10273021 -0.2286041 -0.08487008 0.027856173
0002f0 47 8e c1 3d b9 eb 42 bd 54 40 10 3e 14 cc 31 3e
       0.094509654 -0.047588084 0.14087039 0.17363006
000300 4d 0a 96 be 6f 21 a7 be 14 77 47 be eb cd 6c be
       -0.29304734 -0.32642695 -0.19479018 -0.23125426
000310 e3 c0 ca bc 58 97 6f be d1 6c d0 3e 75 d0 09 bf
       -0.024750179 -0.23397577 0.4070802 -0.53833705
000320 18 be b2 3d 24 14 4a 3e 31 59 ff bd 5b c1 95 3d
       0.08727664 0.19734246 -0.12468184 0.0731227
000330 77 fb 22 3e 9c 60 63 3e 96 bf ff 3d 54 fd f3 3d
       0.15916239 0.22204822 0.12487714 0.11913553
000340 0f ba 66 3c eb 9d 8b 3d 17 02 0e 3e 86 80 20 be
       0.014082446 0.0681723 0.13867985 -0.15674028
000350 14 0d 84 3e bf 0a 70 be 43 45 7d 3c 35 5f 5d 3d
       0.25791228 -0.234416 0.015458408 0.054045875
000360 7c 23 14 be e9 d9 8d 3d a7 23 f9 be 02 7f b8 3e
       -0.14466661 0.06926329 -0.48660013 0.360344
000370 37 d4 32 be ec 8e ed 3d 4b fa 7a 3e 4f 40 c5 be
       -0.17463766 0.11599526 0.24509542 -0.38525626
000380 25 6a 72 bb 2b 4c 84 be 91 cf e2 3c 32 f7 93 be
       -0.0036989537 -0.25839362 0.027686866 -0.28899533
000390 60 b0 d3 3d de 43 0a 3d f4 a6 5c 3d 91 e4 82 3d
       0.10336375 0.03375613 0.053870156 0.06391252
0003a0 a7 41 51 3d af d9 94 3c 26 40 64 bd 0b 01 74 3d
       0.051088 0.018170206 -0.05572524 0.059571307
0003b0 6f b5 8d bb 11 b6 84 3d d2 0a b3 3d d2 71 90 3d
       -0.004324607 0.06480039 0.08742298 0.070529595
0003c0 fb 4a 26 bd 2c e8 7b be 40 b2 43 3e fa 86 75 3d
       -0.04059885 -0.24600285 0.19110966 0.059943177
0003d0 f6 c8 14 3e 38 7b 8c be 23 14 a2 3d 14 e6 d0 bd
       0.14529786 -0.27437758 0.07913997 -0.10200134
0003e0 1d 5e 0a bd 11 d3 fb 3d 9d f8 88 be 80 c9 27 be
       -0.03378116 0.12296117 -0.26752177 -0.1638546
0003f0 cb 24 2d be 98 b4 c9 be d3 31 10 be 01 35 f5 bd
       -0.16908567 -0.39395595 -0.14081506 -0.11973

sequential/dense/BiasAdd/ReadVariableOp f4 [8]
000000 f6 9d ea bd 81 8f 26 3e 5b 6d b2 3d 15 af ee 3e
       -0.1145591 0.1626568 0.08712264 0.46617952
000010 99 7a e6 bd 0a 96 cb 3d 6d cd 4f 3c c4 8a 65 3d
       -0.112538524 0.09940727 0.012683255 0.05604054

sequential/dense_2/BiasAdd/ReadVariableOp f4 [6]
000000 df 1a cf 3e 5a a4 e4 be 59 fb 61 bf ef 9f 1e be
       0.4045019 -0.4465664 -0.8827415 -0.15490697
000010 8e 4a f9 3d 6b 9b 8e 3f
       0.12172423 1.114118

sequential/dense_1/BiasAdd/ReadVariableOp f4 [16]
000000 6f 4c ff be 19 75 0c bd 0c 9c ea be 13 18 34 be
       -0.49863002 -0.03429136 -0.4582218 -0.17587309
000010 2d 7c c1 3e bd 72 3c 3d a8 a5 d9 3d bf ec 64 3e
       0.3779005 0.04600786 0.106272995 0.22355936
000020 a5 68 84 be 41 60 43 be ba 17 d1 bd 3d 7d 4b 3e
       -0.25861087 -0.19079687 -0.102096036 0.19871993
000030 87 68 8a 3e 2e b3 1b bc e2 8e b0 3b 07 47 48 3e
       0.27032873 -0.009503169 0.0053881267 0.19558345

sequential/dense/MatMul f4 [8, 528]
000000 9b 5a ad bd 2c 5a 63 be ac da 40 bd 10 67 ae be
       -0.08464547 -0.22202367 -0.04708354 -0.34063005
000010 19 f2 3a 3d c9 4e a4 3b d0 a4 f1 3c 3a 08 26 3e
       0.04564104 0.0050142747 0.029497534 0.16214076
000020 8c 1a 37 3d 6e 69 f9 3d 9b b6 f1 bc 92 5d 6f 3d
       0.04470305 0.12178312 -0.029506018 0.058438845
000030 4b ff 59 ba 6f 3c 9d bd 74 e2 34 3d c0 71 06 3e
       -0.00083159347 -0.076775424 0.044161275 0.1312933
000040 5e b7 d0 bd ea e2 70 be 7a 3b a6 3d 99 ac ed bd
       -0.101912245 -0.23524061 0.08116813 -0.11605186
000050 41 b4 2c 3d 20 63 32 3d 76 a9 0f 3e 64 cc 3b 3e
       0.04216409 0.043551564 0.14029488 0.18339688
000060 b8 13 90 3d c5 92 9c bd df 10 89 3d d9 4e 8a 3e
       0.07035011 -0.076451816 0.06692671 0.2701328
000070 dc cb c7 bc 04 9f 99 3d 5c a2 1f 3a 1b db 0b 3f
       -0.0243892 0.07501033 0.0006089562 0.54631203
000080 0f ea d9 bc d9 94 ae be a1 cf 14 3c 31 4d 8b be
       -0.026600866 -0.34097937 0.009082706 -0.2720733
000090 80 a4 4c 3e 72 34 5e bd 37 0d 32 be 1b 93 03 3e
       0.19984627 -0.054249234 -0.17387854 0.12849085
0000a0 9d e2 7f bf 80 2c ce bd c1 0a 50 3e f2 c6 00 3e
       -0.9995516 -0.100670815 0.20316602 0.12575892
0000b0 63 c2 68 3e 75 64 88 bd 65 a9 1b 3e 83 41 42 be
       0.22730403 -0.06659786 0.15201338 -0.18970303
0000c0 6c b6 1b be f7 5d 33 3e d7 23 f7 3d 0f 3e e1 be
       -0.15206307 0.17516313 0.12067383 -0.4399266
0000d0 34 b6 a2 3c b9 26 41 3d 00 fa c6 3d 79 b9 73 3e
       0.019862272 0.04715607 0.097156525 0.23801221
0000e0 3a a9 d8 3c 2e 2c 1c ba ed 5d b3 bd 9b 48 58 3b
       0.026447881 -0.0005957511 -0.08758149 0.003300226
0000f0 64 ab 59 be 90 99 f7 3d 5c 45 9b bc e2 4d 46 be
       -0.21256787 0.120898366 -0.018953972 -0.19365647
000100 62 9b 85 be 8a 48 db be e6 14 17 bd d1 a0 4f bb
       -0.2609511 -0.4282878 -0.036885165 -0.0031681547
000110 66 b3 95 3e 0e 4a 4a bd 49 39 92 3e 9b 6f 91 be
       0.29238433 -0.04938703 0.2855933 -0.2840546
000120 12 9f 02 3f cb 4f ab be ba c8 3f 3d 1c 41 a4 3d
       0.5102397 -0.33459315 0.046822287 0.08020231
000130 6b 97 17 bd 1d a5 4d bd 03 97 03 bf 3a 8a e2 bd
       -0.037009638 -0.050206292 -0.514023 -0.11061521
000140 ca bb 9b 3e 88 52 c9 bd da 3b ae 3c c1 ed 22 3e
       0.3041671 -0.09830195 0.021268774 0.15911008
000150 de 5a ec bc 03 67 50 3c 9b 12 64 bf fc c5 3f 3e
       -0.028851923 0.012719872 -0.8909089 0.18727869
000160 c0 13 5a be 65 4c 3a 3d cf ce 65 bd f1 1f 43 3d
       -0.21296597 0.04548301 -0.05610543 0.047637884
000170 cd 37 1c bd 4d 77 e1 be 10 70 7e 3e 83 71 da 3d
       -0.038139153 -0.44036332 0.24847436 0.10666182
000180 86 cb 8d be b7 db 9e 3e 8e bb 61 bd e2 37 99 be
       -0.2769434 0.31027004 -0.055110507 -0.29925448
000190 4e 69 eb bd dc 9f 09 be 7d 2a c6 3d 2a 9d 14 3e
       -0.11494695 -0.13439888 0.09676073 0.14513078
0001a0 5e b4 67 3c 6d 44 ae 3c d6 58 33 be 30 c5 66 3e
       0.014142124 0.021272862 -0.17514357 0.22536159
0001b0 cc 94 1d be 3a 69 ac 3e 59 c6 6e 3d 5e 73 58 be
       -0.15388793 0.33674031 0.058294628 -0.21137759
0001c0 97 fe 9d bd 5a 68 98 be 70 19 36 be b4 b2 2e 3c
       -0.07714575 -0.29767114 -0.17783141 0.010662723
0001d0 07 d7 78 3e 6c a0 f2 bd 0b 2c 69 3e 43 c2 b2 bd
       0.24300776 -0.11847004 0.22770707 -0.08728459
0001e0 5d 47 ce 3e 0c 28 29 be 08 97 21 3d 63 1d 78 3b
       0.4028882 -0.16519183 0.039450675 0.0037859313
0001f0 28 9b bd 3d 2f 9f e9 bd f2 cb 3c bf f4 f8 43 be
       0.09258109 -0.11407315 -0.73748696 -0.19137937
000200 e1 94 ca bd e2 02 e1 3e 60 e4 0b 3e 3d ff fa bd
       -0.09891678 0.43947512 0.13661337 -0.12255714
000210 fb aa 06 3e 1b 8f 08 be f3 8a 45 bf 8f e3 2b 3d
       0.13151161 -0.1333584 -0.77165145 0.041965064
000220 97 71 bb 3d 8a d7 c1 bd 4f 14 49 be 74 6c fb be
       0.09152525 -0.09464939 -0.19636653 -0.4910618
000230 52 3a ad bb 51 84 26 be 00 18 5f 3d 2e 84 86 be
       -0.0052864933 -0.16261412 0.054466248 -0.2627272
000240 6a 72 96 be 79 56 a5 3e df 19 b3 3d 9b cd d2 be
       -0.29384166 0.32292536 0.08745169 -0.4117249
000250 7c 32 b1 bd 63 1e b5 bd d5 48 07 3e 5f 05 bf 3e
       -0.08652207 -0.088436864 0.13211377 0.37308785
000260 08 c6 44 3e 58 fa b7 3d b9 90 13 3a a3 f4 a3 3c
       0.19216168 0.08983296 0.00056291703 0.020014113
000270 27 18 05 be 43 68 d3 3d 1a d1 83 3d 54 d0 6a be
       -0.12997495 0.10322621 0.06436367 -0.22931033
000280 f7 6a 64 be a0 f7 54 be 7c a0 a1 bd fb 54 3d be
       -0.22306429 -0.20797586 -0.07891938 -0.18489449
000290 ca a0 3d 3e ca 4d 39 be 67 8c e7 3e db 79 fe 3d
       0.18518367 -0.1809608 0.45224306 0.12425586
0002a0 4e 93 2b 3e 68 80 c7 bd de 7e 84 be ff 83 07 3e
       0.16755411 -0.097412884 -0.25878042 0.13233946
0002b0 80 38 f9 bb f0 dd bb 3b ae 43 c5 be fb b6 5c 3d
       -0.0076056123 0.005733244 -0.38528198 0.05388544
0002c0 e8 71 83 be 00 1d b1 3c 91 27 91 bd f3 34 66 be
       -0.2567284 0.021620274 -0.07087625 -0.22481136
0002d0 5c 7d 01 bd 9f b5 71 bd e0 4d cb be 63 b9 f1 3d
       -0.031613693 -0.059011098 -0.3970785 0.11802938
0002e0 58 99 98 bc 82 d1 1b be da 59 b4 3d e0 5d 45 be
       -0.018627807 -0.1521664 0.088062 -0.19274092
0002f0 38 6a f8 3d 86 48 a1 be 39 3a 43 3e 82 4b 1c 3b
       0.121296346 -0.31500643 0.19065179 0.0023848717
000300 16 74 08 3d c0 ac cb 3e f4 da 75 3d c8 f1 9f be
       0.033313833 0.39780235 0.060023263 -0.31239152
000310 d8 ca 8b bd 07 fd 85 bd d6 8f 38 3e 14 60 78 3e
       -0.06825799 -0.06542402 0.18023619 0.24255401
000320 93 45 4a 3d 15 f9 13 3e 2a fc 8a bd 05 c8 b8 3d
       0.049382757 0.14450486 -0.06786378 0.09022526
000330 d8 d9 88 be 21 80 03 3e f8 fe ff 3d e0 55 85 be
       -0.26728702 0.12841846 0.12499803 -0.2604208
000340 a3 01 3a 3d 0e b6 83 bd 71 a0 4b bd 06 78 d7 bd
       0.045411717 -0.064312086 -0.049713556 -0.105209395
000350 48 76 b0 3d 48 96 94 bd cc f0 d6 3e 55 b6 0f be
       0.0861631 -0.072552264 0.41980588 -0.14034398
000360 8e df 44 3e ba c9 02 be 4d dd 38 3e 6f 0d 57 bd
       0.19225904 -0.12772265 0.1805317 -0.052503046
000370 f0 9a 9b 3e 5d 9e 2f be 35 65 d9 be 25 77 80 3c
       0.30391645 -0.17150255 -0.42460027 0.015681813
000380 b7 4a 83 be 3f ce 0f 3e 0d 00 fd 3c 19 08 73 3d
       -0.2564294 0.1404352 0.030883813 0.059333894
000390 71 e3 84 3e 2e 5f 08 be ae 1f ce be 7a 6b 06 bc
       0.25954774 -0.13317558 -0.40258545 -0.008204335
0003a0 34 6d a4 3d 58 27 07 be be f3 a8 bd c7 09 cc be
       0.08028641 -0.13198602 -0.08249615 -0.3985121
0003b0 bc 79 18 3e 55 a7 4b be cb d2 15 3e 98 f6 4c 3e
       0.14890188 -0.19888051 0.14631192 0.20015943
0003c0 57 57 34 bd ec 22 c7 3e 69 fa d3 3d 63 36 88 be
       -0.044028606 0.3889383 0.10350496 -0.26603994
0003d0 62 54 d5 bd 9e 23 ab be 7b 0b 37 3e 34 19 37 3e
       -0.10416485 -0.3342561 0.17875473 0.17880708
0003e0 3b 0d 82 3d b8 af 0b 3e 3d 35 d3 bd 19 41 dc ba
       0.0635018 0.1364125 -0.10312889 -0.0016804069
0003f0 dd 6f d0 bd 7d 81 0c 3e 0e e0 00 be 10 90 ae be
       -0.10177586 0.13721271 -0.1258547 -0.34094286

sequential/dense_1/MatMul f4 [16, 8]
000000 fe 25 f7 bd 35 b8 5d bd dc 6b ea be 02 87 73 3e
       -0.12067793 -0.05413075 -0.45785415 0.2378197
000010 98 53 0c bf f0 d3 91 be fb c4 15 3f 58 d1 a8 bd
       -0.54815054 -0.28482008 0.58503693 -0.08243054
000020 f0 1f 0f 3d ba 13 92 bf fd ad f7 be 82 e7 96 3e
       0.034942567 -1.141227 -0.4837493 0.294735
000030 46 0e f4 3e e0 44 c7 be 07 8b 71 bd d1 3d 21 3f
       0.4766714 -0.38919735 -0.058970477 0.6298495
000040 d5 de 0e 3b c0 10 c7 3e c2 b2 93 be 5f d3 c7 be
       0.0021800299 0.38879967 -0.2884732 -0.3902845
000050 75 1b 04 be 9f a6 80 be 3f 2e bd be 55 e3 2b 3f
       -0.12901099 -0.25127122 -0.36949345 0.67143756
000060 1d 05 51 3d 4e 35 9e bf 9d b2 01 bf dc 19 c9 3e
       0.051030267 -1.2360017 -0.5066317 0.39277542
000070 1f 7d 09 3e 61 bb e1 be 1d 2d af bc 42 df 8a 3f
       0.13426636 -0.4408827 -0.021383816 1.0849383
000080 3b e4 24 3f 09 82 e0 3d 59 42 25 bf 09 da 82 bf
       0.6441075 0.10962302 -0.64554363 -1.0222789
000090 4e 62 20 bd e5 94 2e bf 0e de af 3e 53 38 f6 b9
       -0.03915625 -0.68195945 0.34349102 -0.0004696274
0000a0 27 de 69 3c 5b 86 eb 3e 59 ab 0d 40 31 56 e0 bc
       0.014274157 0.46000943 2.2135832 -0.02738485
0000b0 d6 f2 1b bf b3 4a f7 3f 5f 66 a2 3d ef 6f 7c bf
       -0.60917413 1.9319671 0.07929682 -0.986083
0000c0 46 6b 19 3e ab 24 08 3f 93 7f 18 40 91 b0 24 be
       0.14982328 0.5318095 2.3827865 -0.1608298
0000d0 fd bb d5 3c 34 f0 10 40 ae 8f eb bc 3c d0 f3 be
       0.026090616 2.2646608 -0.028755035 -0.47619808
0000e0 06 5a 7e 3f 19 24 fd 3c a2 f4 0a bf b2 f5 5f be
       0.99356115 0.030901002 -0.5427953 -0.21871069
0000f0 5e 5a ba 3f d9 89 f2 be 8f 07 0b 3e 43 ed 8f 3e
       1.4558828 -0.47370794 0.13577102 0.28110704
000100 2a 83 67 3f 40 fa 3b 3d 64 e4 99 be a4 4e cd 3d
       0.90434515 0.045892954 -0.3005706 0.10024765
000110 ce dd 25 be d4 9e d5 be a4 c8 f9 3e 1b 69 f8 bc
       -0.16197893 -0.4172274 0.4878589 -0.030323556
000120 b6 f0 88 3d 5f 57 1d bf fc 58 57 bd 11 0a 8a bd
       0.06686537 -0.6146144 -0.052575096 -0.06740201
000130 00 61 04 3f a7 ee 0a bf 37 b8 06 bf 1f 85 ec 3d
       0.5171051 -0.54270405 -0.5262484 0.11548828
000140 36 27 af bd 3f d1 c5 bc 99 94 ea 3f 28 d7 db 3e
       -0.08552401 -0.024147628 1.8326598 0.4293759
000150 90 02 4e bc b9 ff e6 3f ba bf bd 3e bb 8e a5 3e
       -0.012573853 1.804679 0.37060338 0.32335457
000160 58 2b 71 3f 50 af 63 3c 56 06 34 bf 6b 37 35 be
       0.9420676 0.013896778 -0.7032217 -0.17696922
000170 63 1e be 3f 58 92 0a bf a8 b6 79 3e 11 59 96 3e
       1.4853023 -0.5412955 0.24386084 0.29364827
000180 c4 ee 50 3f ba bc 14 be c9 33 24 bf ac da c7 bd
       0.8161433 -0.14525118 -0.6414152 -0.09758505
000190 6d 07 0c bc fe 96 e3 be d1 c3 f3 3e 8e 48 31 bc
       -0.008546692 -0.44451135 0.47610334 -0.010820521
0001a0 3f fd 89 be f6 db 4a bb cb 96 d6 3e b0 f6 04 3f
       -0.26951024 -0.003095386 0.4191192 0.51938915
0001b0 e2 d6 4f bc b9 80 cf 3e b8 8c 85 3c d1 6b 12 3f
       -0.012685509 0.40527895 0.016302451 0.57195765
0001c0 7d ea d9 bc 7f 34 da 3e f1 12 0f 40 d1 15 12 3d
       -0.02660107 0.42618176 2.235531 0.035665337
0001d0 be 82 17 bf 65 4a 03 40 45 14 af 3e ee d0 b3 bc
       -0.5918387 2.0514157 0.34195152 -0.021950211
0001e0 2f 19 fa 3d 99 30 b9 3e 3d bc 3b bf 30 2a d0 bf
       0.12211835 0.3616989 -0.73334104 -1.6262875
0001f0 4e a5 85 3d 13 e0 dd be 4b a6 40 3b 96 5b 74 bf
       0.0652567 -0.43335018 0.0029395993 -0.9545225

sequential/dense_2/MatMul f4 [6, 16]
000000 72 25 9e bf 3b 15 e8 be 19 9b 83 bf d4 79 03 bf
       -1.2355177 -0.45328698 -1.0281707 -0.5135777
000010 cd 92 aa bf 44 77 8d 3e e1 1b 95 3e ba c8 40 c0
       -1.332605 0.27630055 0.29122832 -3.0122514
000020 9e 1b 14 c0 5b 32 23 c0 f9 24 4c 3e 5f 35 28 c0
       -2.3141856 -2.5499485 0.19935979 -2.6282575
000030 bc eb 38 c0 d8 5d 19 3e 8f 03 1b 3f b2 ee 16 bf
       -2.889388 0.14977205 0.60552305 -0.5895797
000040 eb 8b bc 3d fd 03 0a 3f f4 90 d1 3e 59 bf 03 3f
       0.09206375 0.53912336 0.40930903 0.5146385
000050 a4 d2 2a bf 7e 92 8c bf 8e 4d 65 bf 2e dc 65 bd
       -0.6672766 -1.0982206 -0.89571464 -0.056118183
000060 17 6d f7 be 77 50 08 3f d3 85 0a 3d d7 a3 b6 3e
       -0.48325416 0.5324778 0.03381903 0.35671875
000070 b0 96 01 bf 4d c1 2a 3e 4c a6 5b bf 97 3b 17 bf
       -0.50620556 0.16675301 -0.85800624 -0.590753
000080 aa 81 b1 3e a1 21 c3 be 9a 98 93 3e b8 4a 37 bf
       0.34669238 -0.38111594 0.28827363 -0.71598387
000090 18 d9 84 3e 1e 74 b6 3d 87 cb 2e 3e 89 f7 a2 bd
       0.2594688 0.08908866 0.17069827 -0.0795737
0000a0 ad 9a aa 3e c7 96 c9 be 4f 90 af bd 5b 58 a5 3e
       0.33321133 -0.39372846 -0.085724466 0.32293972
0000b0 c2 9d d6 3e e3 60 2d bf b5 64 ce 3e e4 c9 97 3e
       0.41917235 -0.6772596 0.40311208 0.29646218
0000c0 2e de 1d bf bd 18 f3 3e ce 39 88 bf 40 d6 81 3e
       -0.61667144 0.4747981 -1.064264 0.25358772
0000d0 32 55 66 3e 2c ef 46 bf 23 da f1 3b af dd 59 bd
       0.22493437 -0.777087 0.0073807403 -0.05318993
0000e0 38 18 a1 3e 5b 26 0a 3f b6 d9 6c bf aa d8 b3 3e
       0.3146379 0.53964776 -0.925197 0.3512624
0000f0 1c 73 d2 3e cc 9b 1b bf 18 5b e3 be 1b e1 f6 3d
       0.41103446 -0.607846 -0.44405437 0.12054654
000100 c0 15 d2 3e 44 64 04 3f 87 d5 50 3e 67 9c 00 3f
       0.4103222 0.51715493 0.20393954 0.5023865
000110 3e 59 0d 3e be 9c 34 bf 65 a3 43 bf c8 ba 49 be
       0.13803574 -0.7055167 -0.76421195 -0.19700158
000120 e7 76 88 3e 87 ff 84 3d 50 2c 9c 3c d8 29 62 3e
       0.26653215 0.064940505 0.019064099 0.22086275
000130 f4 7f b7 3e 63 4a 2f 3e 15 ca 8c 3e 58 76 6c bf
       0.35839808 0.1711822 0.27497926 -0.9236808
000140 7e f9 e8 be d9 10 bb be f1 fe b7 3e 64 d3 40 be
       -0.45502847 -0.3653629 0.35936692 -0.18830639
000150 8f ae c2 3d 60 ac ae 3d 93 07 1f 3e 30 c1 b9 be
       0.09505951 0.08528972 0.15530233 -0.36280203
000160 fe 33 13 be be 2f 5d bf 2d 70 57 bf 3d 1c 35 3d
       -0.14375302 -0.86400974 -0.8415554 0.044216383
000170 3c 1a 24 bb 10 17 4d bf a1 98 cf 3e 2f 08 8a 3e
       -0.002504005 -0.80113316 0.40546134 0.2695937
