neural_network/models/no_quant_model.tflite (tflite, 46004 bytes, 8 tensors)

sequential_2/conv2d_4/BiasAdd/ReadVariableOp f4 [32]
-0.112585135 0.075062655 -0.22040649 -0.4865813 0.054335754 -0.08228105 -0.101684675 -0.028142875
-0.066444606 -0.092558905 -0.0045521776 -0.35306692 -0.04598368 -0.029948045 -0.32637295 -0.043478142
-0.327292 -0.04207817 -0.08663628 -0.34999514 -0.081353106 -0.07671759 -0.13531536 -0.1439536
-0.26480514 -0.12522613 -0.08287437 -0.1839413 0.04538465 -0.058483325 -0.121432126 0.017486164
00000000: 0993 e6bd 73ba 993d 3db2 61be 2f21 f9be
00000010: 2b8f 5e3d f882 a8bd 0e40 d0bd e38b e6bc
00000020: 1c14 88bd 868f bdbd 6f2a 95bb 30c5 b4be
00000030: 6259 3cbd 9a55 f5bc 5b1a a7be 2316 32bd
00000040: d192 a7be 295a 2cbd 5d6e b1bd 9032 b3be
00000050: 759c a6bd 1d1e 9dbd 1c90 0abe 9368 13be
00000060: 8a94 87be 473b 00be 0aba a9bd 1c5b 3cbe
00000070: 41e5 393d 368c 6fbd 68b1 f8bd 253f 8f3c

sequential_2/conv2d_5/BiasAdd/ReadVariableOp f4 [16]
0.03430485 -0.16228251 -0.019355066 0.23633124 -0.033101294 0.110567 -0.029898405 0.12348789
-0.13399334 0.104263924 0.03254392 -0.011594221 0.030262506 0.11244029 -0.038707126 0.08336783
00000000: 3e83 0c3d 632d 26be 848e 9ebc d100 723e
00000010: 3995 07bd f470 e23d 80ed f4bc 38e7 fc3d
00000020: 8d35 09be 5388 d53d c64c 053d b0f5 3dbc
00000030: 13e9 f73c 1847 e63d 5d8b 1ebd c1bc aa3d

sequential_2/conv2d_4/Conv2D f4 [32, 3, 3, 1]
0.16286013 -0.07531275 0.14983676 0.26186973 0.039282065 -0.0012217453 0.20767209 -0.012817525
-0.18507132 -0.47229266 -0.07556364 -0.016240507 0.07693433 0.16409658 -0.16427149 0.41504413
0.029515795 -0.08185965 0.00015773631 0.19397841 -0.064069815 0.11006448 -0.16028965 0.35727698
-0.2454467 -0.07690883 0.23195027 0.11392722 0.15865664 0.086074226 0.11544646 0.012937092
0.13777396 -0.020773683 -0.028011948 0.23520103 -0.14572443 0.47221467 0.31039655 -0.03104108
-0.048884146 0.14558567 0.1430676 -0.41630155 0.012075614 -0.07672785 -0.14750785 0.12036152
0.074569464 -0.14306867 -0.10771534 -0.07177594 -0.0063794814 -0.36910853 -0.050574854 0.21897621
-0.24461946 -0.2430562 0.013391498 -0.036432587 0.3516411 -0.1913676 0.120329775 0.2722082
0.02036918 -0.40171617 0.08358951 0.16205221 -0.27517012 -0.06532457 0.27257457 0.11757285
0.024725106 -0.077829525 0.06577523 0.11053259 -0.13163704 -0.060054537 -0.003869598 0.031203754
-0.065757595 -0.07964958 -0.0049131806 -0.08258136 -0.06265408 0.008979879 -0.26158828 0.009836404
0.119469546 -0.24411233 0.12930515 0.06286428 -0.5234143 -0.11574767 -0.051600687 -0.06643532
-0.024526618 0.12224865 0.28439027 0.046473563 -0.041019846 0.045654144 0.10009456 0.15084282
0.24389917 -0.041477844 0.16373707 0.3332161 -0.012678323 0.21675019 0.019260807 0.025638696
0.1092849 0.13694012 0.26032647 -0.030765662 0.08433557 0.28383824 -0.050761152 0.008521055
-0.20689607 -0.26530054 -0.07740418 -0.10492364 0.29590237 -0.044682708 0.0009908362 0.15847158
-0.32983357 -0.02866638 -0.07884504 -0.30988452 0.025517602 -0.047743686 -0.11882236 0.22445741
-0.07551801 0.24240512 -0.07874565 0.03652016 0.06702572 -0.15446654 0.06294181 -0.28157154
0.026481945 -0.2325836 -0.20108342 -0.0016997594 -0.07885619 -0.18779239 0.021454016 -0.015870465
-0.31491944 -0.11768894 0.14500563 -0.0029737232 -0.14270546 0.19391257 -0.1644325 -0.034426168
0.14192717 -0.22116959 -0.2950467 -0.040870257 -0.11011268 0.12957527 -0.10427113 -0.15069623
0.26234716 0.06717534 0.11911211 0.0662352 -0.09075941 -0.081140466 0.12674302 -0.04632595
-0.33986494 0.16547677 0.05190365 -0.3366369 -0.17037554 0.028626777 0.1414316 0.0036286593
-0.18464404 -0.09863978 0.08759712 -0.093823 -0.07609228 0.080705866 -0.16186571 -0.22889358
0.07457539 0.2448887 -0.16670813 -0.051723734 -0.045345515 0.2972616 -0.10816926 -0.17543854
0.021813815 -0.085774444 0.046181027 0.23684032 -0.017267998 0.2385148 -0.023393502 0.12737916
0.030360837 -0.14844796 0.01783725 0.15148862 -0.30277663 -0.006724782 -0.22158204 -0.20253427
0.19549705 -0.0499017 -0.49541453 -0.11744399 -0.018836273 0.004798576 -0.15412715 0.10524688
0.26410046 -0.14655745 0.28318495 -0.14081272 -0.08207726 0.19726813 -0.23137163 0.12330358
-0.17213416 -0.08122988 0.008755689 0.09579848 0.3609583 -0.0671541 -0.2128754 0.29074752
0.019399283 -0.028954815 -0.026201367 0.20901667 -0.14949892 -0.18475153 0.09380317 -0.093367904
0.0073607285 -0.27970085 0.15582848 0.11070913 0.016229883 0.16138378 0.03726578 -0.16730134
00000000: cec4 263e 923d 9abd cf6e 193e ca13 863e
00000010: 3be6 203d f822 a0ba fea7 543e 9900 52bc
00000020: 5683 3dbe 58d0 f1be 1cc1 9abd d00a 85bc
00000030: bf8f 9d3d ef08 283e c936 28be aa80 d43e
00000040: 1ccb f13c 08a6 a7bd 0566 2539 47a2 463e
00000050: 0937 83bd 7c69 e13d f822 24be 02ed b63e
00000060: 6156 7bbe 6082 9dbd 5f84 6d3e ad52 e93d
00000070: e376 223e af47 b03d 326f ec3d 19f6 533c
00000080: 9e14 0d3e 922d aabc 5079 e5bc 8ad8 703e
00000090: c938 15be 1fc6 f13e 4cec 9e3e dd49 febc
000000a0: be3a 48bd 6914 153e 5080 123e 7a25 d5be
000000b0: ccd8 453c 7e23 9dbd 4c0c 17be 1a80 f63d
000000c0: e0b7 983d 9880 12be dc99 dcbd 44ff 92bd
000000d0: f80a d1bb cbfb bcbe 9427 4fbd 4d3b 603e
000000e0: 867d 7abe b9e3 78be 0368 5b3c 563a 15bd
000000f0: 4d0a b43e def5 43be 756f f63d e05e 8b3e
00000100: 44dd a63c bead cdbe fa30 ab3d 04f1 253e
00000110: 19e3 8cbe e3c8 85bd e58e 8b3e 09ca f03d
00000120: 4e8c ca3c 1665 9fbd 2ab5 863d e95e e23d
00000130: dccb 06be bffb 75bd 1599 7dbb 049f ff3c
00000140: ebab 86bd 521f a3bd bffe a0bb 6b20 a9bd
00000150: c850 80bd 5820 133c e6ee 85be de28 213c
00000160: 73ac f43d 95f8 79be 9268 043e fdbe 803d
00000170: 7bfe 05bf 1d0d edbd 3e5b 53bd 3e0f 88bd
00000180: 0cec c8bc 805d fa3d 9a9b 913e 105b 3e3d
00000190: 6d04 28bd d7ff 3a3d 60fe cc3d 8a76 1a3e
000001a0: b4c0 793e ace4 29bd b1aa 273e 4d9b aa3e
000001b0: beb8 4fbc c3f3 5d3e d7c8 9d3c 3e08 d23c
000001c0: c3d0 df3d 083a 0c3e 8349 853e 4508 fcbc
000001d0: 21b8 ac3d 3f53 913e edea 4fbd e59b 0b3c
000001e0: 90dc 53be 79d5 87be 1586 9ebd 35e2 d6bd
000001f0: 8480 973e 3705 37bd f2de 813a 6046 223e
00000200: f2df a8be c2d5 eabc 8279 a1bd 2fa9 9ebe
00000210: 4a0a d13c e28e 43bd 2359 f3bd 2ad8 653e
00000220: 30a9 9abd 0c39 783e 6645 a1bd 2a96 153d
00000230: c844 893d 7a2c 1ebe a3e7 803d 252a 90be
00000240: aaf0 d83c 652a 6ebe d0e8 4dbe 76ca deba
00000250: 5b7f a1bd a64c 40be 55c0 af3c c702 82bc
00000260: 1f3d a1be e606 f1bd 5b7c 143e cce2 42bb
00000270: 6121 12be 0491 463e fe60 28be 7402 0dbd
00000280: 5b55 113e 487a 62be 5c10 97be 9267 27bd
00000290: c282 e1bd 61af 043e 1a8c d5bd 1d50 1abe
000002a0: 5e52 863e 3a93 893d 0df1 f33d 52a6 873d
000002b0: 12e0 b9bd f92c a6bd ecc8 013e 48c0 3dbd
000002c0: c702 aebe be72 293e ec98 543d ac5b acbe
000002d0: ed76 2ebe b482 ea3c 72d3 103e cdce 6d3b
000002e0: 5413 3dbe a703 cabd 1e66 b33d 4626 c0bd
000002f0: 45d6 9bbd 1e49 a53d 20c0 25be 1463 6abe
00000300: fbba 983d 1ac4 7a3e 89b5 2abe 44dc 53bd
00000310: 38bc 39bd ac32 983e d887 ddbd 29a6 33be
00000320: e3b2 b23c 83aa afbd 5128 3d3d 4586 723e
00000330: 9e75 8dbc 393d 743e bba3 bfbc af6f 023e
00000340: 4ab7 f83c be02 18be 6d1f 923c d51f 1b3e
00000350: 8a05 9bbe 8f5b dcbb 67e6 62be 2565 4fbe
00000360: 6130 483e ba65 4cbd f9a6 fdbe 7a86 f0bd
00000370: 874e 9abc 5f3d 9d3b 82d3 1dbe ad8b d73d
00000380: 2d38 873e 2813 16be 9efd 903e 3631 10be
00000390: 1f18 a8bd a800 4a3e afec 6cbe 9686 fc3d
000003a0: f043 30be da5b a6bd 0574 0f3c fe31 c43d
000003b0: 87cf b83e 1788 89bd 02fc 59be dcdc 943e
000003c0: 3feb 9e3c a632 edbc 40a4 d6bc 7708 563e
000003d0: 3f16 19be 812f 3dbe e01b c03d ac37 bfbd
000003e0: 4432 f13b f334 8fbe 8091 1f3e 78bb e23d
000003f0: 88f4 843c ca41 253e 01a4 183d 0b51 2bbe

sequential_2/conv2d_5/Conv2D f4 [16, 3, 3, 32]
0.071894996 0.34598684 -0.24607064 -0.093008325 -0.1266914 -0.15657915 0.10021363 -0.0132356575
-0.0349381 0.12893385 0.0057430514 0.11352122 0.17327869 -0.043140326 -0.0709825 -0.26279855
-0.19861583 -0.005793869 0.29200053 0.11878895 -0.23400903 -0.07412574 -0.16320518 0.015996244
-0.051458053 0.037398133 -0.19286737 -0.06361604 0.049343463 0.0207556 -0.0967911 0.04174374
-0.15156306 0.06904466 0.0022548735 -0.1435141 -0.25567725 0.014412433 0.057710584 -0.03242902
0.035438105 0.051157136 -0.06955978 -0.043294977 -0.045829788 0.023493782 -0.009794965 0.080495395
-0.011961158 0.096134886 -0.004493501 -0.23035423 -0.10816636 -0.20465909 -0.072573446 -0.23948371
-0.042620204 -0.07930539 0.10769307 -0.019469352 -0.16219325 -0.09438396 0.016300794 -0.08345384
-0.058058403 -0.2605307 0.10687287 -0.46128 0.26450035 0.034653828 -0.07689926 -0.2949599
-0.020213721 -0.33298215 -0.5364692 -0.36964172 -0.20893091 -0.31616765 -0.27427548 -0.027031677
-0.20538816 -0.16595201 -0.098599926 0.058463912 0.16807078 -0.29904136 0.06417156 -0.055844005
-0.2687235 -0.00048047604 0.18790662 -0.49654156 -0.39243567 0.043804143 -0.007007653 -0.4176031
0.17595746 -0.0041868333 -0.024893459 0.101686165 0.058436986 0.09803976 0.017766174 0.0012748992
0.11621594 -0.08973456 -0.016760776 0.10498117 0.19494537 0.015586633 -0.052228957 0.10551522
0.049226545 -0.2593685 0.0022613935 -0.004893463 -0.053307883 0.059563715 -0.1364373 -0.07832451
-0.068189405 -0.13726154 -0.046335883 0.006655068 -0.1424898 0.18921919 -0.00781251 -0.08935384
0.1273846 0.28676927 -0.039749257 -0.071813196 -0.23669703 0.026749725 -0.09133775 0.1526414
-0.031194557 0.11608722 -0.042303503 0.11877787 0.042260613 0.011141981 0.061056167 0.03320223
-0.15571715 0.0901977 0.19822647 0.025844203 0.046574812 0.060847834 0.028146809 -0.07862213
-0.13657075 0.15446562 -0.19628416 0.055439126 -0.11059368 -0.040482946 -0.09700266 0.0924039
0.11943804 -0.33105484 0.065652326 -0.26890028 -0.045807235 0.20237397 0.065832384 0.13876966
0.14730684 0.07978522 -0.26854873 -0.6136632 -0.15459022 0.2387016 0.05653099 0.01418397
0.13315932 0.056259055 0.07215132 0.16428742 0.19967589 0.051259607 0.1725142 0.07656655
-0.040801432 -0.035025027 0.03860243 -0.2142417 -0.6128655 -0.00829483 0.079937264 -0.23896018
0.03805565 -0.15488994 -0.010073784 0.055388343 0.13560678 0.06827679 -0.17264242 -0.039130636
0.08199461 -0.012030018 -0.14919761 0.024398295 -0.032800667 -0.16264212 0.050522145 -0.023758657
-0.071405284 -0.12944868 0.022698367 -0.097165756 0.05665252 -0.078268565 -0.05038635 -0.11466376
0.059588946 -0.136663 0.014798699 -0.04820582 -0.18249878 0.12366263 0.041507125 -0.123292826
-0.0022067898 0.30200964 0.02120649 0.11263071 0.025279196 -0.2891482 -0.19106708 0.1907097
-0.1868969 -0.0085854875 0.040598202 0.35560578 0.0202791 -0.1359863 -0.013930166 -0.14403035
-0.24767509 -0.08059698 -0.050287303 0.11412083 0.0038844827 -0.051425345 -0.12108706 0.034116726
-0.13346374 -0.0440438 -0.048028722 -0.14415382 0.2157802 -0.030248245 -0.0049288515 0.09521288
00000000: af3d 933d 3025 b13e f1f9 7bbe 267b bebd
00000010: 64bb 01be 4956 20be ce3c cd3d 5fda 58bc
00000020: 411b 0fbd 3c07 043e 3530 bc3b d07d e83d
00000030: f86f 313e e9b3 30bd 465f 91bd 888d 86be
00000040: f361 4bbe 7fda bdbb 1881 953e 9f47 f33d
00000050: 10a0 6fbe 3ccf 97bd 421f 27be 8e0a 833c
00000060: aec5 52bd c92e 193d 067f 45be 2049 82bd
00000070: 5f1c 4a3d a607 aa3c 6a3a c6bd 7cfb 2a3d
00000080: 5933 1bbe 4967 8d3d 80c6 133b 5cf5 12be
00000090: 21e8 82be 2022 6c3c ef61 6c3d 4bd4 04bd
000000a0: 8c27 113d 258a 513d 5c75 8ebd 1356 31bd
000000b0: 04b8 3bbd 0876 c03c 107b 20bc c5da a43d
000000c0: bcf8 43bc 5ee2 c43d 383e 93bb fbe1 6bbe
000000d0: 5386 ddbd 2792 51be 63a1 94bd 383b 75be
000000e0: 8692 2ebd dd6a a2bd 2f8e dc3d 317e 9fbc
000000f0: fd15 26be 614c c1bd 3e89 853c d9e9 aabd
00000100: a6ce 6dbd 4864 85be 2ae0 da3d e42c ecbe
00000110: 976c 873e 2cf1 0d3d 5c7d 9dbd fc04 97be
00000120: 3f97 a5bc a37c aabe 0c56 09bf ae41 bdbe
00000130: fcf1 55be bae0 a1be d66d 8cbe 8971 ddbc
00000140: 4651 52be 53ef 29be c2ee c9bd db77 6f3d
00000150: bf1a 2c3e f31b 99be 616c 833d afbc 64bd
00000160: 2096 89be 67e8 fbb9 986a 403e b23a febe
00000170: 54ed c8be f96b 333d 74a0 e5bb 13d0 d5be
00000180: 312e 343e b431 89bb 5eed cbbc d640 d03d
00000190: 9f5b 6f3d 12c9 c83d 5e8a 913c 851a a73a
000001a0: 9f02 ee3d c1c6 b7bd e54d 89bc 5e00 d73d
000001b0: c29f 473e 145f 7f3c 08ee 55bd 5d18 d83d
000001c0: c6a1 493d f3cb 84be e333 143b 5859 a0bb
000001d0: 5e59 5abd 15f9 733d 38b6 0bbe 9a68 a0bd
000001e0: e3a6 8bbd 4a8e 0cbe b2ca 3dbd c212 da3b
000001f0: d9e8 11be adc2 413e 0b00 00bc 25ff b6bd
00000200: 1c71 023e 6cd3 923e 1ed0 22bd cc12 93bd
00000210: b560 72be 3d22 db3c 490f bbbd 074e 1c3e
00000220: ba8b ffbc 23bf ed3d 7046 2dbd d041 f33d
00000230: 7719 2d3d db8c 363c 0816 7a3d 10ff 073d
00000240: 5174 1fbe 92b9 b83d e1fb 4a3e 39b7 d33c
00000250: 3bc5 3e3d 943b 793d 2394 e63c a404 a1bd
00000260: 34d9 0bbe 3c2c 1e3e b7fe 48be 2314 633d
00000270: f07e e2bd 72d1 25bd 55a9 c6bd 423e bd3d
00000280: ee9b f43d 0580 a9be ba74 863d 4cad 89be
00000290: 5ea0 3bbd 1f3b 4f3e 21d3 863d a219 0e3e
000002a0: 9bd7 163e 6f66 a33d 387f 89be 0819 1dbf
000002b0: e64c 1ebe 316e 743e 0a8d 673d e263 683c
000002c0: eb5a 083e e56f 663d 12c4 933d f63a 283e
000002d0: d677 4c3e 98f5 513d 90a7 303e ecce 9c3d
000002e0: 671f 27bd 6776 0fbd 951d 1e3d 2d62 5bbe
000002f0: c1e4 1cbf 0ae7 07bc 26b6 a33d fab1 74be
00000300: 3ee0 1b3d 789b 1ebe 830c 25bc e3de 623d
00000310: 81dc 0a3e b4d4 8b3d 2dc9 30be 7247 20bd
00000320: caec a73d 8d19 45bc 42c7 18be efde c73c
00000330: fe59 06bd a88b 26be 4ff0 4e3d 84a1 c2bc
00000340: ef3c 92bd 328e 04be edf1 b93c d7fe c6bd
00000350: 790c 683d 454b a0bd eb61 4ebd d5d4 eabd
00000360: 8a13 743d 63f1 0bbe 3e76 723c 7773 45bd
00000370: f6e0 3abe d542 fd3d 6003 2a3d f380 fcbd
00000380: ca9f 10bb 02a1 9a3e 3cb9 ad3c eeaa e63d
00000390: 5116 cf3c 3c0b 94be 17a7 43be 6749 433e
000003a0: e761 3fbe 25aa 0cbc 4d4a 263d f611 b63e
000003b0: 5b20 a63c fe3f 0bbe 5a3b 64bc b17c 13be
000003c0: 8a9e 7dbe 0810 a5bd 0ffa 4dbd 2fb8 e93d
000003d0: ce92 7e3b 62a3 52bd 7efc f7bd fbbd 0b3d
000003e0: b8aa 08be 4667 34bd c4b9 44bd 0f9d 13be
000003f0: 7cf5 5c3e 2bcb f7bc 3482 a1bb f8fe c23d

sequential_2/dense_5/BiasAdd/ReadVariableOp f4 [6]
-1.2574143 -1.2304128 0.67083883 0.893576 0.029147929 0.43952394
00000000: f4f2 a0bf 2b7e 9dbf 18bc 2b3f 66c1 643f
00000010: a3c7 ee3c 4809 e13e

sequential_2/dense_4/BiasAdd/ReadVariableOp f4 [8]
0.06328355 0.13083833 -0.044703722 -0.038235437 -0.055446602 0.20424584 0.08917679 -0.0032763788
00000000: ce9a 813d 7cfa 053e 401b 37bd c39c 1cbd
00000010: fa1b 63bd d225 513e 52a2 b63d 84b8 56bb

sequential_2/dense_4/MatMul f4 [8, 704]
-0.111895196 -0.020159366 -0.021880936 0.07695835 0.05248833 0.050917707 -0.08210584 -0.054773368
0.045718446 -0.009256941 0.05543806 -0.049577136 -0.14293027 -0.03752148 -0.16667049 -0.016607974
-0.07771533 -0.17639792 0.22529858 0.11762839 0.011864438 -0.06331729 -0.16231711 0.08572333
-0.18020481 -0.046283323 0.12047423 0.069490224 -0.05506829 -0.11138021 -0.14983752 -0.15273438
-0.054862436 0.04959639 0.3173297 0.21633808 0.14768027 0.07266073 -0.17217936 -0.02835127
0.06618486 0.046568234 -0.058974966 0.056573555 0.18251222 -0.11703286 -0.05085906 0.2584831
0.07110194 0.08042583 0.24350047 0.08664449 0.12132881 0.010314796 -0.05002662 -0.030920051
0.02064341 -0.14746587 -0.0016147561 0.051836558 0.019479621 -0.024932308 -0.1300859 -0.1804358
-0.13947192 0.10728388 -0.14748831 -0.1865376 -0.0036320365 0.061656173 0.11064988 -0.0027301966
0.26682028 0.12815501 0.07589492 -0.1451442 -0.0063389847 0.13842474 -0.024676153 0.016730398
0.008412307 -0.19235057 0.04597111 0.009628987 -0.026325487 -0.1751914 -0.2942283 -0.010506451
-0.1760919 -0.06423808 -0.004217134 0.16279876 0.027807873 0.06430249 -0.0021631087 -0.0968399
-0.03434489 0.1715029 0.042348165 0.24236073 -0.10016371 -0.039225087 0.057908468 0.03177529
0.15822352 -0.07321906 -0.015225263 -0.10184258 0.004656357 -0.037211847 -0.19613817 -0.005994491
-0.10917897 0.03946303 0.29141158 -0.17063196 0.010937117 0.05750633 -0.16890153 0.01966072
-0.11157856 -0.19605008 -0.10858227 -0.046900116 0.040717054 -0.039773453 -0.24100813 0.08872296
-0.1351272 -0.0029665618 -0.12694138 -0.24660876 -0.06374787 0.09661764 0.18671782 0.034279168
0.19223882 0.14994049 -0.034802493 -0.1284148 0.003845467 0.17659739 -0.088259585 0.009111929
0.08573939 -0.15122676 -0.032746613 0.0880524 0.1274235 -0.109530315 -0.14897752 -0.18439156
-0.06611998 0.005904292 -0.21176256 0.16693047 0.048320528 0.057772074 -0.11240396 0.07733404
-0.223971 0.2337636 0.14665397 0.14469005 -0.17530188 0.072790675 0.27714267 0.06378443
0.21146616 -0.027824737 -0.053470783 -0.024014605 -0.12122627 -0.15777215 -0.124555305 -0.08782011
-0.14906742 -0.08652104 0.13970996 0.0023931179 -0.30812493 0.2113491 -0.09764795 -0.1606221
-0.07092041 0.004533627 -0.026532048 -0.082336634 0.065760404 0.19951545 -0.20932369 0.05437794
-0.064848125 -0.078450546 -0.17478809 -0.23321074 -0.008144662 0.12838349 0.115368865 0.0011209411
0.14034608 0.22830097 0.034660783 -0.16241668 -0.047135517 0.16428906 0.034444775 -0.009751019
0.034214158 -0.18910244 -0.029497694 0.09568455 -0.039790187 -0.049234502 -0.11316538 0.109074846
-0.10311523 -0.011543593 -0.15890688 0.054005746 -0.038918734 0.027934236 0.13757166 0.06732075
-0.09024595 0.018238325 0.05493876 0.21487941 -0.08831348 0.004958587 0.078881994 0.04577872
0.09246362 -0.20127922 -0.024664894 -0.018735478 0.17375475 -0.27500302 -0.1493864 -0.22080304
0.22400121 -0.10005997 0.029864557 -0.18727376 -0.012086116 0.3147959 0.07950837 -0.09059011
-0.10068225 0.09987923 0.11098942 0.21573998 0.3249426 0.06435263 -0.24844411 -0.044409722
00000000: 4f29 e5bd 4125 a5bc a63f b3bc 579c 9d3d
00000010: 01fe 563d 168f 503d 1b27 a8bd 0a5a 60bd
00000020: 4443 3b3d 6daa 17bc 0513 633d 6511 4bbd
00000030: 505c 12be 20b0 19bd abab 2abe 720d 88bc
00000040: 3729 9fbd a8a1 34be acb4 663e 27e7 f03d
00000050: 0f63 423c 7fac 81bd 7536 26be b78f af3d
00000060: 9c87 38be 9593 3dbd 31bb f63d e450 8e3d
00000070: 4a8f 61bd 4f1b e4bd 026f 19be 6766 1cbe
00000080: 6fb7 60bd 9625 4b3d 0a79 a23e bb87 5d3e
00000090: 7f39 173e 26cf 943d c94f 30be ec40 e8bc
000000a0: ee8b 873d 55be 3e3d bc8f 71bd acb9 673d
000000b0: 7ce4 3a3e edae efbd 9751 50bd e657 843e
000000c0: e59d 913d 4cb6 a43d 3058 793e ab72 b13d
000000d0: 3d7b f83d 64ff 283c b7e8 4cbd 0c4c fdbc
000000e0: 5e1c a93c 4b01 17be 39a6 d3ba 9252 543d
000000f0: ba93 9f3c d73e ccbc 3d35 05be 2ac4 38be
00000100: bad1 0ebe a7b7 db3d 2d07 17be b603 3fbe
00000110: 7607 6ebb 2f8b 7c3d 679c e23d 19ed 32bb
00000120: ab9c 883e 113b 033e cc6e 9b3d aea0 14be
00000130: 42b7 cfbb 37bf 0d3e a525 cabc 300e 893c
00000140: c6d3 093c 8cf7 44be 344c 3c3d e6c2 1d3c
00000150: 8ca8 d7bc 6065 33be 17a5 96be 4023 2cbc
00000160: 6f51 34be 418f 83bd e22f 8abb b8b4 263e
00000170: 56cd e33c 06b1 833d f1c2 0dbb ff53 c6bd
00000180: 3aad 0cbd 759e 2f3e 4575 2d3d 692d 783e
00000190: a222 cdbd 7caa 20bd 6e31 6d3d ce26 023d
000001a0: 5905 223e e0f3 95bd 6273 79bc d892 d0bd
000001b0: 5b94 983b 736b 18bd 72d8 48be 6f6d c4bb
000001c0: 3999 dfbd fca3 213d e633 953e 25ba 2ebe
000001d0: 9831 333c c28b 6b3d 86f4 2cbe 850f a13c
000001e0: 4d83 e4bd 5ac1 48be 6260 debd 561a 40bd
000001f0: edc6 263d 7de9 22bd d6ca 76be 62b4 b53d
00000200: c95e 0abe a66a 42bb ecfc 01be 0287 7cbe
00000210: 3e8e 82bd 78df c53d f532 3f3e 5068 0c3d
00000220: 41da 443e 008a 193e 0f8d 0ebd 2b7f 03be
00000230: 3b04 7c3b f2d5 343e 71c1 b4bd 334a 153c
00000240: 2298 af3d 30db 1abe 5021 06bd d154 b43d
00000250: 4e7b 023e 6e51 e0bd 908d 18be 24d1 3cbe
00000260: e969 87bd cb78 c13b 49d8 58be d2ef 2a3e
00000270: bfeb 453d 69a2 6c3d 0c34 e6bd 4f61 9e3d
00000280: a758 65be ba5f 6f3e 752c 163e a129 143e
00000290: 5682 33be 4713 953d a5e5 8d3e 69a1 823d
000002a0: 968a 583e b4f0 e3bc 2e04 5bbd 47ba c4bc
000002b0: 7b45 f8bd 068f 21be da16 ffbd 08db b3bd
000002c0: 21a5 18be f131 b1bd 2110 0f3e dbd5 1c3b
000002d0: 8dc2 9dbe e66b 583e a6fb c7bd 1f7a 24be
000002e0: b83e 91bd d28e 943b bd59 d9bc 1ca0 a8bd
000002f0: 64ad 863d c74d 4c3e f358 56be 67bb 5e3d
00000300: 18cf 84bd aeaa a0bd a6fb 32be ccce 6ebe
00000310: 3071 05bc f676 033e 8346 ec3d 8bec 923a
00000320: e2b6 0f3e bbc7 693e 77f8 0d3d 8f50 26be
00000330: 2c11 41bd 643b 283e f715 0d3d bdc2 1fbc
00000340: 2524 0c3d 12a4 41be 26a5 f1bc 43f6 c33d
00000350: 09fb 22bd 1eaa 49bd 40c3 e7bd a262 df3d
00000360: 142e d3bd 5721 3dbc 7cb8 22be 2135 5d3d
00000370: 4069 1fbd 57d6 e43c 96df 0c3e 76df 893d
00000380: ded2 b8bd 8a68 953c 7707 613d 5909 5c3e
00000390: b3dd b4bd a47b a23b e28c a13d 7882 3b3d
000003a0: 915d bd3d 241c 4ebe 080e cabc 257b 99bc
000003b0: c4ec 313e 32cd 8cbe c0f8 18be 311a 62be
000003c0: 9360 653e 3eec ccbd 84a6 f43c b1c4 3fbe
000003d0: d804 46bc ee2c a13e 49d5 a23d 4f87 b9bd
000003e0: 7f32 cebd 7b8d cc3d 6c4e e33d f1ea 5c3e
000003f0: e05e a63e 50cb 833d 2268 7ebe f8e6 35bd

sequential_2/dense_5/MatMul f4 [6, 8]
-0.43501282 -0.6632925 -0.2221623 -0.7308609 -0.06339675 0.6045637 1.1468489 -0.8665034
0.5521375 0.48025554 0.57448953 -0.3891839 -0.39103594 -0.043959342 -0.25216898 0.06562758
0.62865543 -0.42269278 -0.44815192 -0.51043546 0.1500927 -0.29007465 -0.33734816 -1.0918069
0.29917863 0.31010884 0.25803322 0.6008964 0.42138425 -0.100908086 -0.6120538 -0.038390767
-0.7474553 0.49142802 -0.47018582 -0.43196866 0.17960194 0.49680388 -0.46258292 -1.1365572
-0.9388505 -0.8218991 0.13691612 -0.48437694 -0.3781957 -0.70768934 -0.5860606 0.13176453
00000000: 00ba debe 8acd 29bf 847e 63be b319 3bbf
00000010: 28d6 81bd b0c4 1a3f f2cb 923f 2bd3 5dbf
00000020: e258 0d3f 0ee4 f53e bf11 133f 1d43 c7be
00000030: dd35 c8be b60e 34bd 4b1c 81be c167 863d
00000040: 90ef 203f 306b d8be 2b74 e5be e6ab 02bf
00000050: e7b1 193e aa84 94be e6b8 acbe 54c0 8bbf
00000060: f12d 993e 96c6 9e3e ee1c 843e 59d4 193f
00000070: adbf d73e e6a8 cebd 8faf 1cbf a33f 1dbd
00000080: 3b59 3fbf 749c fb3e 32bc f0be ff2a ddbe
00000090: 92e9 373e 145d fe3e abd7 ecbe b57a 91bf
000000a0: 8258 70bf fb67 52bf bd33 0c3e 4100 f8be
000000b0: dea2 c1be 212b 35bf 1108 16bf 48ed 063e
