neural_network/models/no_quant_model.tflite (tflite, 39656 bytes, 6 tensors)

sequential/conv2d/BiasAdd/ReadVariableOp f4 [32]
-0.0019302124 -0.06876973 -0.11768965 -0.08608978 0.01685901 -0.062005635 -0.10618696 -0.14184731
-0.023826044 -0.12504359 -0.09596501 0.11352979 -0.06624698 0.22360879 -0.077092215 -0.19616315
0.05383126 0.045959007 0.008039212 -0.025494922 0.044334892 -0.15366626 -0.064860485 -0.09345924
-0.052482553 -0.05327527 -0.02589145 0.19749653 0.063834175 0.037449203 0.017478758 0.062051784
00000000: 2eff fcba 25d7 8cbd 4507 f1bd d74f b0bd
00000010: e81b 8a3c 9ff9 7dbd 8d78 d9bd 6c40 11be
00000020: d62e c3bc 6d0b 00be 4e89 c4bd 4e82 e83d
00000030: 7fac 87bd b4f9 643e 86e2 9dbd fede 48be
00000040: 2b7e 5c3d 833f 3c3d e6b6 033c bada d0bc
00000050: 8198 353d b05a 1dbe 93d5 84bd 8f67 bfbd
00000060: f2f7 56bd 2b37 5abd 4e1a d4bc 883c 4a3e
00000070: 7ebb 823d 5664 193d 9d2f 8f3c 032a 7e3d

sequential/conv2d_1/BiasAdd/ReadVariableOp f4 [16]
-0.103458196 0.05043032 0.0344194 0.12948391 -0.06082361 0.043256283 -0.020449279 0.12389495
0.07167158 -0.21624419 -0.08652353 0.19138022 -0.119048305 -0.015446763 -0.012495942 -0.012192173
00000000: e4e1 d3bd 0690 4e3d 5bfb 0c3d 6e97 043e
00000010: 2d22 79bd 802d 313d 3f85 a7bc a3bc fd3d
00000020: 8dc8 923d 1e6f 5dbe 4033 b1bd 2df9 433e
00000030: 99cf f3bd 6b14 7dbc c8bb 4cbc aec1 47bc

sequential/conv2d/Conv2D f4 [32, 3, 3, 1]
-0.07549368 0.029296711 -0.115355864 0.0039909175 0.2260907 -0.16051738 -0.06828105 0.11485033
-0.21662045 0.05479133 0.09951298 0.05150187 -0.108386666 0.08466136 0.11525685 -0.09113599
0.013346437 -0.061823923 0.04972852 -0.15733859 0.11359821 -0.0639563 -0.19737116 0.035827424
-0.0876214 0.28924 0.12826765 0.20648566 0.015444855 -0.3646083 0.014297711 -0.01789912
-0.48101926 -0.09734217 -0.12063783 -0.44629622 0.09729337 -0.18764949 -0.18153512 0.06347837
-0.13316932 0.024572913 -0.12987277 0.03679445 0.19560362 0.06164181 -0.005236084 0.095977426
-0.14165244 0.112426534 -0.09117256 -0.11214236 0.22616562 -0.17120698 -0.118147455 -0.083120756
0.037418418 -0.1624799 -0.280499 -0.1415344 -0.0594483 0.037537705 -0.2384761 0.164569
-0.058748767 -0.2089045 0.15362906 0.1881315 -0.091683224 -0.20913887 0.21325384 0.07150758
-0.1499858 -0.110338524 0.24468173 0.13319531 -0.17326847 0.20394695 0.041036796 -0.047697388
-0.198222 0.2611995 -0.20171708 0.23030871 0.03856159 0.0651774 -0.07161142 -0.19695696
0.25112477 -0.41488466 -0.11816913 -0.010023538 0.030928796 -0.057351094 -0.076248035 0.08076108
-0.20163277 -0.15373428 0.054322716 -0.0036774676 -0.15007599 0.20483758 -0.15902731 0.057744928
-0.10187596 0.28003383 0.18975016 0.12890835 -0.10003872 -0.037186906 0.0775209 -0.11654992
0.015805047 0.15223543 0.14454272 0.24297568 0.046454173 0.18485107 0.39058366 -0.011252269
0.084022835 0.22098133 -0.00392742 0.19373228 0.20178601 0.099298656 0.14106333 0.13378246
0.01974982 -0.06492186 -0.004330263 0.050592773 -0.12543595 -0.14805481 0.12992819 0.09695119
-0.0521856 0.28105772 0.17814636 -0.08059101 -0.023806382 0.078916445 0.09802801 -0.36788312
0.045966104 0.29166025 -0.2672961 0.10644681 -0.17112936 -0.23266613 -0.18499993 -0.13604446
0.28740963 -0.08838433 -0.19750012 0.010788154 -0.20532268 0.01732703 -0.0099067995 0.1850898
0.20541525 0.04352414 0.11901838 0.21222027 -0.15277487 0.042360272 0.046034213 0.012334351
-0.18451427 -0.21774766 0.2642421 -0.09886146 0.08015678 -0.14133483 -0.01801625 0.04710426
0.041866608 -0.025481153 0.013857963 0.11914071 0.16013552 0.20643261 0.09793375 -0.10496294
0.0132379085 0.25407228 0.025069417 -0.09742748 0.29110017 0.111751206 0.057119273 -0.04662169
0.21361437 0.048111614 -0.22930053 0.21243012 -0.15382461 -0.13722897 0.23854414 -0.004452389
0.16380468 0.05683974 -0.04237991 -0.2046826 0.045842655 -0.24149193 -0.1419016 0.12001207
0.19851354 -0.024117071 0.060668215 0.15335217 -0.028727354 -0.108100764 -0.010532492 0.084395446
-0.32343513 0.14732908 0.06872513 0.12740518 -0.08549063 -0.03689575 0.24768627 -0.18912674
-0.015170699 0.04278865 0.26387423 0.38223454 -0.010323318 0.02262448 0.17161441 0.08884527
-0.12354081 0.15018736 0.2504971 0.094461404 0.24404803 -0.0019843883 -0.022436682 -0.02763986
-0.20796175 -0.2158182 -0.29457796 0.032253657 0.21381336 0.35724443 0.10312743 0.2175122
0.22458194 0.023638247 -0.01277534 -0.118485644 -0.08849429 -0.20132142 0.12279127 0.0871768
00000000: 6e9c 9abd a8ff ef3c b23f ecbd 3ec6 823b
00000010: 5284 673e ab5e 24be efd6 8bbd a636 eb3d
00000020: c0d1 5dbe e06c 603d 76cd cb3d a0f3 523d
00000030: d4f9 ddbd ef62 ad3d c90b ec3d 82a5 babd
00000040: 04ab 5a3c 153b 7dbd 22b0 4b3d 5e1d 21be
00000050: 2ea6 e83d 85fb 82bd aa1b 4abe c7bf 123d
00000060: d972 b3bd 4417 943e 9858 033e fa70 533e
00000070: 6b0c 7d3c f0ad babe f240 6a3c 2da1 92bc
00000080: 2848 f6be 555b c7bd f710 f7bd f080 e4be
00000090: bf41 c73d 3027 40be 58e4 39be f300 823d
000000a0: 8a5d 08be 224d c93c 5efd 04be c7b5 163d
000000b0: 514c 483e 1f7c 7c3d 7593 abbb d08f c43d
000000c0: 560d 11be e23f e63d aeb8 babd e5aa e5bd
000000d0: f697 673e e250 2fbe 4bf7 f1bd 373b aabd
000000e0: 0e44 193d 2261 26be 919d 8fbe 65ee 10be
000000f0: 1080 73bd 23c1 193d 1433 74be c784 283e
00000100: 8ca2 70bd 10eb 55be f050 1d3e 8ba5 403e
00000110: 6ac4 bbbd 8028 56be 375f 5a3e 9172 923d
00000120: e195 19be 2af9 e1bd d98d 7a3e 5a64 083e
00000130: 4a6d 31be 78d7 503e 3316 283d 565e 43bd
00000140: b5fa 4abe f1bb 853e ec8e 4ebe 0cd6 6b3e
00000150: c2f2 1d3d bb7b 853d 02a9 92bd 16af 49be
00000160: 6d93 803e c36b d4be a802 f2bd c439 24bc
00000170: 635e fd3c fbe8 6abd ee27 9cbd 1166 a53d
00000180: d278 4ebe 856c 1dbe 7f81 5e3d ab01 71bb
00000190: 85ad 19be f1c0 513e 0ed8 22be f285 6c3d
000001a0: 58a4 d0bd 9860 8f3e de4d 423e 8d00 043e
000001b0: 1ae1 ccbd 4c51 18bd 47c3 9e3d b9b1 eebd
000001c0: 9679 813c 9be3 1b3e 0203 143e 9ece 783e
000001d0: bb46 3e3d 9949 3d3e 95fa c73e 705b 38bc
000001e0: 2a14 ac3d ee48 623e 96b1 80bb c161 463e
000001f0: fea0 4e3e 185d cb3d e872 103e 45fe 083e
00000200: 60ca a13c c1f5 84bd e1e4 8dbb 5e3a 4f3d
00000210: 4872 00be ae9b 17be e50b 053e 588e c63d
00000220: 91c0 55bd cce6 8f3e 006c 363e e60c a5bd
00000230: 9a05 c3bc f29e a13d e9c2 c83d 2d5b bcbe
00000240: f446 3c3d 7e54 953e 09db 88be c900 da3d
00000250: 893c 2fbe 0840 6ebe 9f70 3dbe 3d4f 0bbe
00000260: 5b27 933e d802 b5bd 793d 4abe ccc0 303c
00000270: 1c40 52be 6af1 8d3c 2150 22bc 2e88 3d3e
00000280: 6058 523e 5e46 323d e9bf f33d 4550 593e
00000290: 0471 1cbe f781 2d3d 5f8e 3c3d 0516 4a3c
000002a0: 4ff1 3cbe 3ef9 5ebe be4a 873e e177 cabd
000002b0: 3d29 a43d 14ba 10be d196 93bc 66f0 403d
000002c0: 527c 2b3d dabd d0bc 820c 633c 0b00 f43d
000002d0: 91fa 233e 1263 533e 7d91 c83d cff6 d6bd
000002e0: d0e3 583c c315 823e 615e cd3c 0f88 c7bd
000002f0: 150b 953e d1dd e43d e6f5 693d 63f6 3ebd
00000300: babd 5a3e af10 453d c2cd 6abe 4887 593e
00000310: 3384 1dbe c085 0cbe ea44 743e 59e5 91bb
00000320: 6abc 273e cad0 683d 8e96 2dbd 5198 51be
00000330: 82c5 3b3d a949 77be a74e 11be e3c8 f53d
00000340: 2247 4b3e 2a91 c5bc 3c7f 783d 5a08 1d3e
00000350: a155 ebbc ef63 ddbd 7990 2cbc 85d7 ac3d
00000360: 4a99 a5be 6fdd 163e c3bf 8c3d 8176 023e
00000370: b615 afbd ff1f 17bd 78a1 7d3e 71aa 41be
00000380: 868e 78bc 2743 2f3d 861a 873e 3fb4 c33e
00000390: 2223 29bc f956 b93c b0bb 2f3e 82f4 b53d
000003a0: f702 fdbd b7ca 193e 2841 803e fb74 c13d
000003b0: bae7 793e 830c 02bb 22cd b7bc fd6c e2bc
000003c0: edf3 54be 72ff 5cbe ecd2 96be 691c 043d
000003d0: e4f1 5a3e bee8 b63e 7934 d33d 85bb 5e3e
000003e0: cff8 653e ffa4 c13c a94f 51bc 9aa8 f2bd
000003f0: 7f3c b5bd 3427 4ebe fd79 fb3d c089 b23d

sequential/conv2d_1/Conv2D f4 [16, 3, 3, 32]
-0.05881071 -0.115747504 -0.17311944 0.026309855 -0.12647593 0.03059898 0.09564307 0.122645214
-0.21157551 0.010842826 -0.02193788 -0.025939241 -0.04611847 0.014776548 -0.01571729 -0.06404358
-0.0690111 0.010193169 0.06477353 -0.054035924 0.08022421 -0.13176125 -0.025096206 0.11113466
-0.20065258 0.081397824 -0.17465168 0.033810474 0.020934863 0.13285582 -0.053647123 0.029309116
-0.13135971 0.0057847234 -0.13201791 -0.20605886 -0.15843496 0.017340405 -0.17683503 -0.019444974
0.1401484 0.0012261976 -0.12981007 0.34025633 0.19653071 -0.09490295 0.08833836 0.19339377
-0.09853343 -0.15693662 0.07167842 0.0051033506 0.0074792616 0.036094364 -0.16551258 0.04857527
0.105119064 0.1913043 -0.23949912 -0.054877806 -0.112617455 0.09728585 -0.110284306 -0.08265219
-0.02453412 -0.13855876 -0.26067472 0.083353244 -0.17670985 -0.058940396 -0.24333186 0.4167912
-0.24748391 0.17639002 -0.3612821 -0.021275643 -0.18955708 0.1081743 -0.25105074 0.10318492
0.09569875 -0.10167997 0.051748857 -0.14579394 0.06379581 0.06157739 0.0054277275 0.045785375
0.16174898 -0.10838497 -0.078390025 0.009481541 0.07761865 0.03986115 -0.14024293 -0.04505932
0.13371924 0.11902943 0.052043993 0.14060354 -0.012806036 0.042279966 -0.031210305 0.1677476
-0.069273256 -0.046576336 -0.09386855 -0.14888889 0.011117117 0.13362238 -0.02320007 -0.01573806
0.03778239 -0.00864364 0.110344045 0.048063267 0.21684289 -0.18811758 -0.11413141 -0.044140257
-0.09745094 0.047652163 -0.10583434 0.031402074 -0.044397507 0.12361158 0.065601654 0.05981307
-0.11147862 -0.27141687 -0.16424006 0.16100226 -0.15830317 -0.33963072 -0.14936379 0.17771178
0.23615336 0.16928416 0.05142436 0.06737464 -0.0145900985 0.116850734 0.051040627 0.22612998
0.014059284 -0.30556205 0.14335257 -0.23397765 -0.07291636 0.1920083 0.10749878 0.04245679
0.1304957 0.013674534 -0.05085202 -0.04059241 -0.17032896 -0.20058441 0.021623686 0.071315154
-0.03414492 -0.10501799 -0.11281281 0.09668462 -0.04988692 0.022444459 -0.011727738 0.111414544
-0.31722945 0.03137311 -0.18150178 -0.39240828 -0.102265604 -0.081645615 0.007046285 0.19317271
-0.02614654 -0.18729047 0.15945554 -0.014404087 -0.020847725 -0.056015786 -0.04198124 0.10633747
-0.205571 -0.07940402 -0.041845143 -0.06454483 -0.08052434 -0.1723221 0.05256489 0.056674853
-0.10194293 -0.0006082857 -0.15015031 0.07617684 0.051291972 0.06662592 -0.07445453 -0.17487416
0.14954115 -0.14928868 -0.086219914 -0.16986927 -0.08223664 -0.2201032 0.0935946 0.10950716
0.067242615 -0.29666793 -0.10099576 0.047856532 -0.020925717 0.14589405 0.1482126 0.024456985
0.13377233 0.06797543 -0.068994254 0.08116395 0.07395455 0.048217613 -0.022784377 -0.049071472
-0.26537344 -0.2647532 -0.29478577 0.20110631 0.092213236 -0.31324297 0.2128102 0.042762864
0.07422808 0.13322188 -0.034381956 -0.2532177 -0.40711483 0.059198093 -0.307029 0.076638855
0.11426567 -0.3082076 -0.16846476 -0.18596314 -0.24025041 0.1697333 0.20977527 0.07894666
-0.26486695 -0.15315181 -0.011672482 -0.077468075 -0.09919649 -0.007121677 0.009548267 -0.0014109159
00000000: 80e3 70bd 070d edbd 3946 31be c487 d73c
00000010: e882 01be b6aa fa3c 84e0 c33d 6a2d fb3d
00000020: 40a7 58be 1ca6 313c 12b7 b3bc 887e d4bc
00000030: b9e6 3cbd 5619 723c 8cc1 80bc 4829 83bd
00000040: b155 8dbd 4001 273c fca7 843d c654 5dbd
00000050: 974c a43d 6cec 06be 8f96 cdbc 929a e33d
00000060: df77 4dbe e7b3 a63d e4d7 32be da7c 0a3d
00000070: 977f ab3c 5b0b 083e 16bd 5bbd ac19 f03c
00000080: 2983 06be c78d bd3b b42f 07be 1801 53be
00000090: c63c 22be 770d 8e3c 3e14 35be 114b 9fbc
000000a0: 1083 0f3e 5db8 a03a eeec 04be 1436 ae3e
000000b0: 593f 493e 7a5c c2bd beea b43d 0409 463e
000000c0: e5cb c9bd feb3 20be 23cc 923d 023a a73b
000000d0: 9814 f53b afd7 133d 217c 29be ddf6 463d
000000e0: aa48 d73d 46e5 433e 423f 75be 8dc7 60bd
000000f0: fba3 e6bd ce3d c73d bddc e1bd 8d45 a9bd
00000100: c7fb c8bc 59e2 0dbe 2877 85be 1bb5 aa3d
00000110: 6df3 34be 7c6b 71bd fd2b 79be a865 d53e
00000120: 6c6c 7dbe 969f 343e f8f9 b8be 424a aebc
00000130: 401b 42be 7d8a dd3d b989 80be 9e52 d33d
00000140: b5fd c33d 973d d0bd 9cf6 533d 024b 15be
00000150: 61a7 823d 9338 7c3d 14db b13b 7289 3b3d
00000160: 86a1 253e f0f8 ddbd f38a a0bd 7758 1b3c
00000170: 87f6 9e3d 7245 233d d89b 0fbe 1f90 38bd
00000180: b2ed 083e b4c5 f33d 152c 553d 60fa 0f3e
00000190: 68d0 51bc c22d 2d3d c1ac ffbc 07c6 2b3e
000001a0: 23df 8dbd d4c6 3ebd 283e c0bd 5476 18be
000001b0: 9124 363c 4ed4 083e 130e bebc 1bed 80bc
000001c0: b5c1 1a3d 0e9e 0dbc 0ffc e13d fddd 443d
000001d0: 100c 5e3e e5a1 40be bbbd e9bd 6acc 34bd
000001e0: 5c94 c7bd ea2e 433d adbf d8bd 769f 003d
000001f0: 29da 35bd 1128 fd3d 295a 863d 8dfe 743d
00000200: e74e e4bd 27f7 8abe 8c2e 28be c7dd 243e
00000210: 3a1a 22be 14e4 adbe d2f2 18be 14fa 353e
00000220: 30d2 713e d458 2d3e 5aa2 523d b7fb 893d
00000230: 4f0b 6fbc 704f ef3d fa0f 513d 9e8e 673e
00000240: e958 663c a172 9cbe 04cb 123e d697 6fbe
00000250: 2c55 95bd d39d 443e 5228 dc3d 2ce7 2d3d
00000260: aaa0 053e 270b 603c 354a 50bd 3a44 26bd
00000270: b76a 2ebe 0066 4dbe 2824 b13c ae0d 923d
00000280: 8bdb 0bbd ac13 d7bd 670a e7bd 9602 c63d
00000290: 3a56 4cbd 71dd b73c b325 40bc 4f2d e43d
000002a0: e66b a2be 1781 003d 9adb 39be bde9 c8be
000002b0: a170 d1bd d135 a7bd 86e4 e63b 11cf 453e
000002c0: 4531 d6bc 13c9 3fbe 5048 233e 1fff 6bbc
000002d0: d9c8 aabc cf70 65bd 85f4 2bbd 76c7 d93d
000002e0: 3481 52be 939e a2bd d065 2bbd 1430 84bd
000002f0: f2e9 a4bd 3475 30be 484e 573d e423 683d
00000300: 74c7 d0bd 5d75 1fba 01c1 19be 9a02 9c3d
00000310: 8817 523d 2c73 883d 9e7b 98bd 3612 33be
00000320: 5121 193e 22df 18be 1194 b0bd 36f2 2dbe
00000330: af6b a8bd bc62 61be 87ae bf3d 4a45 e03d
00000340: 7fb6 893d dce4 97be ddd6 cebd 3605 443d
00000350: 696c abbc 4065 153e 0bc5 173e 045a c83c
00000360: 9dfb 083e b436 8b3d dc4c 8dbd 4939 a63d
00000370: 7c75 973d d57f 453d 4da6 babc 2bff 48bd
00000380: 07df 87be bb8d 87be 29ee 96be d0ee 4d3e
00000390: 4bda bc3d 6261 a0be ebea 593e 1d28 2f3d
000003a0: e404 983d 516b 083e 18d4 0cbd c0a5 81be
000003b0: 5b71 d0be b379 723d e832 9dbe d5f4 9c3d
000003c0: 1f04 ea3d 63cd 9dbe 0782 2cbe 1f6d 3ebe
000003d0: 3404 76be 91ce 2d3e 54cf 563e c9ae a13d
000003e0: a49c 87be d4d3 1cbe f03d 3fbc 95a7 9ebd
000003f0: 8827 cbbd f55c e9bb 5670 1c3c 7bee b8ba

sequential/dense/BiasAdd/ReadVariableOp f4 [6]
0.06774408 -0.029915648 0.08800743 0.01899845 -0.00062891137 -0.11185189
00000000: 69bd 8a3d a911 f5bc 3d3d b43d a3a2 9b3c
00000010: 87dd 24ba 9b12 e5bd

sequential/dense/MatMul f4 [6, 704]
0.011232271 -0.050509203 -0.1282252 0.048490483 0.07592862 0.079031 -0.006904658 0.120540045
-0.072430894 0.1691585 -0.15362397 -0.03375574 0.18438321 0.038543176 0.06643712 0.19507082
-0.2893362 0.036779463 0.3430683 0.3932317 -0.4286246 -0.1310699 -0.15608567 0.044838358
0.51786345 -0.19506106 -0.15241906 -0.1218385 -0.052925464 -0.33280385 0.080363564 -0.05758524
-0.12164043 -0.11693057 -0.33404085 -0.22993232 -0.23366661 0.1096098 -0.018601744 -0.23818724
0.34474564 -0.1152163 -0.29752555 0.04949919 -0.27473313 0.10703679 0.17365533 0.04184127
-0.32875395 -0.11296034 -0.30676216 -0.05606742 -0.24650533 -0.0710951 0.26487008 0.053003848
-0.09991263 -0.0461776 -0.44130862 0.35904798 -0.10765975 0.06767805 0.004924255 0.0657862
0.17148173 -0.0043778145 -0.07668323 -0.14866807 0.012851044 -0.1033754 0.013428733 -0.013541848
-0.06900463 0.020672195 -0.006445243 -0.13794366 0.008558048 -0.0075119985 -0.03410307 -0.11255906
-0.119091585 -0.14165871 0.38835108 0.35021016 -0.17514853 -0.08082749 -0.3158071 0.2678361
0.16909118 -0.25179914 -0.26965132 -0.14767283 -0.20668854 -0.25427434 0.046107568 -0.03375182
0.15768726 -0.43339884 -0.32750428 -0.011585199 -0.2672925 0.24013923 -0.040526435 -0.17554821
0.44461384 -0.05704194 -0.123613395 -0.2336207 -0.16165294 0.017831113 0.1736523 0.14342344
-0.14919221 -0.15476382 -0.2990777 0.04476123 0.04570143 0.02263817 -0.18843752 0.00840451
-0.024954792 0.012749947 -0.2242811 0.1926379 0.035078205 -0.115695335 0.026768247 -0.080842055
0.070621654 0.16193639 -0.07854406 -0.052763764 0.03528328 0.080278836 -0.056681912 0.092010625
0.023066474 0.059181396 -0.036693912 -0.048865944 0.116792 -0.020457702 -0.012228923 0.05953626
-0.18543357 -0.25498703 0.36107886 0.2378729 -0.22607768 -0.09014941 -0.2757063 0.12520963
0.17428425 -0.1356171 -0.17289902 -0.07019632 -0.23770888 -0.12753882 0.0588349 -0.12785427
0.06135139 -0.20304458 -0.35284877 0.093134955 -0.15943852 0.27527636 -0.0360896 -0.13611554
0.17058086 -0.07160421 -0.19458115 -0.119042605 -0.303552 0.12250647 0.08852834 0.22037418
-0.06048138 0.039521847 -0.05210045 -0.15809791 -0.086498514 -0.042453118 -0.1703743 -0.04370754
0.1290946 -0.015877966 -0.24041004 0.332793 0.004314106 -0.038052943 0.0077468865 0.122583024
-0.0908658 -0.06271808 -0.016384311 0.1645952 0.12321614 0.087552354 0.13666017 -0.020313088
-0.0031694088 0.05129908 0.05629615 -0.15070987 0.14123012 -0.091006264 -0.15775222 -0.012290877
-0.3732122 -0.3077684 0.34827152 0.13475357 -0.34009668 -0.12474816 -0.20893492 0.061326876
0.16083436 -0.19298989 -0.25101453 -0.018511161 -0.30337614 -0.12126655 0.11596196 -0.06264272
-0.0840276 -0.31761116 -0.3005781 -0.18816389 0.07453097 0.101560354 -0.06528016 -0.051549524
0.24521466 -0.13484082 -0.13446908 -0.045287028 -0.21700585 -0.02275336 0.162135 -0.0044136797
-0.27105698 0.08070841 0.05187002 -0.055471875 -0.20781381 -0.0010702725 -0.07339345 -0.13068724
0.008503904 -0.044972647 -0.040080916 0.06420722 -0.14345701 -0.30057818 0.059691105 -0.023207907
00000000: 8f07 383c bde2 4ebd 784d 03be f59d 463d
00000010: 7780 9b3d 01db a13d 7840 e2bb b3dd f63d
00000020: a656 94bd e337 2d3e 9a4f 1dbe 7543 0abd
00000030: f4ce 3c3e 73df 1d3d 2f10 883d a5c0 473e
00000040: e023 94be 10a6 163d a6a6 af3e aa55 c93e
00000050: af74 dbbe 3037 06be ecd4 1fbe 6da8 373d
00000060: b392 043f 16be 47be be13 1cbe 7786 f9bd
00000070: 5fc8 58bd 4465 aabe a795 a43d 80de 6bbd
00000080: 9e1e f9bd 4b79 efbd 6707 abbe 6173 6bbe
00000090: 4d46 6fbe 1a7b e03d af62 98bc 5be7 73be
000000a0: 8082 b03e 86f6 ebbd 4555 98be aabf 4a3d
000000b0: d2a9 8cbe 1b36 db3d b4d2 313e c061 2b3d
000000c0: 7052 a8be c057 e7bd ee0f 9dbe f3a6 65bd
000000d0: e56b 7cbe 4f9a 91bd 0d9d 873e 901a 593d
000000e0: fe9e ccbd b924 3dbd 34f3 e1be 23d5 b73e
000000f0: b77c dcbd ca9a 8a3d a55b a13b eaba 863d
00000100: e898 2f3e c573 8fbb 190c 9dbd 713c 18be
00000110: 2f8d 523c 7bb6 d3bd 3004 5c3c a1de 5dbc
00000120: 4d52 8dbd bc58 a93c 9e32 d3bb 1a41 0dbe
00000130: 0e37 0c3c 3627 f6bb a9af 0bbd 5d85 e6bd
00000140: 4ae6 f3bd fb0e 11be f4d5 c63e bf4e b33e
00000150: 235a 33be e288 a5bd 78b1 a1be d021 893e
00000160: 3d26 2d3e d1eb 80be bd0f 8abe 8c37 17be
00000170: 29a6 53be 3f30 82be 4adb 3c3d 593f 0abd
00000180: c578 213e 74e6 ddbe a4ae a7be d9cf 3dbc
00000190: 90da 88be 0fe7 753e 0cff 25bd e9c2 33be
000001a0: 6da4 e33e cfa4 69bd 0529 fdbd 443a 6fbe
000001b0: 5988 25be 8e12 923c e9d1 313e 98dd 123e
000001c0: d8c5 18be 687a 1ebe b620 99be 8d57 373d
000001d0: 6c31 3b3d af73 b93c c4f5 40be 12b3 093c
000001e0: fe6d ccbc 27e5 503c f2a9 65be df42 453e
000001f0: 2aae 0f3d adf1 ecbd 1549 db3c 8590 a5bd
00000200: 16a2 903d a7d2 253e b5db a0bd d11e 58bd
00000210: 3385 103d 3b69 a43d 4b2b 68bd 1170 bc3d
00000220: e7f5 bc3c 3168 723d 5b4c 16bd a827 48bd
00000230: a530 ef3d e996 a7bc d25b 48bc 4bdc 733d
00000240: 4ce2 3dbe a98d 82be 54df b83e f494 733e
00000250: e880 67be 41a0 b8bd 6029 8dbe f436 003e
00000260: 9277 323e 36df 0abe 710c 31be 17c3 8fbd
00000270: f569 73be 8999 02be ddfc 703d 3bec 02be
00000280: 984b 7b3d ebea 4fbe 98a8 b4be 8abd be3d
00000290: da43 23be 06f1 8c3e b0d2 13bd df61 0bbe
000002a0: c0ac 2e3e 3aa5 92bd 4840 47be 9ccc f3bd
000002b0: 2b6b 9bbe ace4 fa3d 594e b53d c5a9 613e
000002c0: 53bb 77bd a9e1 213d 4867 55bd 6be4 21be
000002d0: 2226 b1bd 52e3 2dbd 9a76 2ebe ad06 33bd
000002e0: 6031 043e 8212 82bc 0d2e 76be d863 aa3e
000002f0: 585d 8d3b 67dd 1bbd 98d9 fd3b cf0c fb3d
00000300: d917 babd 5672 80bd 6438 86bc a58b 283e
00000310: be58 fc3d a64e b33d a5f0 0b3e a267 a6bc
00000320: dbb5 4fbb fc1e 523d cb96 663d b053 1abe
00000330: a19e 103e 7e61 babd cc89 21be ad5f 49bc
00000340: ab15 bfbe d293 9dbe a550 b23e d7fc 093e
00000350: 2721 aebe f77b ffbd 09f3 55be e431 7b3d
00000360: c3b1 243e 249f 45be fa84 80be b8a4 97bc
00000370: 1e54 9bbe 995a f8bd 777d ed3d d44a 80bd
00000380: aa16 acbd ee9d a2be 5fe5 99be 09ae 40be
00000390: b1a3 983d e0fe cf3d 9bb1 85bd 9825 53bd
000003a0: 8d19 7b3e b613 0abe 43b2 09be e47e 39bd
000003b0: c836 5ebe 4165 babc b806 263e a1a0 90bb
000003c0: fbc7 8abe 734a a53d a875 543d 7a36 63bd
000003d0: 25cd 54be 6348 8cba 4e4f 96bd e0d2 05be
000003e0: f553 0b3c 3d35 38bd e32b 24bd 137f 833d
000003f0: 65e6 12be 62e5 99be a97e 743d 821e bebc
