neural_network/models/no_quant_model.tflite (tflite, 41400 bytes, 10 tensors)

sequential/conv2d/BiasAdd/ReadVariableOp f4 [32]
000000 7c f9 10 be 26 65 43 be 57 39 ab be 39 89 c9 3d
       -0.1415767 -0.19081554 -0.33442184 0.09840626
000010 9f 49 8a be 3c 3d e4 bd d3 51 c2 bd 38 26 ca bc
       -0.27009293 -0.11144492 -0.09488263 -0.024676427
000020 94 c0 50 be aa 2a 02 3d 3f be 91 be ba af 7b be
       -0.20385963 0.03177897 -0.2846546 -0.24578753
000030 ff 47 e7 bd e5 fc 15 be 84 4f a9 bd 80 09 5d be
       -0.11293029 -0.14647253 -0.082671195 -0.21585655
000040 52 ae b0 be d0 48 19 be 5c 3c 7b be 9d 15 83 be
       -0.34507996 -0.14969182 -0.24534744 -0.25602427
000050 90 d2 c5 be 72 f5 a7 bd 99 af 9a be 5e 41 22 3d
       -0.3863721 -0.08201112 -0.30212095 0.03961312
000060 23 6b 25 be 90 90 83 be 8b 2e 97 bd 58 8c 1b be
       -0.1615415 -0.2569623 -0.07381924 -0.15190256
000070 5c cd 24 be 6d 65 03 3e 22 4f ae 3d 44 c9 46 be
       -0.16093963 0.1283166 0.08511187 -0.19412714

sequential/conv2d_1/BiasAdd/ReadVariableOp f4 [16]
000000 c6 40 a9 3c f5 0a 54 bd 0e 40 ec 3d bb 66 64 be
       0.02066077 -0.051768262 0.11535655 -0.22304814
000010 8b ba 33 3e 81 2b 83 bd 66 33 fd bd ad 23 dc 3d
       0.17551629 -0.06404782 -0.12363319 0.10748992
000020 07 17 80 be 5d 43 de bd a0 a8 0f be 8e 6a c4 bd
       -0.25017568 -0.10852692 -0.14029169 -0.09590636
000030 79 83 68 3d 3d 53 76 be 32 d3 81 bd a5 89 98 bd
       0.056766007 -0.2405519 -0.063391104 -0.074481286

sequential/conv2d/Conv2D f4 [32, 3, 3, 1]
000000 1d 56 3a 3e fc 19 e2 3e 88 c5 77 3d 33 2d 9e bd
       0.18196912 0.4416045 0.060491115 -0.07723465
000010 97 d6 dd 3c a4 e8 8d bd 40 8c 8d be 3d 60 a6 be
       0.027079863 -0.06929138 -0.27646065 -0.324953
000020 b0 25 2c be 86 a2 a0 be aa ee 87 3e a4 f7 a3 bc
       -0.16811252 -0.31373996 0.26549274 -0.020015545
000030 60 a7 96 3b 53 ac 5c 3d 6c 78 e2 3d 32 35 8b 3e
       0.0045975894 0.05387528 0.11058125 0.27189022
000040 9b 6c be be b6 f8 e3 3d dd c3 29 3e 58 26 19 3e
       -0.37192234 0.11131422 0.16578622 0.14956033
000050 0e 31 1e be ba e9 28 3d 5c 15 b4 3d 17 7e 54 be
       -0.154484 0.041238524 0.087931365 -0.20751224
000060 f6 13 4d be c9 8e a1 3d e4 5d 20 be 25 c4 a1 be
       -0.20027146 0.07888562 -0.15660816 -0.3159496
000070 36 56 05 bf ad 7d c6 be 8a 0a 7d 3d ed 5c 8c 3e
       -0.5208467 -0.38767758 0.06177763 0.27414647
000080 e3 34 90 3e bc db 31 3e 46 30 0c 3e ec 9b d5 3d
       0.2816535 0.17368978 0.1369029 0.1043013
000090 04 e2 2f 3c 93 8f 86 bc 2c be 2f bd c6 83 7d be
       0.010735039 -0.016425883 -0.04290597 -0.24757299
0000a0 75 ce 62 3d 5a 39 1c 3e d5 d1 56 be 75 18 3e 3d
       0.055372674 0.15256253 -0.20978482 0.046410043
0000b0 36 4f 80 3e 68 a3 05 3e 97 cb b3 bd 7d cd 39 3c
       0.25060433 0.13050616 -0.08779066 0.011340496
0000c0 3c c4 d1 3d 61 57 77 3d b4 5a 9d 3c 2b e8 d8 3d
       0.10242507 0.060386065 0.01920829 0.105911575
0000d0 90 58 96 bd 57 87 ee bc 70 10 c9 bd 24 4c c3 bc
       -0.07341111 -0.02911727 -0.09817588 -0.023840018
0000e0 d8 34 c2 3d 19 67 33 3d 01 9c 3f 3e bf 3b 3d 3e
       0.094827354 0.043799493 0.18711855 0.18479823
0000f0 25 04 95 3c 43 d2 30 3e ab de 7f 3d 18 17 9a 3d
       0.018190453 0.17267708 0.062468212 0.07523936
000100 9d 90 b6 3d 09 d6 62 3c c5 60 6d bd ee bc 42 be
       0.089143015 0.013844975 -0.057953615 -0.19017383
000110 d8 c6 41 bd 72 0b 99 bd f0 0d 09 be f2 21 e1 3d
       -0.047308773 -0.07472886 -0.13384223 0.10992803
000120 08 81 70 3e 92 f1 0f bc c3 c9 56 3e 18 81 2c bd
       0.23486722 -0.008785622 0.20975403 -0.0421153
000130 f8 ef e2 bb f6 f4 0f 3e e5 e1 5e bd 7f 4d 08 be
       -0.006925579 0.14058289 -0.05441465 -0.13310812
000140 28 33 d8 3c 50 e1 32 3e 49 20 a6 3d e1 6b 4e bc
       0.02639158 0.17468762 0.08111627 -0.0125989625
000150 dc 2f 51 3e 89 29 14 3e 08 82 b0 3d e1 a7 83 bd
       0.20428413 0.1446897 0.086185515 -0.06428505
000160 f9 8a 68 3d 5a df 94 3e 8d c0 a2 3d c5 f0 92 bb
       0.05677316 0.29076654 0.079468824 -0.0044842684
000170 83 1f 25 3e 54 d8 22 3e 76 8a 29 3d 3e 38 c6 3c
       0.16125302 0.15902835 0.041391812 0.02419674
000180 8c ba b3 bd 06 ec 9e 3d 3d cd 70 3c 89 59 16 be
       -0.08775815 0.07759862 0.01469737 -0.14682592
000190 30 99 33 be 53 d2 36 be a5 f3 03 be a1 b2 b5 be
       -0.17538905 -0.1785367 -0.12885912 -0.35487846
0001a0 88 09 83 bd 71 07 06 be 2a e1 d5 3e b5 e6 67 3e
       -0.06398302 -0.13088776 0.4177335 0.22646601
0001b0 64 06 e4 3d 05 8b 77 3d 6e e1 70 be 32 2d 84 3c
       0.111340314 0.060435314 -0.23523495 0.016134832
0001c0 b4 33 83 3c 73 fa 5f be 6b 4b 30 3e 62 2a 4a be
       0.016015865 -0.21872883 0.1721627 -0.1974273
0001d0 2c 0d 18 be c7 32 1a be e4 d1 ff bd 57 8b 3b bc
       -0.14848775 -0.15058433 -0.12491205 -0.011446795
0001e0 af e1 f8 bc 6e 87 1e 3e 96 73 06 be 1f 64 43 3d
       -0.030381052 0.1548135 -0.1313003 0.047702905
0001f0 cb 3c 7f 3e 28 0d 2d bd 30 90 5f be 44 ff 98 be
       0.24925534 -0.042248875 -0.21832347 -0.29882252
000200 3b 98 c5 bb 4b ef bd bd d6 19 b3 bc 3e 41 99 bd
       -0.00603011 -0.09274157 -0.021862905 -0.07483147
000210 01 86 e8 3d 82 e0 d4 3e df 88 45 3e 30 d1 57 be
       0.11353684 0.41577536 0.19290493 -0.21075892
000220 b6 26 27 be 73 e5 bd bd 2a 07 04 be 89 81 69 3d
       -0.16323361 -0.092722796 -0.12893358 0.0570083
000230 51 3c 75 be 54 4e 69 3d 87 c9 cb 3d 84 0f 73 be
       -0.2394879 0.056959465 0.09950548 -0.23736387
000240 7d ce 31 3e 81 55 a9 bd 86 b5 af 3d 6e a1 61 3d
       0.17363925 -0.08268262 0.08579545 0.055085592
000250 cd 88 09 be 96 a7 f8 bb 16 69 39 bc 8b 9c 87 3d
       -0.13431092 -0.007588337 -0.011316558 0.06621655
000260 db f6 d3 bd f5 a6 13 3d 6c 91 2b 3e 88 da da bd
       -0.10349818 0.036047895 0.16754693 -0.10686213
000270 cd e9 22 bd d8 6d 01 3e 46 5b 00 bd 89 7f ac bd
       -0.03977375 0.12639558 -0.031337045 -0.08422763
000280 e8 f5 9e 3d d5 05 d9 3d ff 8d 5e 3e dc bd 10 3e
       0.07761747 0.105968155 0.21733855 0.14134926
000290 37 49 84 3c ea bb c2 bd c7 8b 39 be 5b 11 b1 bd
       0.016148193 -0.09508498 -0.18119727 -0.086458884
0002a0 92 3e d8 3d 6e 24 95 3c 78 34 02 3e 3a 4e a3 3e
       0.10558809 0.018205848 0.12715328 0.3189562
0002b0 e2 02 84 be 6e c0 a5 3e 34 7f bd bd c0 2a 89 bc
       -0.2578345 0.32373375 -0.09252778 -0.016744018
0002c0 e0 26 ce 3d bd 9a af be 88 07 5c 3e 61 f8 19 be
       0.100660086 -0.34297743 0.21487248 -0.15036155
0002d0 e7 03 a4 3d d4 d9 c2 be b8 e8 9e bd 7e ea 72 3c
       0.08008557 -0.38056815 -0.07759231 0.014826415
0002e0 58 82 d1 bd cb 36 4b be b7 69 21 3e da 54 b4 3e
       -0.10229939 -0.1984512 0.15762983 0.35220987
0002f0 c8 06 c8 3d 2b d7 b3 3b 43 01 e3 bd 8c 2e ac 3e
       0.097669184 0.0054882965 -0.11084225 0.33629262
000300 1d 67 21 3d 4a 2f 69 be cd de 4b 3e 67 07 0a 3e
       0.039404977 -0.22771946 0.1990921 0.13479386
000310 12 f6 8a 3a e0 51 44 bc fa da 03 be 67 a1 a1 3e
       0.0010601899 -0.011982411 -0.12876502 0.31568453
000320 cc f0 14 be 06 a0 46 be fd 2a f2 3d 37 0e 2d bd
       -0.14544982 -0.19396982 0.118246056 -0.042249884
000330 6d 24 9d 3b 9c 35 44 be 5a 46 8c 3d 09 e8 a1 be
       0.004795602 -0.19161075 0.06849356 -0.3162234
000340 5e a0 4e 3d 41 79 af bb 7c 0a 78 bd 56 d0 67 bd
       0.050445907 -0.0053550308 -0.060556874 -0.05659517
000350 5b c9 a7 3d 77 de 17 3e a6 e6 67 be 1b e7 ab be
       0.081927024 0.14830957 -0.22646579 -0.33574757
000360 4d 11 0a 3d 3a 3f 9a 3e ef f3 2f be 68 3f be bc
       0.033707906 0.30126363 -0.17182897 -0.023223594
000370 a7 99 21 bd f6 7b bb bc 0a 9c 68 be 90 b9 93 be
       -0.039453175 -0.022886258 -0.22715774 -0.2885251
000380 83 02 61 3e bc 57 ec bd a5 b1 6d be 83 06 44 bd
       0.21973614 -0.115401715 -0.23212297 -0.047857773
000390 0f a9 de 3d d3 69 c4 bd bb f8 cf bd a8 be 43 3e
       0.10872089 -0.09590497 -0.101548634 0.19115698
0003a0 ad fd 95 3e ba 94 82 bd 04 37 68 bd 0e 79 6f 3c
       0.29295102 -0.063760236 -0.056693092 0.014616264
0003b0 bb 33 33 3e 0f ef 85 3e 44 b3 56 3e a2 74 94 bc
       0.17500202 0.2615895 0.20966822 -0.018122021
0003c0 4e 45 4a be 03 0c b7 bd e8 82 0e be 10 97 19 be
       -0.19753 -0.08937838 -0.13917124 -0.14999032
0003d0 e9 3e 2c be 74 89 a8 3e 34 d9 b6 3d 43 06 1b be
       -0.16820873 0.32917368 0.08928147 -0.15139107
0003e0 2e 9f 2a bc 17 77 2d 3e 8f 5d 91 3d 24 65 bc be
       -0.010413928 0.1693996 0.07097923 -0.36795914
0003f0 b5 6a 33 3e 80 0f 9f 3e 24 ae f1 3e 7b eb 11 be
       0.17521174 0.31066513 0.4720317 -0.14249985

sequential/conv2d_1/Conv2D f4 [16, 3, 3, 32]
000000 f8 70 03 3e 7c 90 87 3e fa 91 ae bc 91 6e 69 3d
       0.12836063 0.2647742 -0.021309841 0.05699021
000010 a0 4d 9b 3d 45 ab 66 bd f8 01 61 3d 51 90 8e bd
       0.07583165 -0.05631568 0.05493352 -0.0696112
000020 0d 08 fb 3c 89 e2 c7 3d d0 a9 84 38 d3 54 49 be
       0.030643487 0.09760005 6.3258805e-05 -0.19661264
000030 01 48 c0 3d b2 75 80 3b 40 b7 a7 bc b2 e5 d6 3b
       0.09388734 0.0039202804 -0.020473123 0.0065581435
000040 d1 30 7a 3b 09 c0 ee 3d 0c c1 16 be eb 89 22 be
       0.003817607 0.116577215 -0.14722079 -0.15872924
000050 e8 44 ff bd 15 2b 6e 3d ef 5e 0d 3e 28 44 da 3b
       -0.12464315 0.058146555 0.13805746 0.006660957
000060 07 06 55 3d d1 63 d7 3c 6f a8 2d bd ad c1 7e bc
       0.0520077 0.026292713 -0.04239696 -0.015549106
000070 d1 ac e8 bb 50 0c 79 3d 07 d8 aa 3a 0e 19 91 3d
       -0.0071006794 0.060802758 0.0013034352 0.07084857
000080 9d 71 6e 3d 83 34 6c be 97 6f 5e 3d b7 5f 0c bd
       0.05821382 -0.23066907 0.05430564 -0.03427097
000090 f5 86 91 bd 39 eb a1 3d 4f 2c 58 be cf be 54 3e
       -0.07105819 0.07906193 -0.21110652 0.20775913
0000a0 a9 7b f1 3c a1 f9 3d be f0 05 fd bd 24 de 2b be
       0.029477911 -0.18552257 -0.12354648 -0.16783959
0000b0 fa 68 b8 3d 0f e9 04 be be 15 e5 bd d8 17 23 bc
       0.09004398 -0.1297953 -0.111857876 -0.009954415
0000c0 32 cc 06 3c ec 6d 02 3d 20 1b ac bd a6 34 c4 3d
       0.008227395 0.03184311 -0.08403611 0.095803544
0000d0 f6 f9 5f bc e6 b2 90 3d 78 a1 f9 3d e9 83 15 3d
       -0.013670435 0.07065372 0.12189001 0.036502752
0000e0 17 9c 0d 3d a7 09 27 bd 7d 68 7f be c9 3b c8 3b
       0.034572687 -0.04078069 -0.24942203 0.0061106426
0000f0 5a 4e 0a be 5b 96 a0 bd 80 cd e8 3d bf 89 12 be
       -0.13506451 -0.07841178 0.11367321 -0.14310358
000100 df c5 f5 3c 7f 5c 9f bd 07 20 ac bd 9f a1 7a 3d
       0.030001579 -0.07781314 -0.08404546 0.06118929
000110 b8 45 20 3e 79 8c c3 bd ab 97 9c bb 06 6a 27 3c
       0.15651596 -0.095482774 -0.0047788224 0.010218149
000120 6f e3 55 bd 39 7c 94 3d 8d 3f a8 bc 48 d1 40 3e
       -0.05221885 0.07250256 -0.020538116 0.18829834
000130 e9 cb 9a be 88 f3 64 3e 80 8f 58 3e d3 a0 11 3d
       -0.30233696 0.22358525 0.21148491 0.035553765
000140 a7 b7 8d bd 68 92 4b bc 7b 18 51 be ce 30 99 3e
       -0.069197945 -0.012425043 -0.20419495 0.29920048
000150 48 57 4b be 03 32 09 b9 06 89 37 bd 04 9e bc bd
       -0.19857514 -0.00013083969 -0.04480841 -0.092098266
000160 38 a1 60 3b e6 a1 92 be 97 af 70 3d 2c 53 1f be
       0.0034275781 -0.28639144 0.058761206 -0.15559071
000170 b2 6b 41 be c5 ac 68 3e f0 dc a2 bc 9c 1a d1 be
       -0.18888739 0.22722156 -0.019880742 -0.40840614
000180 8b 37 58 3d 52 74 bb 3d 4d 18 66 bd 55 d6 30 bd
       0.052787345 0.09153046 -0.05617552 -0.043173153
000190 b5 e1 b7 bd 71 d2 28 3d 28 03 5f be 79 3f 80 3d
       -0.08978597 0.041216318 -0.21778548 0.062621064
0001a0 0f 08 98 bd 7d e5 ec bd 5c 91 d1 3d a8 9b 77 3d
       -0.07423412 -0.11567209 0.10232803 0.06045118
0001b0 1f ac 8d 3c a8 05 d5 bd 24 02 ae be 42 c3 5f be
       0.017293988 -0.104014695 -0.33986008 -0.21851829
0001c0 b6 e3 32 3d 42 6a 01 be cf 30 0e 3d 08 82 99 3d
       0.043674193 -0.1263819 0.034714516 0.074955046
0001d0 e2 59 c8 bd aa 87 b1 3d 1b 5d 3d 3d a2 7c 61 bc
       -0.09782769 0.08668454 0.04623137 -0.013762625
0001e0 a9 b1 c3 3d 3d af 0c be 18 fa 9f 3c 81 6f 2f bd
       0.0955537 -0.13738723 0.019528434 -0.042830948
0001f0 72 3f 19 3d 7e e6 70 bc 9d 44 5c 3e 0c d8 a0 3c
       0.03741402 -0.014703391 0.21510549 0.01963427
000200 48 af 1b be 14 cb 7b 3d 0f fe 49 be 65 28 1b 3d
       -0.15203583 0.061472967 -0.19725822 0.03788032
000210 11 5d e9 3d b2 dc e1 bd b2 08 6c be 99 69 e9 3d
       0.11394704 -0.110284224 -0.23050192 0.11397094
000220 6a b8 35 bd 95 51 75 be 54 f6 27 be f8 4b b8 bd
       -0.044365324 -0.23956902 -0.1640256 -0.08998865
000230 63 1f 1a be b2 07 6c bd 35 f1 10 be 5c 9f 27 bd
       -0.15051036 -0.057624526 -0.14154513 -0.04092346
000240 2d 07 19 3d 7f d1 e0 bc 94 1a 47 be 78 eb 0f 3e
       0.03736036 -0.027443646 -0.19443733 0.14054668
000250 51 03 cc 3c 50 63 0c 3e 1f 79 75 bd 6d 76 6f 3d
       0.024903925 0.1370976 -0.059929963 0.05846255
000260 18 25 59 bd c7 8c c8 bd db f1 e1 bd 8c f0 0b 3e
       -0.05301389 -0.09792476 -0.110324584 0.1366598
000270 09 ae b8 bd e3 b4 1f bd 45 49 0e 3e 0b 49 9c 3c
       -0.090175696 -0.038990866 0.13895138 0.019077798
000280 65 2c 5c bd b4 93 97 3d e3 72 e2 bd a0 e7 2a 3d
       -0.053753275 0.07401219 -0.11057069 0.0417248
000290 6f 6d 1a 3e 2e 6a 81 be d3 18 7c 3e 8f 6b 25 be
       0.15080808 -0.2527632 0.24618845 -0.16154312
0002a0 57 1b c8 bd f6 5d 9c bd 79 b2 92 3d 24 57 28 3d
       -0.0977084 -0.07635109 0.07162947 0.04109873
0002b0 8e bd 1b be df 99 a6 bd 2c ca 71 3e c8 be db bd
       -0.15209028 -0.08134817 0.23612279 -0.10729748
0002c0 1b 30 65 be 81 57 2d 3d 77 95 19 3d 1d cf bf 3c
       -0.22381632 0.04231978 0.037496056 0.023414189
0002d0 89 78 a7 be 4b a4 4e be 40 09 f8 3c de 57 23 3d
       -0.3270915 -0.2017986 0.030277848 0.03987872
0002e0 ef 82 98 bd 83 97 58 be e6 8d 14 bd 1f 85 8f be
       -0.074468486 -0.21151547 -0.036268137 -0.2803125
0002f0 33 ad 95 be 74 86 6d 3c 2d d0 b2 bc 4f f6 69 be
       -0.29233703 0.014497388 -0.021827782 -0.22847866
000300 1e b9 a5 be 08 82 2f 3e 37 d1 3d 3c 74 6b ef 3b
       -0.32367796 0.17139447 0.011585525 0.0073065106
000310 a6 f3 f4 bd 5c 88 99 3d e8 95 20 3d 12 48 d9 3d
       -0.11960535 0.074967116 0.03920546 0.106094494
000320 6b dc 1e 3e 3f 35 3f bd f4 17 06 bd 20 2b ce bd
       0.1551377 -0.04668164 -0.032737687 -0.10066819
000330 53 07 85 3d bd a6 81 3b 50 7e 71 bc ca fd 3d bc
       0.064955376 0.0039566443 -0.014739588 -0.011596153
000340 24 d4 64 3d 20 f6 82 be e4 96 1a be df 1a 81 be
       0.055866376 -0.25578403 -0.15096623 -0.25215814
000350 04 45 07 be e2 ce 2f 3e 37 17 69 be 46 75 fa 3d
       -0.13209921 0.17168763 -0.22762762 0.122293994
000360 f6 e4 59 bd e7 08 84 bd 12 df 55 be 36 22 2d 3d
       -0.05319687 -0.064470105 -0.20885876 0.042268954
000370 41 b4 5a be 4e 76 df 3a 0e 49 d7 3d 41 06 1d 3e
       -0.21357824 0.0017048807 0.10511981 0.15334417
000380 45 35 56 be ca c0 1c 3e 0d d0 3a 3d 02 63 32 3d
       -0.20918758 0.15307918 0.04560857 0.043551452
000390 11 83 16 3e c6 d8 ce bc 9d 05 f4 3b 66 08 c7 bd
       0.14698435 -0.02524985 0.007446958 -0.09718399
0003a0 a1 bb a1 bd 31 e2 c6 bd 82 14 08 be 42 0a 58 bd
       -0.078971155 -0.09711111 -0.13289073 -0.052744158
0003b0 b9 ad 9c be a4 6d 62 bd 18 1b 15 bc 87 ab f1 bd
       -0.3060129 -0.055280343 -0.009100698 -0.11800294
0003c0 f8 3b 1e be 5d 2b a0 3b f5 77 87 be b9 5d 91 3a
       -0.15452564 0.004887982 -0.26458707 0.0011090554
0003d0 17 5d 41 be 84 e6 a9 bd b3 2b 70 bd c7 e4 cb bd
       -0.18883167 -0.082959205 -0.058635425 -0.09955745
0003e0 d5 ee b5 3c 54 cc ba bd 3f e3 57 bd 1c 44 2d be
       0.02220861 -0.09121004 -0.052706953 -0.16920513
0003f0 7c cd de be 2f 45 f3 3d 9b ff 07 3d 05 ab b8 bd
       -0.43516147 0.1187843 0.03320275 -0.090169944

sequential/dense/BiasAdd/ReadVariableOp f4 [8]
000000 db b8 34 bd aa fb 9f bd e5 73 07 bd 44 9f 7e bc
       -0.044121604 -0.07811673 -0.03306951 -0.015540902
000010 d3 eb 4c 3e 3f 97 35 3e 2f 83 6c bd 13 33 9f 3d
       0.20011835 0.17733477 -0.057742294 0.077734135

sequential/dense_2/BiasAdd/ReadVariableOp f4 [5]
000000 4b f6 7e be 92 ee d3 3f c5 58 aa 3e 79 53 90 bf
       -0.24898641 1.6557181 0.3327085 -1.1275474
000010 aa 77 83 bf
       -1.0270894

sequential/dense_1/BiasAdd/ReadVariableOp f4 [16]
000000 32 bc 17 3f 96 ab bb bc 78 99 fc b7 85 23 2d bb
       0.5927154 -0.022908967 -3.0112205e-05 -0.0026418876
000010 69 b9 24 bf 76 fb 0e bf a4 c2 01 3f a8 f0 0b be
       -0.64345413 -0.5585245 0.50687623 -0.13666022
000020 21 a7 6d 3e d6 67 1d 3f 45 18 03 be 3a fb b0 38
       0.23208286 0.61486566 -0.12802227 8.4391286e-05
000030 13 77 17 bf 0d dc 0b bf 74 b7 02 bd e6 20 4a bb
       -0.5916607 -0.54632646 -0.031913236 -0.0030842363

sequential/dense/MatMul f4 [8, 528]
000000 37 c8 f4 3c 6f f5 0e 3e a8 d8 8b 3d 15 c0 27 bc
       0.029880626 0.13960813 0.06828433 -0.010238667
000010 08 b8 0c be 27 a6 66 bc e2 ef 8e 3d 04 25 e5 3c
       -0.13742077 -0.0140777 0.06979348 0.027971752
000020 88 6e 4a bd c9 20 a1 bd 4f b4 44 bd d8 2e 2c 3d
       -0.049421817 -0.078675814 -0.04802352 0.04203686
000030 82 20 22 be cb 1a ad bb 71 20 dd bc 86 b5 cc bd
       -0.15832713 -0.005282735 -0.026993008 -0.0999556
000040 ac 07 c1 bd 6b 62 28 3d 56 d7 0c 3e 02 46 de 3d
       -0.094252914 0.041109484 0.13754019 0.10853197
000050 0b d9 df bd 86 42 c2 3d 29 4e 66 bd f7 39 15 3d
       -0.109300695 0.094853446 -0.056226883 0.036432233
000060 0e 4f 45 3d aa e8 9c bd d9 f8 60 3d 43 b6 05 3e
       0.048171096 -0.07661565 0.05492482 0.13057809
000070 bb 46 85 be 79 2e 28 be b7 a6 2b 3c 90 1e 01 be
       -0.26030526 -0.16423978 0.01047676 -0.12609315
000080 38 13 69 3d f7 ad ff 3d 45 60 38 bd 60 40 0a be
       0.056903094 0.12484353 -0.045013685 -0.1350112
000090 f4 18 58 be 7a 32 8b bc 0d 42 a3 bd 4d 6a cc bd
       -0.21103269 -0.016991843 -0.079715826 -0.09981213
0000a0 4f 10 1f 3e d0 c0 2a 3d e4 89 14 3e ad 7b 6c 3d
       0.15533565 0.041687787 0.14505726 0.057735134
0000b0 9c 45 e3 3d 6d f2 07 3e 84 fe 0e 3e 27 3f 9b bd
       0.11097261 0.13276072 0.13964278 -0.07580405
0000c0 15 37 e6 bc 43 3b 00 be 83 02 4f bd fc 97 08 bd
       -0.028102437 -0.12522607 -0.050539505 -0.03334807
0000d0 25 7b 0e bd 67 cc be 3b c7 fd e4 3d c9 5d 24 3b
       -0.03478541 0.0058227065 0.11181217 0.0025080314
0000e0 ab 0c b1 bd 60 58 19 3e 0d 42 1e 3d e0 7e 50 3e
       -0.08644994 0.14975119 0.03863721 0.20360899
0000f0 da 13 a7 bd 58 1e bb bd a8 e5 4b be 73 41 17 be
       -0.08158083 -0.09136647 -0.19911826 -0.1477106
000100 ec bd 79 3c b4 e8 af 3e c5 6e 65 3e 0e 3d 9e 3d
       0.015243035 0.34357226 0.22405536 0.07726489
000110 d7 20 8e bd 8a 14 24 3e 07 56 1a be 9c e7 86 bd
       -0.069398575 0.1602346 -0.1507188 -0.06587145
000120 7b 71 e9 3d 61 7c 3f be a5 ae f9 3d 9e cc 41 bc
       0.11398598 -0.1869979 0.12191514 -0.01182857
000130 43 38 32 3b 23 fa 21 be 5a c7 7c ba 7c 99 fc bd
       0.002719418 -0.15818076 -0.0009642743 -0.12333962
000140 1f b2 24 3e 74 b7 bf be 3e d5 b3 3d 0a 35 0e bd
       0.16083573 -0.3744465 0.08780907 -0.03471855
000150 68 69 29 be 71 8d f3 3d a8 06 82 be 60 52 d3 bd
       -0.16544116 0.11892212 -0.25395703 -0.10318446
000160 88 3a 42 3d a7 b9 9c bd fe f5 6f 3d 75 5b 51 be
       0.0474191 -0.07652598 0.058584206 -0.20445044
000170 46 48 51 bc 98 fe a1 3d 6d 6a be 3d 15 28 ed bd
       -0.012773579 0.07909888 0.09297643 -0.11579911
000180 83 ef 73 bb e7 67 74 be 4c b9 ad 3c a8 72 fd bd
       -0.0037221618 -0.2386776 0.02120652 -0.123753846
000190 0e 17 8d 3d 13 9b 9d bd ea e0 02 3e 0b e4 31 bd
       0.06889163 -0.07695594 0.1278111 -0.04343037
0001a0 56 30 6a bc 11 3c 59 3e 07 da 8d bd ea db df 3d
       -0.014293751 0.2121432 -0.06926351 0.10930617
0001b0 40 70 2a 3e e6 50 7c bd ad 68 b7 be 2c 95 00 bd
       0.16644382 -0.06160059 -0.3582205 -0.03139226
0001c0 ff b1 c3 bd 3a 05 b1 3d 75 59 39 bd 75 25 83 bd
       -0.095554344 0.08643575 -0.04525133 -0.06403629
0001d0 97 a7 3b be 22 1e 97 bd 42 24 38 be 32 a7 f4 bb
       -0.18325649 -0.07378794 -0.17982581 -0.0074662203
0001e0 c9 ea 21 3e 11 b0 0e be 11 e3 ea 3d 7f 6a 1e be
       0.1581222 -0.13934352 0.11469091 -0.15470313
0001f0 30 e5 21 3c f5 81 07 be e3 97 57 3c 08 a8 f8 3d
       0.009881303 -0.13233168 0.013158771 0.121414244
000200 56 50 12 3e df ba 54 be d0 0a e4 bd 3f 4d 04 3e
       0.14288458 -0.2077441 -0.11134875 0.12920092
000210 bc 72 80 be 3c 92 35 be 9c db a3 bd 7d f8 e9 3d
       -0.25087535 -0.17731565 -0.080008715 0.114243485
000220 73 97 6d be eb fd 39 bd 2f b9 7b 3c 4a 0e 6d bd
       -0.23202305 -0.04540817 0.015363975 -0.057874955
000230 2b eb 30 be fd ff 89 bd 1e 12 1f 3d 7a f4 1c 3d
       -0.1727721 -0.06738279 0.038835637 0.03831909
000240 58 ad 22 be 03 a8 90 bd a1 22 86 3c 9f a3 6d bd
       -0.15886438 -0.07063296 0.016373934 -0.05801737
000250 78 d4 e6 3d d6 29 cf bd 64 30 a5 3e d4 73 97 bd
       0.11270994 -0.101154014 0.32263482 -0.07395139
000260 5d 6a a7 bd 31 57 37 3e 68 17 cf bd d9 06 66 3e
       -0.08174584 0.17904355 -0.10111886 0.2246355
000270 1f 86 d8 3d 96 11 5f 3d f6 e5 f1 be f8 c7 49 bd
       0.105724566 0.05446013 -0.4724576 -0.04926297
000280 da a5 cb 3c d8 54 19 3e 55 de 97 bc 25 2b 5d be
       0.024859358 0.14973772 -0.018538633 -0.2159849
000290 40 e8 91 be 73 e0 9a 3d a0 ae ce bc a8 94 69 bd
       -0.28497505 0.075623415 -0.025229752 -0.057026535
0002a0 63 93 95 3e 12 1d d8 bd b0 c3 1f 3e bd d0 26 bd
       0.2921401 -0.1055242 0.15601993 -0.040726412
0002b0 80 75 3f bd 5f cf 1b be 51 74 76 bd 2c b6 14 3e
       -0.046742916 -0.15215825 -0.06016952 0.14522618
0002c0 6e de dd 3e 93 ab d2 ba 30 3a 54 be a4 c7 d0 ba
       0.43333763 -0.0016072862 -0.20725322 -0.0015928638
0002d0 ea 3a 2c be 09 07 8d 3d 78 47 90 bd bd b0 65 3c
       -0.16819349 0.068861075 -0.070448816 0.0140191885
0002e0 12 5d d5 bd d4 11 64 bc 5f a6 29 3d b9 43 6c be
       -0.104181424 -0.013920266 0.04141843 -0.23072709
0002f0 53 a3 ba be e7 91 ae be c4 c3 4c 3c 60 25 c0 3c
       -0.36452731 -0.3409569 0.012497846 0.023455322
000300 c0 88 a0 bd f7 15 ec bd ad de a7 bc 3f 5f a8 be
       -0.07838583 -0.11527627 -0.020491922 -0.32885167
000310 d2 11 cd 3d 94 a5 f6 3c 74 6e 09 3e 2b ce 3a be
       0.100131646 0.03010825 0.13421041 -0.1824271
000320 fd 5a 76 bd c8 45 3e 3e a5 cf 0f 3c 30 9e a8 3d
       -0.060145367 0.18581307 0.008777534 0.08233297
000330 ec c2 cb 3d c2 a5 26 3e 01 35 b4 be 01 6e 18 be
       0.09949288 0.16274169 -0.3519669 -0.14885713
000340 b8 e4 02 3d b9 ba 99 3e 3e 77 bc bc a8 58 b2 bd
       0.031956404 0.3002527 -0.023006078 -0.08708316
000350 bd dd 60 bd 9b 1f d1 bd a2 a6 96 bd 60 17 69 3d
       -0.054898966 -0.102111064 -0.073560014 0.056907058
000360 21 da c4 bc fc a6 8a 3a 33 53 98 bd db 0e 85 be
       -0.024029793 0.001057833 -0.07437744 -0.25987896
000370 ec 9f 48 be b5 8d bc bd 5e 44 fd 3d 83 37 16 3e
       -0.19592255 -0.09206716 0.12366556 0.14669614
000380 cd 26 25 3d 29 77 c0 3c dc 78 9e bd 42 79 b2 3d
       0.040320206 0.02349432 -0.07737896 0.08714534
000390 1e c4 d3 bd 65 85 78 3d 9a e0 c8 bd aa fa d5 bd
       -0.10340141 0.06067409 -0.09808464 -0.10448201
0003a0 f0 a8 27 be ee 8e 1d 3c b5 5f bd bd a3 13 e4 bc
       -0.16373038 0.009616597 -0.0924677 -0.027841395
0003b0 dc 49 48 be e3 22 fa bd 3d 87 87 bc b1 6f 5a 3e
       -0.19559425 -0.12213685 -0.016543979 0.2133167
0003c0 1a f2 88 3d ff 94 b8 bd 3c 7a 4a 3b 52 c6 25 be
       0.06686802 -0.09012794 0.0030895611 -0.16188934
0003d0 b3 88 15 3d 83 1b 89 3d 7e 9a 8d 3e 62 ba 62 be
       0.03650732 0.066947006 0.2765693 -0.22141412
0003e0 34 16 8d bd 32 32 44 3e 7b 11 9b bd 09 ee 24 3e
       -0.068890005 0.19159773 -0.075716935 0.16106428
0003f0 d1 d9 4f 3e 96 97 e8 3d 48 90 c7 be ad 55 6f be
       0.20297934 0.11357038 -0.38977265 -0.23372526

sequential/dense_1/MatMul f4 [16, 8]
000000 6e 3e 2c 3f 90 13 f9 3e c9 39 e9 be f6 c7 e0 be
       0.6728276 0.48647738 -0.455519 -0.43902558
000010 a3 ae 54 3d 42 3a 94 be 9b e5 91 be a8 a5 a4 bd
       0.05192436 -0.28950697 -0.28495488 -0.08039409
000020 e0 89 00 be fb c2 e6 3e c8 62 59 3d f1 17 e0 bd
       -0.12552595 0.45070633 0.05307272 -0.109420665
000030 05 2f 84 bd d6 a1 34 3f 8f 05 ea bc 19 3f 70 bd
       -0.06454281 0.7055944 -0.028567104 -0.058653925
000040 78 1a 16 be 31 9e ba 3e 82 19 b3 3f 91 9f af 3e
       -0.14658535 0.36448815 1.3992159 0.34301427
000050 85 f1 13 bd 9c 91 04 3f 3e 42 a6 be ca 21 64 3e
       -0.036119003 0.5178468 -0.32472414 0.22278515
000060 aa bc cc 3e f2 be 6c be 63 a1 01 3f a3 83 35 be
       0.3998769 -0.23119715 0.5063688 -0.17725997
000070 f4 59 da bc 6e 06 2a 3f 0b 29 4d 3e de 74 52 bd
       -0.026654221 0.6641606 0.20035188 -0.051380984
000080 da 61 db 3e b1 2e b5 3e 5d 74 0b be 75 32 7b 3e
       0.42848092 0.35387185 -0.13618608 0.24530967
000090 98 c6 df 3e c1 10 41 bf 11 f6 ea bd 23 35 c3 3e
       0.43706203 -0.7541619 -0.11472715 0.38126478
0000a0 06 c9 4d 3f f9 6d 37 be 2b 7b c7 be dd fd 0a bf
       0.8038486 -0.17913045 -0.38961157 -0.54293615
0000b0 69 2a be 3e 78 55 88 3e 52 cf be bd 83 19 f4 bd
       0.3714173 0.26627707 -0.09316887 -0.119189285
0000c0 9d 6f 22 bf 5d cc 48 be 7f 8b 1a 3f a6 25 00 bd
       -0.6345156 -0.19609208 0.60369104 -0.031285904
0000d0 91 36 5a bf bc 85 07 bd a7 5b 29 3e 51 a7 76 bf
       -0.8523951 -0.033086523 0.16538869 -0.96349055
0000e0 92 3a aa 3e 25 e5 55 bc 9e e2 42 3f be 08 52 3f
       0.3324781 -0.013055121 0.7612704 0.8204459
0000f0 f3 b6 98 bd 27 b6 4b bb 84 28 af be ce 9c 74 bd
       -0.0745677 -0.0031083913 -0.34210598 -0.059719853
000100 a6 9f 92 3f 56 92 f0 3d 36 ad 01 bf 64 16 2d be
       1.1454971 0.11746661 -0.50654924 -0.16903073
000110 29 ce 7a 3f 3a f6 de bd 1a d7 17 3a 96 40 55 3f
       0.97970825 -0.10886808 0.00057922455 0.83301675
000120 b0 e2 2b 3f 2c 60 63 be e3 49 fb be ea 21 b1 be
       0.6714277 -0.22204655 -0.4907981 -0.34596187
000130 16 9e b4 be 7d 62 a9 be 43 89 fd 3e 10 d1 47 bd
       -0.3527686 -0.33082953 0.49518785 -0.048783362
000140 c9 fc 5f be 6b 7b 33 be f2 6c b9 be 3a ef 86 3d
       -0.21873774 -0.17527549 -0.3621593 0.065885976
000150 4e 25 19 3f 83 2c 3b bd d8 9d 79 be 3d 5b 4d 3f
       0.5982255 -0.045696747 -0.24376619 0.80217344
000160 4e ca af be b6 ae fd be 03 03 a7 3f 7a 18 32 3f
       -0.34334034 -0.49547356 1.3047794 0.695686
000170 4b 85 38 be 2a 66 81 3d 35 47 d0 bd c1 08 96 3e
       -0.18019597 0.063183144 -0.10169832 0.29303554
000180 7e d9 41 3e 0c bd f5 be ef c0 5e 3f 62 ca 09 be
       0.18930623 -0.47995794 0.87013143 -0.13456109
000190 24 14 09 3e 64 5c ef bd b0 4a 5d 3e 59 67 e7 bc
       0.1338659 -0.11687544 0.21610522 -0.028247522
0001a0 71 67 29 bd 1e e1 98 3e c4 5c 90 be e7 e0 27 be
       -0.041358415 0.2985925 -0.28195775 -0.16394387
0001b0 f4 d0 8c be 23 eb 45 3e 51 5e 1d 3e 00 93 5c 3f
       -0.2750317 0.19327979 0.1536801 0.86161804
0001c0 80 bf 2e bf 11 14 9d 3e 58 73 2e be 21 91 43 3f
       -0.68260956 0.30679372 -0.17036188 0.76393324
0001d0 39 67 33 3e b3 02 1f be d3 46 68 3e 00 5a a4 be
       0.17519845 -0.15528373 0.22683267 -0.32099915
0001e0 17 16 aa 3e 7f 1d b9 3c 6e 37 39 3f 4d c0 47 3f
       0.33219978 0.022597073 0.72350204 0.780278
0001f0 e9 bf 1d be 41 40 30 3d 38 b1 b3 be bf f9 e8 bd
       -0.15405239 0.043030027 -0.35096145 -0.1137576

sequential/dense_2/MatMul f4 [5, 16]
000000 f2 3c b2 bf e2 28 98 3e 04 d8 9c 3e e4 a5 ef 3e
       -1.3924849 0.2971869 0.30633557 0.46806252
000010 60 1d 03 c0 58 57 33 bf 6a 57 80 3f 0b 94 8e 3e
       -2.048668 -0.7005515 1.0026677 0.27847323
000020 81 77 dc bf 76 25 68 bf 72 49 03 c0 8c a0 e8 3e
       -1.722397 -0.9068216 -2.0513577 0.45434988
000030 a6 e3 80 3f 0d e6 ca bf 96 82 5b 3e d2 54 13 3f
       1.0069473 -1.5851456 0.21436533 0.575513
000040 9d 40 70 3e 12 14 fe be 20 a7 62 bf cb 7b 0d bf
       0.23462148 -0.49624687 -0.8853626 -0.5526702
000050 33 7f 8d bf d1 6d 24 bf c7 5b 6e 3f 1b 51 8d bf
       -1.1054443 -0.64230067 0.9310879 -1.1040376
000060 2c 90 98 be 12 41 9e 3e 80 e6 12 bf 24 b2 5e bf
       -0.29797494 0.3090902 -0.57382965 -0.8699057
000070 5d c2 6e bf a4 c1 0e bf ff d0 f6 bf 28 d6 a2 bf
       -0.93265325 -0.5576422 -1.928253 -1.2721605
000080 79 3d 25 3d e1 ac 97 3e 27 d5 57 3e af 9f 02 3f
       0.040341828 0.29624084 0.21077405 0.5102491
000090 14 73 19 be a8 79 a7 3e ea 4a b7 be f5 1f 63 bf
       -0.14985305 0.32710004 -0.35799342 -0.8872064
0000a0 61 b8 b3 bc f7 d7 92 be a7 ca 02 3e f6 dc 9b 3d
       -0.021938505 -0.28680393 0.12772618 0.07610504
0000b0 5d cf 07 bf 62 a2 84 3e d4 67 68 bf f4 3a f6 be
       -0.53050786 0.25905138 -0.9078343 -0.48091853
0000c0 21 55 78 be 09 ab 70 bf ea 65 2a 3e ce 81 7d bf
       -0.24251224 -0.9401098 0.1664044 -0.9902619
0000d0 3c f7 a5 bb f1 2f 8c 3d ee 85 f8 bd 03 b1 b4 3e
       -0.005064873 0.068450816 -0.1213492 0.352913
0000e0 0a 72 5e bb 13 67 44 bf b9 41 3f 3e f9 53 e5 3e
       -0.0033942484 -0.7671978 0.18677415 0.4479063
0000f0 b0 ad 2c bf 32 a4 c9 3e 1c b8 c8 3e 4b ce 17 3f
       -0.67452526 0.39383084 0.39202964 0.59299153
000100 c9 11 50 3e 39 2e c2 be 0b f3 03 bf e7 8d 74 3e
       0.20319284 -0.3792589 -0.5154273 0.23882256
000110 0c b4 d6 3c 44 6e de 3e 06 9a f2 bd 39 6a 22 3c
       0.0262089 0.434435 -0.11845784 0.009913021
000120 ae ae 06 3c 19 b0 d3 3e 4b 73 1e 3e 7e f3 b1 be
       0.008220358 0.4134529 0.15473668 -0.34756082
000130 dd 00 5a 3f 7a ca 4c 3d f3 77 54 3d 1d 0e 7e 3e
       0.8515757 0.049997784 0.051872205 0.24810071
