neural_network/models/no_quant_model.tflite (tflite, 41536 bytes, 10 tensors)

sequential/conv2d/BiasAdd/ReadVariableOp f4 [32]
00000000: e008 05be 1e18 0fbe 60c1 9cbe eecf 7abe
00000010: 0889 e3bd f167 dfbe 514f b4be e04f bfbe
00000020: 6794 b6be 0be8 bebe 4428 2fbd 0aa9 4fbc
00000030: c53c 1cbe c15b 0ebe f212 bebd dcfa c4bd
00000040: e80a e3be 4860 0bbe 8909 5abe 7907 5abe
00000050: b659 a6be c66e c838 5d6b d0bd c7d4 8fbe
00000060: a064 5cbd 5f88 eabe 0c94 43be 12dc e9be
00000070: 4d08 4a3c 1112 d7bd e0d0 65be 9f4c 103c
-0.12991667 -0.13974044 -0.30616283 -0.24493381 -0.11110121 -0.43633988 -0.35216764 -0.37365627
-0.35660097 -0.3728641 -0.04276301 -0.012674579 -0.15257557 -0.13902189 -0.09280957 -0.0961816
-0.44344258 -0.13610947 -0.212927 -0.21291913 -0.3249032 9.557376e-05 -0.10176728 -0.28092024
-0.0538069 -0.45807168 -0.19099444 -0.45675713 0.012331081 -0.10501493 -0.2244296 0.00880733

sequential/conv2d_1/BiasAdd/ReadVariableOp f4 [16]
00000000: be0a 84bd faf6 7fbe 69f0 28bc 8ada 51bd
00000010: 387c 2cbe 63c2 53bd 647d 8ebe d592 97bd
00000020: 5c6c 1e3e 7545 9dbe 9758 c3bc 2e47 d63d
00000030: edd2 a2be e4a2 89be cb55 02be 94cf 1cbe
-0.064473614 -0.24996558 -0.0103112245 -0.051233806 -0.1684426 -0.051699053 -0.2783004 -0.07401053
0.15471023 -0.30717054 -0.023845954 0.10462795 -0.3180155 -0.26882088 -0.1272804 -0.1531356

sequential/conv2d/Conv2D f4 [32, 3, 3, 1]
00000000: d15e 0abc b790 883e 067c c53d 097c 11be
00000010: a5d8 bd3d 2e77 4c3e c695 23be 8f49 adbe
00000020: 64ac d7be 2ee9 053e 719e 47bd 2152 b43c
00000030: a2c6 7ebc a151 e6bd 3881 093e b080 a1bd
00000040: a648 21be c4f8 d43d 514c afbe 8d33 57bc
00000050: f465 313e 7b53 6a3e 7ed0 1f3e 3219 163e
00000060: f305 9a3e 9bbb ba3c 0232 01be 5081 15be
00000070: 4a64 f73e 4644 6abd da22 f5bd fd4b b3bd
00000080: aa9c 143e 4ccb 673e dfc5 f2be e77d 203e
00000090: f489 893e a723 1d3e 9a42 04be 52a0 35be
000000a0: 52e0 2c3d 6b74 0d3e 12f0 4b3d b147 a4be
000000b0: 883e 67be a578 25be fbdf 0c3c 0a5c 23be
000000c0: ea48 9bbd e179 d0bc 6b81 1fbe 257f 613d
000000d0: 291a 2e3e 68ec 58bd 32d9 1b3b 9907 83be
000000e0: bc73 d5bd f9fb 473e bca7 13be aece c3be
000000f0: aa0f 7d3d 65d2 573e bfdb fabd 6f78 5bbd
00000100: 69c1 b43e a99e aa3d b073 353d ec57 9c3d
00000110: 2f8c 83be 45d7 893d 2708 b5be adee 1fbe
00000120: 58cf 343e 7af9 a0be 6727 913e 9c9b eebd
00000130: 5f83 e93c 50d6 babb e291 03be 05d5 b23e
00000140: 4e56 acbe feb6 803e f88f 1abe 08be babe
00000150: d7aa 80bd 540b 36be 30de 24be 7a99 56be
00000160: 5b8a 00be a562 203e ffcf 92be ac8a 2c3d
00000170: 4815 f53d d389 42be 3d4e b5bd 47fe e83d
00000180: 1bf8 343e 71d2 51be 32f8 503e 47be 91be
00000190: b072 94be a83d a9be 6159 f0bc 8097 9b3d
000001a0: c4fa 693e 81f1 9e3e 1055 763e 5961 863e
000001b0: 2802 73be 1d3e c43d 3df8 9ebe 8d84 f0bd
000001c0: 3ef9 2e3d a57b 053d 3cef 6c3e 511e 43bc
000001d0: 1c2b b03e f98d a83e 6743 03bd b1e4 6ebd
000001e0: 8bb6 223e abcb c3bd 0161 eb3b 72ff a2be
000001f0: e3b6 7e3e 9d62 a53e 078a a63e a24e f43e
00000200: 59e1 683c fbbc 133d 4f19 9abe d5db 94be
00000210: af8f 15be 0721 8abe 9c21 803d 35b2 c73d
00000220: b219 563e 7b9a 13be bc88 28bc f913 893e
00000230: 2bde a1bd 0ca9 f2bd 29f9 3e3e c0ea 47bd
00000240: 1480 a8bd 7c54 86be 2c3c 5ebe 4dd6 3ebe
00000250: 1949 d33d 4c29 a03c 4e4a a7bd 3a99 bb3d
00000260: f3c1 1c3e 4100 1a3e 7321 36be 7fe0 8d3d
00000270: 6137 073d 5fb8 d0bd e7be fe3d 45b6 51bb
00000280: 72c8 d7bd 5fd5 1b3e 7d86 6c3e 72f2 babe
00000290: 0679 63be 0f6d 95be dac2 6fbd 4b1e ddbd
000002a0: c030 38be 0d09 9e3e 1206 383e 41b6 743c
000002b0: 59c6 89be 2254 5c3e fc31 043e 0f50 533c
000002c0: b178 54be f98d 7bbd 3d4c 9a3e 10e6 56be
000002d0: 15ab 1ebc d5c6 cdbd 754f e63c 3c36 583e
000002e0: 8f16 133e 1f51 5b3c 8134 0d3d 7c4b 753e
000002f0: 06ce 2d3c 62ed e2bd d1c7 b0bd 2cc6 a63e
00000300: 2b86 6dbe afcb f5bd 5579 2bbd 08c6 1b3e
00000310: 6271 3dbe 3bd6 75be 308c 81bc cc2c 6bbe
00000320: 62de 6f3e 1667 ce3d b62f f7bd 1de2 e7bd
00000330: ab37 cc3d 9004 efbc c332 75be 4dbb 73be
00000340: 32c3 f7bc 2487 533d 04cc a3bd c7a1 fabd
00000350: cd3c 083e 779e f73c 2c52 9c3e 66ec c2bd
00000360: ab7f 093e 3242 e6bd 6201 a53d de87 96bd
00000370: e0d4 603e 35b9 03be 0ca8 30bc a65d 80be
00000380: 4e1b e1bc e4fb 4b3c a6ea a03c 625c df3d
00000390: 9a2f ec3d e3bc 653b a363 d0bc ed2a 8a3d
000003a0: 8f81 10be ee52 03be eee7 b83e 5332 123d
000003b0: 5af2 d83e 2dc5 d5bd b0e1 17be 8d7f be3c
000003c0: 2185 b8be 0a69 143d e69f 4cbe 3999 bd3d
000003d0: 40aa c03d fcb2 a8bc 1c95 8f3d be8f 0a3d
000003e0: 333b f1bd 837d 083d 698f a03d 69d2 16be
000003f0: db2a 113d 8539 113e aef6 633c 4e0f 50be
-0.008445458 0.2667291 0.09642796 -0.14207472 0.09269837 0.19967338 -0.15975103 -0.33845183
-0.4212371 0.13077232 -0.048735086 0.022011818 -0.015550287 -0.11246038 0.134282 -0.07885873
-0.1575037 0.10399011 -0.34237912 -0.013134849 0.17324048 0.22883408 0.15606877 0.14658049
0.30082664 0.022794535 -0.12616733 -0.1460011 0.48318702 -0.057194017 -0.11969538 -0.08754728
0.14512888 0.22636145 -0.4741659 0.15673028 0.26863062 0.15345632 -0.12916031 -0.17736939
0.042206116 0.13813941 0.049789496 -0.32085946 -0.22582448 -0.16159303 0.008598323 -0.15953079
-0.07582267 -0.025448741 -0.15576713 0.055052895 0.17002167 -0.05295983 0.0023780582 -0.25591734
-0.10422465 0.19529714 -0.14419454 -0.38243622 0.061782517 0.21076353 -0.122489445 -0.05358165
0.3530381 0.08331043 0.04429978 0.07633957 -0.2569289 0.067305125 -0.35357782 -0.15618391
0.1765722 -0.31440336 0.28350374 -0.11650774 0.028505025 -0.0057018176 -0.12848619 0.34928146
-0.33659595 0.25139612 -0.15093982 -0.36473107 -0.06282585 -0.17777759 -0.16100383 -0.20956984
-0.12552778 0.1566263 -0.28674313 0.042124435 0.1196695 -0.18997888 -0.088528134 0.113766246
0.1767277 -0.20490433 0.20407179 -0.28465483 -0.2899375 -0.33054852 -0.029339494 0.07597256
0.22849566 0.31043628 0.24055886 0.26246145 -0.23731291 0.0958216 -0.31048766 -0.11744032
0.042718165 0.03258862 0.23138136 -0.011909083 0.3440789 0.32920817 -0.0320467 -0.058323566
0.15889947 -0.09560331 0.0071831946 -0.31835514 0.24874453 0.32301798 0.32527182 0.47716242
0.014213883 0.036068898 -0.30097434 -0.2907397 -0.14605592 -0.26978323 0.062564105 0.09750787
0.2090824 -0.14414398 -0.010286506 0.2677305 -0.07903703 -0.118486494 0.18649735 -0.04880786
-0.08227554 -0.2623633 -0.21702641 -0.18636437 0.10316677 0.019550942 -0.08168469 0.09160085
0.15308361 0.1503916 -0.17786197 0.06927585 0.033011798 -0.10191416 0.124387555 -0.003199951
-0.10536279 0.15218113 0.23098178 -0.36513096 -0.22214136 -0.29184768 -0.058535434 -0.107967936
-0.17987347 0.3086628 0.17971066 0.014936031 -0.2690914 0.21516469 0.12909693 0.012897505
-0.20749165 -0.061414693 0.3013629 -0.209862 -0.009684344 -0.1004769 0.02811406 0.21114439
0.14364074 0.01338604 0.0344739 0.23954576 0.010608202 -0.110804334 -0.08631862 0.32573068
-0.23195712 -0.1200174 -0.041863758 0.15212262 -0.18500283 -0.24007504 -0.015813917 -0.22966307
0.23424676 0.10078256 -0.12069647 -0.113224246 0.09971555 -0.02917698 -0.23945145 -0.23801918
-0.030244444 0.051642552 -0.07997897 -0.12237888 0.13304444 0.03022693 0.30531442 -0.09517746
0.13427608 -0.112430945 0.080569044 -0.07350133 0.21956205 -0.1286362 -0.010782253 -0.25071448
-0.02747884 0.012450192 0.01964314 0.109062925 0.11532517 0.0035055212 -0.025438135 0.06746469
-0.14111923 -0.12824604 0.36114448 0.035692524 0.423724 -0.10437999 -0.14832187 0.02325418
-0.3603907 0.036232986 -0.19982871 0.092577405 0.094074726 -0.020593159 0.07010862 0.03382849
-0.117788695 0.033322822 0.07839853 -0.14728703 0.03544126 0.14182098 0.0139137935 -0.20318338

sequential/conv2d_1/Conv2D f4 [16, 3, 3, 32]
00000000: ddb7 24bd 31c3 83be 7781 683d e4df 19bd
00000010: 643c 3f3d 53d5 bd3d 6c0b c1bc 2cd3 28be
00000020: 02ec d13d a730 1c3e 56c0 1d3e a2f3 0fbe
00000030: ec0c 5dbd 99fc 013e 1baf 0abe 9bf9 07bd
00000040: 782c d83d 3624 babe 4147 a73e 2283 1ebe
00000050: 493a e8bd eb56 183e 9aa9 b8be ccef fd3d
00000060: c0bc 103e 6dcb 02bf d77c c03d db01 f1bd
00000070: dd08 9a3e 3243 513e f402 b63d d4bd 763e
00000080: be1a fb3c 5134 c23d 8182 683e 9666 90be
00000090: 6601 ba3d f5d3 23be b6cb a2be ce58 983d
000000a0: 9bfd 0c3e fca5 ccbe dbd1 e1be 15c6 2f3b
000000b0: 4882 c83d 14ad c33d 18a5 99bd 6498 ba3d
000000c0: d28e b4bd aea3 8f3d eac9 83bd eb54 c5bc
000000d0: 8538 593e b0e7 8bbe f399 93be f4d0 81be
000000e0: 22c4 c03d 18d1 143d 228f 6a3e 1f27 9b3d
000000f0: 99ea 94bd 76b4 ea3d 3c31 05be 764e 8cbd
00000100: 59c1 60be 8fbf 0cbe 0010 593e e629 acbd
00000110: 3503 16bd a7eb 14be feda bfbd 8b95 13bd
00000120: 2948 a1be 0694 01bf 4f09 f13c b48e 523e
00000130: b94e 233e ec40 ab3e e13c 803e 702c bc3d
00000140: a3b7 43be 80a8 3e3e 52eb ccbe 4c59 c9bc
00000150: f8da 1d3e 3923 abbe d378 1fbe 0df4 d83d
00000160: d5f4 e0bd 1516 23bd 1d56 fe3d 2a38 c03d
00000170: 12b8 823d d18a b43d fc82 d33c aa9e 043e
00000180: 8e1f 21be edd6 cbbe 7341 8dbe 79e6 b63e
00000190: c5ac 3cbe 4775 ab3c 4510 43be 0ac7 863c
000001a0: 9c90 f33c 5c3d f5be 90c4 683e cba1 7dbd
000001b0: 3366 b23c 61e7 98bd e524 a0bd 3d77 81bd
000001c0: 8893 efbc 2dda 4cbf cc71 51be 249c c83d
000001d0: dad2 c13b 9685 163e f726 e7be f993 6abd
000001e0: 186f b23c a16d 1fbf 460a 29bd db8c af3d
000001f0: d9ed 533d 6def 5c3d e14f a43c 5c17 503e
00000200: bbb4 92bd cabc 893c 19ee 0dbd 955b a5bc
00000210: 6ca7 a83d de75 b5bd 5bfc 803c 1ecf f6bb
00000220: 0910 91bd 51b2 2c3d 34a2 5bbe bef2 89be
00000230: 5fb7 83be 7a85 0aba edc1 68bd 2835 baba
00000240: bb9d 05bf 878a 3ebd 7e70 9bbe cd96 763d
00000250: 1411 adbd 1db0 a6bd 6133 913d 09ce 39be
00000260: a1a5 b6bd 3860 133e ff60 16bc 30ec ea3d
00000270: 5ceb da3d 3898 c0bd 0bf0 18be cdaa 553d
00000280: afa4 6e3e f8f0 09be 1b79 0c3d b416 8ebd
00000290: 2301 12be dffe d8be 20ce 9cbe 13c5 8c3e
000002a0: 1487 5f3e 7f93 8cbe 6e05 17bc 4c4b f83d
000002b0: 56d2 2dbd b80d 563e 8eb8 6a3e 44d5 3dbe
000002c0: 25aa 3abe 219f b4bd 318e dcbd 737d 4fbe
000002d0: 8d6a c33c 25c7 993d 5721 e1bd 7996 d23c
000002e0: f3a9 30bd ebb8 05be 784b 2e3e 8c02 11be
000002f0: f5f7 fc3d eaab 063e b0a1 8dbd e97b 223d
00000300: f6d5 f73c c129 27be 8d74 fcbd 2255 c6bd
00000310: 71d3 863e 854e a8bc 67df c9bd 66b1 6fbd
00000320: c453 12bd 31e8 31b9 b043 b93d 0b2e c9bd
00000330: dd87 eebc 36a1 62be bed1 a0bb dd23 bebd
00000340: d4fe 63be c9f2 c7be 739e babd a1f9 b23d
00000350: ae77 a0bd 8c54 d83d 57c6 ebbd 8bd7 cabe
00000360: c2b3 003e fed1 37be af45 01bd 2c03 d8ba
00000370: 4fc9 b13d 8373 913b 2bc6 653e dfe2 d63c
00000380: 4f01 45be 06e8 3a3e 1081 24be c07d ca3d
00000390: 2483 b53d d0cc 2a3c aa39 ac3d 1273 613d
000003a0: 81ee c8bd a093 54bd 87d1 9b3d 4abc 1ebe
000003b0: 1178 fcbd 4c82 d83d f3b3 cb3d 2cf6 18bd
000003c0: 896e 5bbd 55ec 693d 2372 633e 0b38 183b
000003d0: 11e6 81be b6e4 13be 45b8 1f3c 5021 afbe
000003e0: eea1 01be ca39 61bc 1a31 833e 21f5 96bd
000003f0: fcb1 7bbd 5702 a9be 0b80 953d bfbb 8fbd
-0.04021441 -0.25734857 0.056764092 -0.037567034 0.046688452 0.09269204 -0.023565017 -0.16486806
0.10250093 0.15252934 0.15405402 -0.14057782 -0.0539674 0.12694015 -0.1354336 -0.033197027
0.10555357 -0.36355752 0.3267155 -0.1547971 -0.11339242 0.14876907 -0.36066896 0.12399253
0.14134502 -0.51091653 0.09398811 -0.11767932 0.30084887 0.20435789 0.08887282 0.24095851
0.0306524 0.09482635 0.22706033 -0.28203267 0.09082298 -0.15998824 -0.31796044 0.07438813
0.13768618 -0.39970386 -0.4410542 0.0026820947 0.09790474 0.095544964 -0.07502192 0.091110975
-0.08816303 0.07013641 -0.064349964 -0.024088344 0.21212967 -0.273252 -0.2882839 -0.2535473
0.09412409 0.03633222 0.22906163 0.07575821 -0.072713085 0.114602014 -0.13007063 -0.06850903
-0.21948756 -0.13744949 0.2119751 -0.08406429 -0.036624152 -0.14543019 -0.09367941 -0.036031287
-0.31500366 -0.5061649 0.029423384 0.2056225 0.15947999 0.3344797 0.25046447 0.09188163
-0.1911302 0.18618965 -0.40023285 -0.024578713 0.15415561 -0.3342531 -0.15573435 0.10593424
-0.10984198 -0.03981598 0.124187686 0.093857124 0.06382765 0.0881554 0.025819294 0.1295115
-0.15734693 -0.39812413 -0.27588996 0.35722712 -0.18425281 0.020929946 -0.19049175 0.016452331
0.029732041 -0.47898376 0.22731233 -0.061921876 0.021777248 -0.07466007 -0.07819537 -0.06321571
-0.029245153 -0.8002041 -0.20453566 0.097954065 0.005915028 0.14699396 -0.45146915 -0.057270024
0.02178149 -0.62276655 -0.041269563 0.08571788 0.0517405 0.05393927 0.02005762 0.20321411
-0.07163378 0.016813654 -0.034650896 -0.020185271 0.08235058 -0.08860372 0.015745332 -0.0075320145
-0.070831366 0.042162243 -0.21448594 -0.2694301 -0.2572584 -0.0005284172 -0.056825567 -0.0014206516
-0.521938 -0.04651883 -0.30359262 0.06020241 -0.08450523 -0.0813906 0.07089878 -0.18145002
-0.0891831 0.14392173 -0.009178399 0.114708304 0.106894225 -0.094040334 -0.14935319 0.05216484
0.2330501 -0.13470829 0.034295183 -0.06937924 -0.14258246 -0.4238195 -0.3062601 0.27494106
0.21828872 -0.2745628 -0.009217603 0.12123737 -0.04243692 0.20903671 0.22921965 -0.18538386
-0.18228967 -0.08819414 -0.10769308 -0.20262699 0.023854518 0.07508687 -0.10992687 0.025706517
-0.043130826 -0.13058822 0.17020977 -0.14161128 0.123519816 0.13151518 -0.06915605 0.03966895
0.030253392 -0.16324522 -0.12326918 -0.096842065 0.26333192 -0.020545254 -0.09857064 -0.05851879
-0.035724416 -0.00016966533 0.090461135 -0.09823235 -0.029117519 -0.2213181 -0.0049078157 -0.09284184
-0.22265178 -0.39052418 -0.09112253 0.08739019 -0.07835327 0.10563001 -0.1151244 -0.3961757
0.12568572 -0.179512 -0.031560596 -0.0016480437 0.08680975 0.004438819 0.22438876 0.026231227
-0.1923878 0.18252572 -0.16064858 0.09887266 0.08862904 0.010424808 0.08409436 0.05504138
-0.09811116 -0.0518986 0.076083235 -0.15501514 -0.12327588 0.10571727 0.09946432 -0.037344143
-0.05357221 0.05711015 0.22211508 0.0023226764 -0.2537084 -0.14442715 0.009748523 -0.34205103
-0.12659428 -0.013746688 0.256234 -0.073709734 -0.061449036 -0.33009598 0.07299813 -0.070182316

sequential/dense/BiasAdd/ReadVariableOp f4 [8]
00000000: 0231 a5be 30f9 fd3d f412 febd f628 b43d
00000010: d9ac 913d d2a5 8a3e 3894 26bd 6d5c a23e
-0.32263952 0.12401044 -0.12405959 0.08796875 0.07113046 0.27079636 -0.040668696 0.3171114

sequential/dense_2/BiasAdd/ReadVariableOp f4 [7]
00000000: 290e 2ebf 3d13 df3f 9567 973e 66ad ab3e
00000010: 9680 903e dc09 53bf 3f0f f1bf
-0.67990357 1.7427746 0.29571214 0.3353073 0.28223103 -0.8243692 -1.8832778

sequential/dense_1/BiasAdd/ReadVariableOp f4 [16]
00000000: 5ce7 faba fecd 1a3f 2e38 d23e ae28 ed3e
00000010: ea54 953e 0720 c9bd ddfc 81bf cce7 05bf
00000020: c8ca 423e c688 813e 0328 893d 321f bdbb
00000030: 6484 9dbb 0aa6 01bd 5634 1fbc f6ce debe
-0.0019142437 0.6047057 0.41058487 0.463201 0.29166347 -0.09820562 -1.0155293 -0.5230682
0.19022667 0.25299662 0.06697085 -0.005771541 -0.004807042 -0.031652488 -0.009717068 -0.43517274

sequential/dense/MatMul f4 [8, 528]
00000000: 5fdd 413c 72cb 883c 1f2a b8bd 3560 2a3b
00000010: 413b 2d3d 3a66 363e 2657 9dbc fb0c 51bd
00000020: 3c43 e03d c405 523d b53a 0abd 94aa 46bd
00000030: 8a6d 7bbd ed5a 883e 4206 a23b 9374 a13d
00000040: 8e9a 4dbd 718d d83d f6ad 103d aa58 29be
00000050: 332f 97bd 8a8e bb3d 25b5 a7bd a822 893c
00000060: 52f9 17bd 1107 9ebe 8165 bd3d 091d b03c
00000070: aab4 ee3d 5fb7 97bc 7a45 2dbc bdf4 7bbd
00000080: e9b3 b0bd 7fbe 2dbe 940c b0bd 2a31 81be
00000090: 32fc 95be 3cd8 07be d267 5bbe ea81 9e3e
000000a0: 9c17 09be 457b 38be 16ba 76bb 1dfa 093d
000000b0: ac29 cf3e a184 69be 8bbc f93d f589 b23d
000000c0: a47e 5cbd d88d b3bd cc4d 7d3d 99b4 40be
000000d0: d541 853d 2259 5c3c 7e68 eebd af8e febd
000000e0: f638 4ebd 99db 5bbd 9e65 90bc c3e7 c43d
000000f0: fbe2 443d dcb9 e03e 08dc 4fbd 858d a33d
00000100: 60fd a3bc 945c 573e 0a8f 0c3e be0c afbd
00000110: 836b b5bd 32ff e63d 7efe 283d 10b3 9b3d
00000120: 606a 543d cac0 98be e676 08bd 2ed1 373d
00000130: f91b 11bd 71c1 f1bd f575 323d 9441 e6bd
00000140: e142 e9bc 883b 8cbd 7d9a babe 899e ef3d
00000150: 00e2 07be 5937 343e 6521 a4bd f495 abbc
00000160: 4c45 05be 9235 c73e 1a84 83be d8f7 db3c
00000170: cf4d 183e 5a0d a4be 2302 6bbe 16c4 0abd
00000180: 717f 253e ab6c 89bd 1127 d23d ca25 44be
00000190: d678 6fbd a129 86bd 6ae8 fcbd a394 8fbd
000001a0: 509c cf3b 0d27 923c e0fe f53d 4ac5 d93d
000001b0: 8a7c db3c e63e 093f 1424 9ebd 1570 113e
000001c0: 5049 e4bc fbb8 343e 286f cebd 2416 64be
000001d0: 23cb 0bbd cc7d a1bc cfe9 4b3e 9625 9f3c
000001e0: 29b4 df3c 6136 5cbe a951 9dbd a5b0 363e
000001f0: 9005 8b3c bac7 bd3d 2c47 ce3c 20e6 0abe
00000200: a001 d7bd 9607 00be 59a7 a7be e2d5 7a3e
00000210: 034a 24be e8d8 af3d 3747 ccbd fc3e 6f3e
00000220: 50e0 b4bd 752a 813d 2730 c3be 0e9b debc
00000230: 2e10 9dbe 8383 aebe 5a31 25be 7429 89bd
00000240: c2ac c73d 71ad a7bd 06fb 9d3d 064f bbbd
00000250: ba01 733c a064 1ebe e0dc edbd 8f97 2dbe
00000260: 718c 12bd dce0 cc3d 9b7a 763e 02a5 b23c
00000270: 09bb 193e 00d0 023f b78b efbd a8d2 583d
00000280: 6436 3f3b 39e2 793e 317e fe3d 4d3c f0bd
00000290: 3731 aabd 66ed e93d bd23 463e 3c66 0c3e
000002a0: 5711 bcbd 87a2 edbd 8dc5 3bbe 002f 413e
000002b0: 1d0d fbbd e9c4 9dbe ad84 813d 3544 b8bc
000002c0: 32fe 24be 6df8 b1be cb3f c2be fcf1 9e3d
000002d0: 721a 34be 3ebb 333e 1b1d ff3d e062 b1be
000002e0: b4ef fabd 6f99 403e 8784 7abe f076 a8bc
000002f0: 0103 35be 975e eebe ba20 a53d 5a00 5e3e
00000300: e6dd 133e 2323 23bc 20a8 f33d bdfa 3abd
00000310: 0360 5d3b cc48 25be 1abe a73b 1225 2abe
00000320: c5f3 7b3d 1b8e a53d 461b 253e a9d4 193d
00000330: 8a43 a43d 07d6 fe3e 505c 01be 380a d13c
00000340: e09b 893d 73c8 1b3e 2259 d13d baac 80be
00000350: 92eb 123c ce24 863d 2a4c 2dbe 887a 2dbc
00000360: 0889 9dbe 4f54 05be 10c9 a9bc 87aa 2f3d
00000370: 7df1 5ebe bfcd 1bbd 5c84 0b3e 356b 11be
00000380: 5b9d 473d a02a 69bd 56a9 5dbe a584 4d3e
00000390: 7c5a c0bd 1826 4ebd 7589 2c3c bac3 00be
000003a0: 8146 09be f2db 653c e309 9ebe 7819 283e
000003b0: 2f25 adbe 7649 d4be a7b5 bd3d d895 893e
000003c0: db53 293e 6489 7bbd 8a52 153e 604d ecbd
000003d0: 7b27 9b3c 158e 8ebe 098d 1a3d 9f50 40be
000003e0: 3a56 e73d f698 1abe 54c4 5e3e a8db b53d
000003f0: 34c3 e33c e3e4 133f 0aa2 d8bd 67fb 0e3d
0.011832564 0.016698573 -0.08992409 0.0025997285 0.042292837 0.17812434 -0.019206595 -0.05103777
0.10950324 0.05127503 -0.033747394 -0.04850252 -0.06138376 0.2663187 0.0049445936 0.07883563
-0.050196223 0.10573853 0.035322152 -0.16537729 -0.073820494 0.091580465 -0.081888475 0.016740158
-0.037103005 -0.30864766 0.09247876 0.02149822 0.11655553 -0.018520055 -0.010575647 -0.061512697
-0.08628065 -0.169672 -0.08596149 -0.25232822 -0.29293972 -0.1326608 -0.21426323 0.30958492
-0.13387913 -0.18015774 -0.0037647537 0.033685792 0.4046148 -0.228045 0.12194165 0.087177195
-0.05383171 -0.08767289 0.06184177 -0.18818893 0.06506697 0.013448985 -0.11641024 -0.124295585
-0.05034729 -0.05367622 -0.01762658 0.096145175 0.048068028 0.438918 -0.050746948 0.07985977
-0.02001828 0.2103141 0.1372644 -0.08547352 -0.08858397 0.112791434 0.041258328 0.07602513
0.05185926 -0.29834586 -0.033316515 0.044877224 -0.035427067 -0.11804474 0.043569524 -0.11242977
-0.028474273 -0.06847292 -0.3644599 0.1170016 -0.13269806 0.17599238 -0.08014182 -0.020945527
-0.13014716 0.38908058 -0.25686723 0.02685158 0.14873432 -0.32041436 -0.22950034 -0.03387841
0.16161896 -0.0671018 0.102613576 -0.1915504 -0.058464848 -0.06550909 -0.12349017 -0.07010772
0.0063357726 0.017840886 0.12011504 0.10633333 0.026792783 0.536116 -0.07721725 0.14202912
-0.02786699 0.1764869 -0.10079795 -0.22274071 -0.034129273 -0.019713305 0.1991341 0.019427102
0.027307587 -0.21505119 -0.07681591 0.17840822 0.016970426 0.092666104 0.025180422 -0.13564348
-0.10498357 -0.12502894 -0.32744864 0.24495652 -0.16043858 0.085862935 -0.09974521 0.2336387
-0.08831847 0.06306926 -0.38122675 -0.027173545 -0.30676407 -0.3408471 -0.16132107 -0.0669736
0.09749748 -0.08187378 0.077138945 -0.09145932 0.014831955 -0.15468073 -0.11614394 -0.16952346
-0.035778467 0.10003826 0.24070208 0.021807197 0.15012754 0.5109863 -0.1169657 0.052935272
0.0029176706 0.24402703 0.12426413 -0.117302515 -0.08310168 0.11422233 0.1934957 0.13710874
-0.09182995 -0.11603265 -0.18337078 0.18865585 -0.122583605 -0.30814293 0.06324134 -0.022493461
-0.16112593 -0.34759846 -0.37939295 0.077609986 -0.17588213 0.17551896 0.12456723 -0.34645748
-0.12252751 0.1880853 -0.24464618 -0.020564526 -0.17676927 -0.4655654 0.08062883 0.21679822
0.14440116 -0.009957108 0.11897302 -0.04564928 0.0033779151 -0.16141051 0.0051190974 -0.16615704
0.061511774 0.08083745 0.16123685 0.037556324 0.080206946 0.49772665 -0.1263287 0.025517568
0.06719184 0.15213184 0.10222079 -0.2513178 0.008967297 0.06549989 -0.16923586 -0.010588296
-0.3076861 -0.13020442 -0.020725757 0.042887237 -0.21771808 -0.03803801 0.1362471 -0.14201052
0.04873405 -0.056925416 -0.21646628 0.20070131 -0.093922585 -0.050329298 0.010530819 -0.12574664
-0.13405801 0.01402949 -0.30866918 0.16415966 -0.3381743 -0.41462296 0.09263163 0.26872134
0.16535895 -0.061410323 0.14582267 -0.115381956 0.018939724 -0.27842775 0.037732158 -0.18780755
0.11295743 -0.15097412 0.2175458 0.08879787 0.027803041 0.5777113 -0.105777815 0.034907725

sequential/dense_1/MatMul f4 [16, 8]
00000000: f6fc bebb 909b 29be a6f4 1f3f 4024 8dbe
00000010: f402 0dbf 4239 07bf acf1 fc3e a451 8f3e
00000020: c881 19bf 42e9 f9be 43c1 01bd 807a 443f
00000030: 6d5c 3a3f 2964 88bd 6b71 743e 9ccb e9bc
00000040: cd76 1b3d 0b22 b3bf 0d48 e3bf 56ac 8d3f
00000050: 3559 893f 7b1e 14bd 6d0a d4bf 343a 97bf
00000060: 23a3 7d3f c1e1 b2bc f541 05be ed51 e2be
00000070: dfbc 0dbf 8ffc 7fbe ccda 00bd 1e9d 00bc
00000080: 8da5 f8bc bdcb 583f 033e 2cbe 9aab ddbe
00000090: cf2d 0abf d515 8bbe a4c8 80bd 546b 753e
000000a0: a7de c5bb e4e7 593e 785b ff3d 5805 fb3e
000000b0: 93c0 c43f 1128 76be c1b0 b0bd 17c6 8dbf
000000c0: 46ce fe3e 67e9 c13e 7521 77bd 561a 24be
000000d0: 6915 51be cb98 953e 6d79 2abd 0d71 903e
000000e0: c200 acbb 845b 973e 99c3 1ebd f2ad b83f
000000f0: 8c8c b13f ff86 ab3f 8728 55be cb47 0a3e
00000100: 06e5 85bc 9812 743e 300a 77bd 8255 bb3f
00000110: ab24 573f d169 703f 0550 8dbe d4d5 c9bd
00000120: 22cb 173f 3011 87bc 8e78 b3be bb84 34bf
00000130: 5b45 25bf bacc 783e 8bf5 cfbc 6351 51bc
00000140: 529e 643f 1209 7e3d f342 6dbe 5224 a5be
00000150: 6bc2 a5be 1361 1bbd 9237 373f 6e1a 9dbd
00000160: f88d bb3d 7c5b 16be a098 423f 7bba 9cbe
00000170: 1c20 acbe 18e5 67be cd49 c13e a6f7 ad3e
00000180: 609e fdbc 905a a0bd 69ae 1c3f c086 b7be
00000190: c92b a9be 7f76 adbe 8d23 d03e e0c5 6d3e
000001a0: 6120 1cbd 7910 1ebe 5f47 b5bd 7978 963f
000001b0: c61d 803f f13e 633f a4b6 a73e 8ca6 26be
000001c0: 46c8 6abc 812d 2ebe 2a75 79be 8ff2 8a3f
000001d0: 7d48 813f e861 50bc 6203 f4bd e76b 033f
000001e0: 8ae7 683c 3355 3a3f 7b39 5f3f 1282 a6be
000001f0: dfe8 c2be 0e6c 5b3e d8ce 2fbe ec10 82be
-0.005828495 -0.16563249 0.6248268 -0.2756672 -0.5508263 -0.52821743 0.4940313 0.27991974
-0.59963655 -0.48810774 -0.03167845 0.7674942 0.7279728 -0.06659729 0.2387139 -0.028539471
0.037955094 -1.3994764 -1.7756363 1.1068218 1.0730349 -0.03616188 -1.6565682 -1.1814637
0.9907705 -0.021836163 -0.13013442 -0.4420313 -0.5536632 -0.24998687 -0.03145866 -0.00784996
-0.030352378 0.8468588 -0.1682053 -0.43294984 -0.5397615 -0.27165094 -0.06288269 0.23966724
-0.006038505 0.21279866 0.12468618 0.49027514 1.5371269 -0.24038722 -0.08627463 -1.1076077
0.4976675 0.37873384 -0.06033464 -0.16025671 -0.20418324 0.29218134 -0.041619707 0.2821125
-0.005249114 0.29562008 -0.038760755 1.4428084 1.3871017 1.3400573 -0.20816241 0.1350395
-0.016344558 0.23835218 -0.06031245 1.463547 0.84040326 0.93911463 -0.27600113 -0.098552376
0.5929433 -0.016487688 -0.35052913 -0.7051503 -0.64558953 0.24296847 -0.025385639 -0.012775752
0.8930408 0.06202037 -0.2317007 -0.32254273 -0.32374892 -0.037934374 0.7156917 -0.07671057
0.09157938 -0.14683336 0.7601414 -0.30611023 -0.33618248 -0.22645986 0.37751618 0.33978003
-0.030959308 -0.078297734 0.6120363 -0.35844994 -0.33041218 -0.33879468 0.40652123 0.23220015
-0.038116816 -0.15435971 -0.088515036 1.1755515 1.0009086 0.88767916 0.3275653 -0.1627447
-0.0143299755 -0.17009546 -0.24361101 1.0855273 1.0100247 -0.012718655 -0.11914708 0.5133652
0.014215359 0.72786254 0.87197083 -0.3252111 -0.38068292 0.21427938 -0.17168748 -0.25403535

sequential/dense_2/MatMul f4 [7, 16]
00000000: bc9d 2ebf 23c4 213f 4002 ca3e e9ec ffbf
00000010: ad5a 06c0 7a4c 683f 3f42 39c0 54e5 a33e
00000020: ee87 553e f0ef 8dbe 2924 13c0 50e0 92bf
00000030: cfa1 a8bf 0924 ea3e 0b6b eb3e 88f9 43bf
00000040: 5fac 39bf 66ea e23e 82e8 903e cbe8 adbd
00000050: da3f 1e3c 9eab b1bf f894 5abf 1285 e5be
00000060: 1a76 d3be dca9 3cbe 692e c3bc 7fdb 9fbf
00000070: 4ff4 52bf b856 49bf aa1c 91bf 1c6c b3be
00000080: fa82 e83e 857f e43e 39df afbf d354 65bf
00000090: 4f10 87be 5538 9ebe 19bd 8cbf fb24 48bf
000000a0: c6c7 9cbf c930 c0bf 9128 9c3e 4cdd dc3d
000000b0: a32c f33e 903b 143e 7354 a6be 5e4c a93e
000000c0: 3e4d 0bbf 4864 f13e 1065 ba3e 5562 f73d
000000d0: 503a 92be 1cbd 13c0 1da0 373e ed19 a8bf
000000e0: 454f 67bf 26f7 1e3e a1ea a43e 9194 02be
000000f0: e086 2ebf 07a0 eabf 60f8 e3be 875e a1bf
00000100: a37e c33e a0ca 983e 4d0e 47bf 70c9 943d
00000110: 666a 7f3e 66a4 24bf e0f4 dbbc 23fa fdbd
00000120: 3a35 20bf 420e 323d 3b0b 8d3e 5fec 903d
00000130: 20b9 cd3e 79c2 35be 5ea2 dc3d c010 0d3e
00000140: 460c 90be 64c4 0ebf 20ae 95be 9d66 9d3d
00000150: 4c0f a33e b2ac a53e c098 bd3d a90c 973e
00000160: cebf 413e 58ee 013e b8e7 883e 76d8 e5be
00000170: 836a 59be 5b26 cb3e 9170 f7be cfeb ab3e
00000180: 412b eb3e fe80 85be 687a c63d f795 d7be
00000190: 07ca b83e e505 183f b154 193e b3b3 653e
000001a0: 545e b93d 1c86 70bf 3807 13be ca4a 0e3e
000001b0: 3a63 f23e 24aa 27bf c988 213e 9914 cf3e
-0.68209434 0.63189906 0.39454842 -1.9994174 -2.0992844 0.90741694 -2.8946683 0.320109
0.20852634 -0.2772212 -2.299082 -1.1474705 -1.317438 0.45730618 0.45980105 -0.7655263
-0.7252864 0.44319457 0.2830239 -0.08491667 0.009658778 -1.3880498 -0.8538356 -0.44828087
-0.41301042 -0.18424171 -0.023825841 -1.248886 -0.82404035 -0.7864795 -1.1336873 -0.35043418
0.45412427 0.4462854 -1.3739997 -0.89582556 -0.2637963 -0.30902353 -1.0995208 -0.7818143
-1.2248466 -1.5014888 0.304997 0.107843965 0.47494993 0.14475846 -0.32486305 0.33066076
-0.5441474 0.4714682 0.3640523 0.12079302 -0.28560114 -2.3084173 0.17932172 -1.3132912
-0.9035533 0.15523967 0.32210258 -0.12751986 -0.6817455 -1.8330086 -0.44525433 -1.2606972
0.38182554 0.2984209 -0.77756196 0.07264984 0.24942932 -0.6431335 -0.026850164 -0.124012254
-0.6258122 0.04347063 0.2754763 0.07076334 0.40180302 -0.17749967 0.107731566 0.13775921
-0.28134364 -0.5576842 -0.2923441 0.076855876 0.31847608 0.3235832 0.092576504 0.29501846
0.18920824 0.12688577 0.26739287 -0.4489171 -0.21232037 0.396777 -0.4832807 0.33578345
0.45931438 -0.26074976 0.09691316 -0.42106602 0.36091635 0.59383994 0.14973713 0.22431831
0.09051195 -0.93954635 -0.14358222 0.13895717 0.4734133 -0.6549399 0.15774836 0.40445402
