neural_network/models/no_quant_model.tflite (tflite, 41552 bytes, 10 tensors)

sequential_1/conv2d_2/BiasAdd/ReadVariableOp f4 [32]
00000000: 267f 4fbe e71c 1bbe 8ee0 bfbe adb3 79bd
00000010: b7ff 59be 14b9 a9bd 57c4 36be b469 d7be
00000020: 6f13 7c3d 71f9 c93d 4f02 22be 8257 77be
00000030: c2c1 57be 04fb 30be ac26 25be 55db 3abe
00000040: 4c89 2f3d dc2c 25be 0968 d9bd a8a0 8fbe
00000050: 6579 d8bd 3af2 46bd 4a1c d9be bb12 c1be
00000060: 3621 b63c 4ac6 d8bd 69cc 8ebe d7dc 94be
00000070: a47d 2fbd 1e26 8fbe d4c7 ee3d 0a65 d53d
-0.20263347 -0.15147744 -0.3747601 -0.060962368 -0.21288954 -0.08287254 -0.17848335 -0.42072833
0.06154197 0.0986203 -0.15821193 -0.24154475 -0.21070006 -0.17283255 -0.16128033 -0.18247731
0.042855546 -0.16130394 -0.10615546 -0.28052258 -0.10570029 -0.04857085 -0.42404395 -0.37709603
0.022232633 -0.10584696 -0.27890328 -0.29074737 -0.04284443 -0.2795877 0.11659208 0.10419662

sequential_1/conv2d_3/BiasAdd/ReadVariableOp f4 [16]
00000000: b6c9 a5be 677d 05bd 5b78 683c 8b21 0bbe
00000010: 8ca3 23be 51d0 3f3e 5563 093d 4719 cf3d
00000020: 4d3d 7bbe 947d 653e 5510 8bbd 5921 8c3b
00000030: 2dd1 6e3d 79d1 9ebd d430 2dbe 0680 53be
-0.32380456 -0.032590296 0.014188851 -0.13587014 -0.15980357 0.1873181 0.033541996 0.10112243
-0.24535103 0.22411186 -0.067902245 0.0042764363 0.058304954 -0.077547975 -0.16913158 -0.20654306

sequential_1/conv2d_2/Conv2D f4 [32, 3, 3, 1]
00000000: f6eb 5bbe 7f34 0fbe fa73 643d a583 95bc
00000010: 6972 34be 179f 473e 8f4f a23d 9575 e6bb
00000020: 61ad 45bb 8767 703d f8d6 98bd 78f3 4fbc
00000030: 60a4 ac3c a4ed 95bd 1ce3 003e aac3 15be
00000040: 9ca2 ccbd fdc4 163e 4cd9 1ebe 8408 893c
00000050: fe07 1e3e 6a35 1ebe 8ae4 63bd 390e 7e3e
00000060: 8013 a3bd 5ab6 acbd d263 3c3e 9ced 47be
00000070: d68f 18be b1c2 d23e fd5b e83c 24f1 613e
00000080: d9e0 0dbe 14f9 0c3e 7ec0 0cbe 6447 52bd
00000090: 031b c8bb e2fd 653e d218 c0bd 3b39 d3bd
000000a0: 85f4 393e 73b2 8b3b 3e76 a2bd cbbf 60bc
000000b0: dafc 5d3d d990 163d 1471 ce3d a6e8 8abe
000000c0: 714c d7bc 46ec 673e c197 9cbe d6b5 6cbd
000000d0: ed13 ff3d c3be 84bd e493 883e 6ef7 923e
000000e0: 291d 57be 369e 15be 0ab6 883d d47f 983d
000000f0: 0dee 95be 89e7 04be 4fee 9d3d 1364 393e
00000100: 59a4 6b3e 20d2 4e3c 61f6 7e3d b0c9 6c3e
00000110: cdd7 763e 5fa8 823d e4f4 3a3d 317a 123e
00000120: 24be 833c c7a0 ebbc cca4 713e 9fcd e33d
00000130: 1d85 bfbc 9056 dc3c c0d5 a5bc dc6d c2bd
00000140: 53bb 8dbe 2d3d fbbd 76e9 e4bd d919 fd3d
00000150: b812 4abd 2ab8 84be 2f0b bbbe a372 383e
00000160: ff48 d13e fa83 773e b677 4cbe 634e dcbd
00000170: b677 26bd 311a 2abe af51 24be 0fdb 5fbe
00000180: 02b5 a93c ffac 11be 8e75 6fbe 9e60 183e
00000190: 031f 5bbd 461f 803e 30a1 dc3d 2c18 99bd
000001a0: cecd 503e bc41 50bd 5aad 5cbd 32b9 d43d
000001b0: 6927 71be b78a fd3c b486 51be 0b12 583e
000001c0: 3eb3 a2bd a685 4fbd 5d3c 7fbd f3ee 683e
000001d0: ffdd 2939 cf00 13bd 3e97 893d 325d 8dbd
000001e0: 3c40 4ebd c7dd 5b3e cad2 f2bc 063b babc
000001f0: 5e32 493e 54ed 773d 1e75 0d3e 45c1 393d
00000200: e2f6 993d db7c d63d 162d 0d3e 6fd3 113e
00000210: 79ed 6f3d 8f2c 5e3d a5b5 8a3d fc47 913d
00000220: 793c 903c ee3c a43c 7f1f 6b3e 0e5b 44be
00000230: a301 213a 2573 3d3e 9c8f 303e 7efe bebe
00000240: 8128 61bd 412f fa3d 5060 eb3c f9c3 acbd
00000250: 113d 283e 7f06 f63d feca c23d 3a20 1fbd
00000260: 0683 e13d b41d 73be 8499 873e df0f 153e
00000270: c415 e0bd f671 f53c b019 babd ac83 8f3d
00000280: 263f 7dbe e36a 5abe 430f 43bd 9b38 2cbe
00000290: e927 e23d 9177 573e f179 813e 7ab2 653e
000002a0: 74f8 db3d 1942 223e 198e 9bbd 17b1 d53d
000002b0: d533 51bd d9d7 1b3e d06a ec3c 0f75 54bd
000002c0: 9758 d63d 8708 803d d037 e4bd d7dd 043d
000002d0: a332 5a3d 6d48 6b3e 1158 463c 6aa6 223e
000002e0: f626 1d3e 10f5 9abd 16db 81bd 8b5a 6abe
000002f0: 9c1f 99be daed c33e 6a5a 9ebc 4b39 dcbd
00000300: 8435 b83d cf71 183e f37a be3d 1640 a8be
00000310: 7acf df3c 3c27 373e 0ae5 ce3e d888 8fbe
00000320: 4386 a53e 12cf 3ebe 9cb5 96bd 5b86 083e
00000330: 7684 a6be 47cc 8b3e 24e2 b2be 2d63 803e
00000340: 5c7f 243d 16c1 173e 2042 e63d b2ad 5bbe
00000350: 6c5e 51bd 3589 8739 4310 d4bd df7c f8bd
00000360: 64fd 24be 024c 6bbe 54b0 54be a2ca a83d
00000370: 8094 18be 9182 b0bd dfe8 dabd f1b0 433e
00000380: fb39 673e ada2 89be 5a13 63be 6025 b13c
00000390: 7975 923e e4dd 353e 849c 8e3e 11e6 c3bd
000003a0: 9495 1b3e 2b7c 7dbe 03f5 e7bd ffb2 bd3d
000003b0: 0d13 9fbd a657 f03d 7284 323e c290 88bd
000003c0: 5406 773e 3d59 7abe 6d27 5ebe 7500 723e
000003d0: f679 9c3e 1a77 1e3b 50c6 b33d a7d8 c1bd
000003e0: 2969 fd3d f239 bebe a142 ccbd e1b8 90be
000003f0: 24a6 cb3e c23f 163d c347 423e 7374 81bd
-0.2147673 -0.1398487 0.055774666 -0.01825125 -0.17621769 0.19494282 0.07925331 -0.00703306
-0.0030163156 0.05869248 -0.07462877 -0.012692325 0.021074474 -0.07320717 0.12586635 -0.14625421
-0.09991953 0.14723583 -0.1551258 0.016727693 0.15432736 -0.15450063 -0.055637874 0.24810113
-0.07962704 -0.08433218 0.18397453 -0.19524235 -0.14898619 0.41164163 0.028364176 0.22064644
-0.13855304 0.13766891 -0.13745305 -0.051337615 -0.0061067357 0.2246013 -0.09379734 -0.1031365
0.18159683 0.004263216 -0.07932709 -0.013717602 0.054196216 0.03675923 0.10080162 -0.27130622
-0.026281567 0.22648725 -0.3058453 -0.0577906 0.124549724 -0.064816974 0.26675332 0.287044
-0.21007217 -0.14611134 0.06675346 0.07446256 -0.2928318 -0.12978949 0.077114694 0.18104582
0.23011912 0.01262334 0.062246684 0.23123813 0.24105759 0.063797705 0.045643702 0.14304425
0.016081877 -0.028763188 0.23598021 0.111232035 -0.023378903 0.026896745 -0.020243526 -0.0949361
-0.2768198 -0.12267528 -0.11177342 0.12358446 -0.049334258 -0.25921756 -0.3653197 0.1801248
0.40876004 0.24171439 -0.19967541 -0.107571386 -0.04064151 -0.16611554 -0.16046785 -0.21860908
0.020716194 -0.14226149 -0.23384687 0.14880607 -0.053496372 0.2502386 0.107729316 -0.074753135
0.20391008 -0.05084394 -0.05387626 0.10386886 -0.2355019 0.030949933 -0.20461541 0.21100633
-0.07944344 -0.050664566 -0.062313426 0.22747402 0.00016199796 -0.035889443 0.067183 -0.06902541
-0.050354227 0.2147132 -0.029641528 -0.022733223 0.1964812 0.060529068 0.13814208 0.04535033
0.07517792 0.10473033 0.1378673 0.14240812 0.05857608 0.054241713 0.06772927 0.07093808
0.01760696 0.020048585 0.22961234 -0.1917536 0.00061419065 0.18500955 0.17242283 -0.37303537
-0.05497027 0.12216044 0.028732449 -0.08435816 0.16429545 0.12012958 0.09511374 -0.038849093
0.11011319 -0.237418 0.2648431 0.14556836 -0.109416515 0.029961567 -0.09086931 0.07007536
-0.2473112 -0.21329837 -0.047621977 -0.16818468 0.110427685 0.21041705 0.25288346 0.22431365
0.10740748 0.15845527 -0.07595462 0.10434168 -0.05107482 0.15219058 0.028859526 -0.05186945
0.10466116 0.062516265 -0.11143458 0.032438125 0.053270947 0.22976847 0.012105958 0.15883794
0.15346894 -0.07566273 -0.063406155 -0.22886102 -0.2990693 0.38267404 -0.019330222 -0.10753115
0.08994582 0.14887165 0.093007945 -0.32861394 0.027320612 0.1788606 0.40409118 -0.2803409
0.32328996 -0.18633679 -0.07358858 0.13332503 -0.32522935 0.2730429 -0.34938157 0.25075665
0.040160522 0.1481975 0.11243081 -0.21452978 -0.05111544 0.00025851434 -0.10354664 -0.12133192
-0.16112286 -0.22978213 -0.20770389 0.08241774 -0.14900398 -0.086186536 -0.10688948 0.19110467
0.22580712 -0.26881924 -0.22175351 0.021624267 0.2860525 0.17760426 0.27853787 -0.09565366
0.15193778 -0.24754398 -0.11326029 0.092626564 -0.077673055 0.117354676 0.17433336 -0.06668235
0.24123508 -0.24448104 -0.21694727 0.23632987 0.305618 0.0024179877 0.087780595 -0.09465151
0.12373573 -0.37153584 -0.09973646 -0.2826605 0.39775193 0.036681898 0.18972687 -0.06321039

sequential_1/conv2d_3/Conv2D f4 [16, 3, 3, 32]
00000000: 40c8 a43e b53c 5e3e d728 9f3e bac3 023f
00000010: 88bd 36be af3e 0e3d 58de 7dbe 4542 5dbe
00000020: bc90 e73d 08b6 1c3e 2648 21be 2180 cfbd
00000030: 0dfe 45bd 327f 1d3d f369 c3be cf9a adbd
00000040: 77a0 8abd 2046 c03d 5331 a53d 9235 ef3c
00000050: c188 2cbe d72a e9be 65c6 433f 3af9 b6bd
00000060: 6068 c03d 48ea a13e ccfb a7bd 6f60 2bbe
00000070: e632 08be be33 5dbd 30ba 063e ba78 603d
00000080: cce7 3dbe 22fe a5bd 77d1 1bbe d036 49bc
00000090: c550 81be 56a8 33be 205f 32be baaf e0be
000000a0: df17 eabd 89d7 9abd 8255 16bc 159a 5e3d
000000b0: e47d 08be ae88 a4be e08f e43c b2d7 013c
000000c0: eda4 18be 09ee 97be db2a 66be 4556 69bd
000000d0: ff7e 41be b2c4 81bd 506a 03bd c342 93bd
000000e0: 12e1 99bd aa0a 6bbe 4d15 d6bc 4eb4 a43e
000000f0: 017a 47bd 242c 70be 8cf7 3ebe 11a8 06be
00000100: 647b 35bd 8e35 ecbd 183b 71bd d7c4 04be
00000110: 6d8c 97bc 0472 3fbd 33af 453b f6fb 48be
00000120: 89a0 63bd fcf6 533e c444 debd f7d6 a73c
00000130: 5059 413d 73a2 19bd 52af e5bc 593f c63c
00000140: b927 4fbe b4c2 4fbe e619 9abd a428 18bd
00000150: 1af1 f4bb 484b 813d 72e9 0d3e dd84 f7bc
00000160: 9e65 543d ca48 213e fb3a 963c 1d4c 8b3e
00000170: e2d3 243d 210e 4f3d 588c 78bd 4c8a 21be
00000180: 89e8 283e 6639 27be c943 8d3d 8ae5 243e
00000190: d990 af3d 1a26 da3d d6d6 313d ded3 33be
000001a0: eb01 cf3d d742 f13d 564a 58be 7e29 7f3c
000001b0: 2fa0 7abb f909 b03d c8b7 47be 8335 d83d
000001c0: bd97 59bd c758 08be 0058 123b 1b60 0dbe
000001d0: 2aec 7c3d 204e d4bd a201 143e 04ef 5c3d
000001e0: 4c6c 21be 32cc 003e efb6 e73d 4845 cebd
000001f0: f3b2 24bc 8cb2 e3bc 66f2 3fbe fb00 75bd
00000200: ebb0 dbbd 5b9d c9bd 6787 533d 9f4b b8bc
00000210: e2b4 8bbd 57c9 9f3d 8677 213e 4c59 73be
00000220: bbe3 88bc 5b09 02be bd7b a43d 8fa2 18bd
00000230: 0c2d 073e 1f06 16bc 2bf0 3abe 1698 9ebd
00000240: 8947 f9bd b1bb f83d e34f 21be 0654 c6bc
00000250: 3e96 35bd 7377 143e 1fd3 c03d d01a 5b3c
00000260: 4686 3dbe c1a2 e7bd fd5a 82bd 1c52 593e
00000270: 2b53 95bd e47c f6bd 8512 29be d719 04be
00000280: 7450 a23d af42 2cbe 9f50 213b 9898 4f3d
00000290: 911c 0e3e b671 a93d bd9d b33d 36e9 5e3d
000002a0: d3f9 2fbe ec48 60bd 766f 08be ac91 7fbc
000002b0: 31c8 c4bc faa2 be3c c960 693d d81f 143d
000002c0: 600f cc3d b7ac 14be 224b c63d 3bed 9dbd
000002d0: ed3a febc acc7 20be 9dd8 563e 1f7b 033e
000002e0: 9610 693d 2665 473e 4681 6a3e 59a3 8d3e
000002f0: 1eb0 9dbd 0a23 ccbd fb18 013d 5a6a 6ebe
00000300: 6f58 d5be 4bd5 cdbe d9f3 453d 23ae f43d
00000310: e6de 313d 474d 353e 3456 3a3d 5d06 1e3e
00000320: a361 c0bd fccf 6a3e 39b1 22be 881f 6abd
00000330: cba2 853d dd16 053d b4b5 b73d 8272 d13d
00000340: 57c3 75bc 8ce9 a5bd 9a88 aa3d 1a01 d0bd
00000350: 1e03 a53d ae06 573e acbb 523e 8360 653d
00000360: 2f49 ccbd 27a1 4e3e 0ad7 f2bc b2fc 83bd
00000370: 8786 0c3e ee87 e63c bcf8 9ebe 5ac0 48be
00000380: aaee 173e 6b53 803e 64db 2c3e 9391 bcbd
00000390: 187a 233e f562 543e f62d 063e 2ea5 03bf
000003a0: 9f14 2e3b 5248 07bf 57e8 b53e 844e 243d
000003b0: 8618 c13d a5b3 15be 69a4 bdbe f78a 233d
000003c0: 0966 9ebd 8412 dd3d fcf3 31bf 4f4f 093d
000003d0: c6ad 9dbd 9aa0 98be 4803 a43d 85f9 e03c
000003e0: e4d5 65bd 3c11 1abe d2b6 f73c b294 a53e
000003f0: 9e48 aebe de47 eabd b119 d13d b4ca 373e
0.3218403 0.21702845 0.31085846 0.51079905 -0.17845738 0.03472775 -0.24791849 -0.21607311
0.11306903 0.15303814 -0.15750179 -0.101318605 -0.048337985 0.03845138 -0.3816677 -0.08476793
-0.067688875 0.09388375 0.080660485 0.029200349 -0.16849042 -0.45540497 0.764746 -0.08934255
0.09394908 0.31624055 -0.08202323 -0.16736005 -0.13300666 -0.054004423 0.13156962 0.054802634
-0.18545455 -0.081051126 -0.15216623 -0.012281135 -0.25256935 -0.17544684 -0.174191 -0.4388407
-0.11430334 -0.07560641 -0.00917566 0.054346163 -0.13329273 -0.32135528 0.027900636 0.007924961
-0.14906664 -0.29673794 -0.22477286 -0.05696704 -0.18896101 -0.06336345 -0.03208381 -0.07190468
-0.07513632 -0.22953287 -0.026133204 0.32168812 -0.048700336 -0.23454338 -0.18649119 -0.1315005
-0.044307128 -0.11533652 -0.058894247 -0.12965713 -0.018499577 -0.046739593 0.0030164241 -0.19627365
-0.05557302 0.20699686 -0.1085296 0.020488245 0.047204316 -0.03750844 -0.0280377 0.024200128
-0.20229997 -0.20289117 -0.07524471 -0.037148133 -0.0074750306 0.06313187 0.13858584 -0.030214721
0.051854722 0.15750423 0.018338671 0.27206507 0.04024113 0.050550584 -0.060680717 -0.15775412
0.16494955 -0.1633049 0.068976946 0.16103187 0.085725494 0.106517985 0.043417774 -0.1756129
0.10107788 0.11780327 -0.21122107 0.015573857 -0.003824245 0.08595652 -0.195037 0.105570816
-0.053123225 -0.13315116 0.0022330284 -0.13806193 0.06174866 -0.10366464 0.14453748 0.05393888
-0.15763968 0.12577894 0.11314189 -0.10071808 -0.01005243 -0.027795099 -0.18744811 -0.05981539
-0.10727104 -0.09844466 0.0516428 -0.022496996 -0.0682161 0.078020744 0.15768251 -0.23764533
-0.016710153 -0.12698881 0.08031414 -0.037264403 0.13200778 -0.009156733 -0.1825568 -0.07743852
-0.121718474 0.12145174 -0.1575313 -0.024209987 -0.044332735 0.14498691 0.09415268 0.013373092
-0.18508253 -0.1131034 -0.06365011 0.21222728 -0.07291254 -0.1203554 -0.16510971 -0.12900482
0.079255015 -0.16822313 0.0024614704 0.050682634 0.13878085 0.08273642 0.087703206 0.054421626
-0.17185144 -0.054757044 -0.13323769 -0.015598696 -0.02402124 0.023271073 0.056977067 0.03616318
0.0996387 -0.1451901 0.09682299 -0.07711264 -0.031033957 -0.15701169 0.20981069 0.12839936
0.056900583 0.19472179 0.22900876 0.27663687 -0.07699607 -0.09967621 0.031517964 -0.23282757
-0.41669032 -0.40201792 0.048328254 0.119472764 0.043425463 0.1770526 0.045492366 0.15432115
-0.09393623 0.22930902 -0.15887918 -0.057158977 0.06525191 0.032492507 0.08970204 0.10226919
-0.015000186 -0.08101186 0.08326836 -0.1015646 0.08057235 0.20998642 0.20579404 0.056000244
-0.09974896 0.20178662 -0.029643554 -0.06444682 0.13723193 0.028140988 -0.31049144 -0.19604626
0.14837137 0.25063643 0.16880566 -0.092074536 0.15964544 0.20740874 0.1310347 -0.5142392
0.0026562584 -0.5284473 0.35528824 0.04011394 0.094285056 -0.1461931 -0.37039497 0.03992745
-0.077343054 0.10794547 -0.69512916 0.0335229 -0.0769916 -0.2981003 0.08008438 0.02746273
-0.056112185 -0.15045637 0.030238543 0.32340008 -0.34039778 -0.11439489 0.10209978 0.17948419

sequential_1/dense_5/BiasAdd/ReadVariableOp f4 [6]
00000000: 1fba a4be 8c5f 963f 9940 983e aeef 823f
00000010: e0a5 dfbf 92d7 83bf
-0.3217325 1.1747909 0.29736784 1.0229394 -1.7472496 -1.0300162

sequential_1/dense_4/BiasAdd/ReadVariableOp f4 [16]
00000000: d1ad 25bd 91d6 473d 50aa ccbe 9db5 3bbf
00000010: 5ca6 55bc e256 fdbe af4b 093d 8816 88bb
00000020: 7d35 dd3e e4a5 63bf 68c5 e5b7 5caf 543f
00000030: 7220 48bb 15f0 8cbd 1cc5 f43e 4dad 583e
-0.040448967 0.04878861 -0.39973688 -0.73323995 -0.013040151 -0.4948035 0.033519443 -0.0041530766
0.4320487 -0.88925004 -2.7390852e-05 0.8308008 -0.0030536917 -0.068817295 0.47806633 0.21159859

sequential_1/dense_3/BiasAdd/ReadVariableOp f4 [8]
00000000: f1ae fb3d 9b2b 5abd 1567 c5bd 6a2a 2fbd
00000010: 8cb8 183c 101a 113d 6471 043e 1830 81bd
0.12289227 -0.05326424 -0.09638802 -0.04276506 0.009321343 0.035425246 0.1293388 -0.06308001

sequential_1/dense_3/MatMul f4 [8, 528]
00000000: 1ffc 05bc 791b 353d 404b 5bbe e8e2 673d
00000010: f7c2 9d3d 3ead c93d e2c1 12bc 2cbc 67bd
00000020: 3a3c 73bd b519 e3bc e4e1 8e3d b46d 473c
00000030: 6298 2fbe 0dd1 7abd 34c2 8fbd efab 033e
00000040: f12c 403a 69ab 103e 4dd1 ebbd c41f 51bd
00000050: d874 eb3d 4ca9 0e3e 3d78 283e 0db0 b8bd
00000060: f081 8b3b 0cee 45ba ab62 abbd bacb bebd
00000070: 45cb 283e cfda 7abe c193 8b3d c6d9 fabb
00000080: 34a8 213d b769 d7bd f607 1e3c 7c25 ae3c
00000090: 0b01 01be 4424 3bbd 9bdd aa3d db22 303d
000000a0: b158 f93d 06d6 cfbd 9108 053e 9ab8 d9bd
000000b0: 5b71 a43d 8371 4dba b70b 20bd 2936 453d
000000c0: a217 4dbe a29a 353e c5bf 6ebc 14f1 77bd
000000d0: b5f9 30bd 1273 8ebd 2a29 62be c049 77bb
000000e0: 585e 51be 6ca9 233e ab34 f63d 9795 49bd
000000f0: 2d96 c93b 7734 293e 337c a4bd 7ec3 453e
00000100: bf46 053c 32df 9b3d c778 5c3e 2803 e03e
00000110: d59f e73d 8f2e 083e 18a2 c4bc 5156 f8bc
00000120: 65e6 fc3d f512 c3bd b57a 34be 9c98 d5bd
00000130: 45f2 353d fae2 10bd 80d9 6c3c 4eeb 1d3c
00000140: c5bf 583e 1a46 7abe 889a db3c d562 563e
00000150: 38c3 17be bf29 353c cf6c 003d 37a0 8e3c
00000160: c6eb 29be f9b6 163d 6989 ea3d ff1b 8dbd
00000170: fd77 773d e396 1bbd df89 2dbe 2154 7abe
00000180: f6f5 48be 3b66 603e aac1 593d 4de3 2abe
00000190: c4d1 0bbe b22e 9cbd 88ec e03c 35dc 9c3c
000001a0: 53ce eabd 3ab2 debc 0ed2 c83c ad18 003d
000001b0: 6c64 5fbd 669c 433e a2ec 06bd 97e5 1f3e
000001c0: 7976 df3c d304 1f3e 1b43 c63d d0f8 b53e
000001d0: 0a09 e43d e55d db3c 169c eb3d 1904 5f3e
000001e0: 39c9 403d 6589 f9bd 8f26 08be cb2c 18be
000001f0: aeeb a73d 6e05 46bc a566 5abe 0316 5bbd
00000200: 2554 9b3b 4ea4 113d bde9 41be f59b 39be
00000210: 5450 a73d 39c5 8cbd c8c2 d8bc 8095 f23d
00000220: 1cd9 653e bdec 383e cc3d 08bd 622f a93b
00000230: ed42 383d d53a fa3c c19c ffbd ff33 b3bd
00000240: 2137 3cbe 7228 0a3e 2137 0b3e 2fce 24be
00000250: 360c b4bd 3c26 3a3d facb 1cbd 3acd 543c
00000260: 6547 32be 7d98 063d 3ae4 073d 7124 57bc
00000270: f4fc 18bd 7bcd 6a3e 8edf 30bd 279f 703e
00000280: 7cde b0bd ce12 883d 1516 2b3c eff8 a43e
00000290: a2aa 103e f561 c43d 8ab0 38bd dc19 983c
000002a0: e803 bf3d 8a10 e33c 69e2 81be a89d d73c
000002b0: f5ed 743e e274 7d3e 5d46 f3bd bf64 3dbd
000002c0: 0c74 fdbb 1e2f 80bd b711 d9bd bd0c dc3d
000002d0: 7c4f 0f3e 35a6 353b 9ed3 d9bc d220 9d3c
000002e0: db36 cebd e521 a63d 0b47 4a3e 6168 57bc
000002f0: f90b 073e 40c5 0a3e cc91 c6bd ca7d d2bd
00000300: 09d3 50be 5d22 313e f35c 203e 08aa 13be
00000310: d8b1 34be 4269 8bbd add8 d43d 0a15 363e
00000320: f966 a8be 65b1 f2bd 345e 7d3c cd41 9d3d
00000330: 24ee 2e3c 1420 8e3d 6123 80bd 0971 823e
00000340: facc 61bc 0c77 1a3e e88c bd3c 47f6 9f3e
00000350: 3c75 243d 5236 f93d 2d1a 913d 82ac e63d
00000360: 9c90 d53d 2ead d6bb bc77 2bbe fde1 c0bd
00000370: b18e 23bd 9c2e a93e 8ba1 a6bd 6ecf a4bc
00000380: a7b5 1b3e 3a23 6abe 28ab e6bd 3cf6 00be
00000390: 31f0 92bd dedc 743b 734e 5dbc de4d 0b3d
000003a0: 3705 23be 4a9f bdba 01f9 f23d 3d6b dfbb
000003b0: 6711 dfbd cfe1 143e f40c 49bc 7420 2ebd
000003c0: 278b 93be 832f c43d 8977 1a3e 4754 bcbd
000003d0: f36d 0abe 155d 14be d2da 903d b8f7 4b3d
000003e0: baa7 81be bd06 d03a cc52 03bd 64e7 9e3d
000003f0: bae9 0abe ea9a 3d3e 55af 12bd 1080 6c3e
-0.008177786 0.044215653 -0.21415424 0.05661288 0.07703202 0.098474964 -0.008957358 -0.05657594
-0.05938361 -0.027722219 0.06976679 0.012172151 -0.17147973 -0.061234523 -0.07019463 0.12858556
0.00073309155 0.14127888 -0.1151453 -0.051055685 0.114968956 0.13931769 0.16452117 -0.09017954
0.004257433 -0.00075504254 -0.08368429 -0.093162015 0.16483791 -0.24497531 0.06815291 -0.007655355
0.03946705 -0.105182104 0.009645453 0.021258108 -0.12598054 -0.045688882 0.08343049 0.04300199
0.1217512 -0.101482436 0.12991549 -0.10630913 0.08029433 -0.0007837044 -0.039073672 0.048147354
-0.20028546 0.17734769 -0.014572089 -0.060532644 -0.04320689 -0.06955542 -0.22086015 -0.0037733167
-0.20446146 0.15982598 0.12021764 -0.049214926 0.0061519356 0.1652392 -0.080315016 0.19312856
0.008134543 0.076109305 0.21530448 0.43752408 0.113097824 0.1329901 -0.024003074 -0.030314596
0.12348632 -0.095251 -0.17624934 -0.104294986 0.0444205 -0.03537271 0.014456153 0.009638621
0.21166904 -0.24440804 0.026807085 0.20936139 -0.14820564 0.011057316 0.031353768 0.01741038
-0.16593847 0.03679559 0.1145199 -0.068901055 0.060417164 -0.037985694 -0.16947125 -0.24446155
-0.19625077 0.21913998 0.053163208 -0.16688271 -0.13654238 -0.07626094 0.027456537 0.019147972
-0.114651345 -0.027184594 0.024514224 0.031273533 -0.05453913 0.1910263 -0.032940514 0.15614925
0.027278172 0.15529184 0.09680768 0.3554139 0.111345366 0.02677817 0.115043804 0.21778907
0.0470669 -0.12184409 -0.13295959 -0.14860837 0.08199249 -0.0120862555 -0.21328218 -0.05348779
0.0047402554 0.035557084 -0.1893682 -0.18125899 0.08169618 -0.06873555 -0.026460066 0.11844921
0.22446102 0.18059058 -0.03326206 0.005163119 0.0449857 0.030545631 -0.1248107 -0.08750152
-0.18380405 0.13491991 0.13595249 -0.16094278 -0.087913916 0.04544662 -0.038280465 0.012988383
-0.17410047 0.032860268 0.03317664 -0.013131247 -0.03735061 0.22929947 -0.04318195 0.23498212
-0.086361855 0.06644212 0.0104422765 0.3222117 0.14127591 0.09588996 -0.045090236 0.018567018
0.09326917 0.027717847 -0.2536805 0.026320294 0.23918898 0.24751619 -0.11878655 -0.046238657
-0.007734781 -0.06258987 -0.10599082 0.10744617 0.13995165 0.0027717475 -0.026590165 0.019180689
-0.100690566 0.081119336 0.19753663 -0.013147444 0.13188161 0.13551807 -0.09695777 -0.102778986
-0.20393004 0.17298265 0.15660457 -0.1442033 -0.17645967 -0.06807186 0.1039289 0.17781463
-0.32891062 -0.118502416 0.015464354 0.07678566 0.010676894 0.06939712 -0.06256748 0.25476864
-0.01378178 0.15084475 0.023138478 0.31242582 0.040150866 0.12168564 0.07085071 0.11263372
0.10427973 -0.0065514063 -0.16744894 -0.09418104 -0.039931003 0.33043373 -0.081362806 -0.020118441
0.15206014 -0.22865 -0.11263114 -0.12593931 -0.07174719 0.0037363092 -0.013507473 0.034009807
-0.15919958 -0.0014467028 0.118639 -0.0068182037 -0.10891991 0.14539264 -0.012271155 -0.04251142
-0.28817102 0.09579375 0.15084662 -0.09195762 -0.13518505 -0.14488633 0.07072987 0.04979679
-0.25323278 0.0015871149 -0.032061383 0.07758978 -0.13565722 0.18516126 -0.03581174 0.23095727

sequential_1/dense_4/MatMul f4 [16, 8]
00000000: 8c7e b1be 23b3 35be 39a3 323e 93b1 70be
00000010: 773b 47bd 8f80 43be 3512 0e3f 0b19 b7bd
00000020: 43f9 1d3d 2fc7 253e 6bd7 07bf cb5a edbd
00000030: 0e3b e63e 2a9f 623f 4bd7 f3bc d5d6 de3e
00000040: 7ab1 0b3e 892d afbe 3054 8a3e 26cd 3c3f
00000050: 08ed 92bc 019d 71be 6d4b 9e3e 2a0f 03bf
00000060: 60c9 1c3f 3a7a 913e 9fd5 133f a469 c63d
00000070: cdaf e7bd 99fa a13e 13f1 2cbe 67f3 ff3d
00000080: c1c1 003f 8b00 cf3d 2059 653f 4c82 c0bd
00000090: 5442 e83d 7a72 133e c0b5 8c3e d188 c63e
000000a0: df71 55bd ae28 a33e 69f1 4ebe 5585 da3e
000000b0: f1e9 dbbd be26 453f 2da8 1abe b937 843e
000000c0: 6061 f2bd ea35 9c3e b7be d73e 6c8a 8cbd
000000d0: e9ab 2e3f a4de 453f 8984 fc3c a4c7 3f3d
000000e0: 2bbd 9bbe 6ffc 923e 43ce d6be 9dd0 383f
000000f0: 57dd 00bf b7bd f3be e3bb b23e 39b5 8e3d
00000100: 9203 70bf 1ae8 c8be d0eb 23bf 79ce 90bf
00000110: 1f83 42bf 06f7 bcbe 9919 a0bf 88cd ff3e
00000120: 47b9 883e 26a8 0dbe 4496 123f abf5 b83d
00000130: 85b8 11bc a73e 63be dc89 333e d36e dabe
00000140: 123c 353e 51c9 e8be 2dd1 343f 5bf9 f0bd
00000150: ba6e 4c3f 1832 f7be ee91 9ebd f58a 29be
00000160: 0f34 b9be b569 babd 417e 5b3d 5ae9 03bd
00000170: 92a4 e4be 0450 0ebf 2e4c 4ebd bfee 54bd
00000180: e53e 503e d9a3 413d 5465 e4be 0b87 0dbf
00000190: e5f3 da3d 1576 2d3f dac4 0bbf 723e e73e
000001a0: d95a e6bd 7c56 4a3d 36a0 ad3e a6f4 07be
000001b0: 383c 123f c2f3 c13e f717 3b3d 3caf 0cbe
000001c0: d11c 85be 7e24 92be f6cf 24be 7e3f 45ba
000001d0: e54a c03e 90c3 323f 1e0b 99bc d06e 3bbc
000001e0: 06c9 4ebe 9c0d bf3e f051 6c3c ab5a 493f
000001f0: 117a 313d d35d 4bbe 0daa 5dbe 85f9 71be
-0.3466686 -0.17744116 0.17445077 -0.23505239 -0.048640694 -0.1909201 0.5549653 -0.089403234
0.038567793 0.16189264 -0.53063077 -0.11589583 0.4496693 0.88524115 -0.029765746 0.4352328
0.1364192 -0.34214428 0.27017355 0.7375053 -0.017935291 -0.23595048 0.3091692 -0.51195014
0.61244774 0.28413564 0.57747835 0.09688118 -0.11312828 0.31636503 -0.16888838 0.12497597
0.50295645 0.101075254 0.8958912 -0.09399852 0.11340776 0.14399138 0.27482414 0.38776258
-0.05211055 0.31866974 -0.20209278 0.4267985 -0.1073798 0.7701224 -0.15103216 0.25823763
-0.11834979 0.30509883 0.4213769 -0.068623394 0.68231064 0.7729285 0.030824916 0.04682125
-0.3041776 0.28708217 -0.4195424 0.7219332 -0.5033774 -0.47605678 0.3490897 0.06968159
-0.9375545 -0.3923958 -0.64031696 -1.131301 -0.75981325 -0.36907214 -1.2507812 0.49961495
0.26703855 -0.13833675 0.5726054 0.090312324 -0.008894091 -0.22191869 0.17533058 -0.42662677
0.17698696 -0.45466092 0.70631677 -0.11766311 0.79856455 -0.48280406 -0.07742678 -0.16556914
-0.3617253 -0.09102193 0.053587202 -0.032204963 -0.44656807 -0.55590844 -0.05036562 -0.0519855
0.20336492 0.047275398 -0.44608557 -0.55284184 0.106910504 0.67758304 -0.54597247 0.4516483
-0.112477966 0.049398884 0.33911294 -0.1327692 0.57123137 0.37881285 0.04567715 -0.13738722
-0.25998548 -0.28543466 -0.16094956 -0.00075244147 0.3755714 0.69829655 -0.018682059 -0.011439994
-0.20193872 0.3731507 0.014423832 0.78653973 0.043329302 -0.1986001 -0.216469 -0.2363034

sequential_1/dense_5/MatMul f4 [6, 16]
00000000: f240 d5bf 19f9 cc3e 170a fdbf c22a d93d
00000010: bfaa 703e aec7 aa3e 9dea eb3e a857 03c0
00000020: 3127 89bf b5aa a9bf 5d4b be3e b001 66bf
00000030: f2e1 023f fa65 673e bb02 973e f491 f1bf
00000040: 3488 3ebf 0a97 3abe ec1f 85bf eaca 62bf
00000050: 2536 58bf 5ee7 66bf c176 5dbe 7e66 4ebf
00000060: 7b99 8e3f b175 2dbf fb37 97bf 4aa7 183f
00000070: d0a2 a0bf ecb9 9cbf 9dd2 053f 5d17 843c
00000080: 2b4c d7be f4af 52be e2b2 2b3d c914 9ebf
00000090: 2218 11bf 8aea bc3e 2880 08bf bec1 213e
000000a0: e7bd 293e de83 71bf e19c ecbe e642 fc3e
000000b0: 41f3 cdbe 3d35 b4be 8003 c73e 0cfb e63e
000000c0: 08f9 873e 7206 87bf 880d c1bd 2a4d 963c
000000d0: e9e8 9a3e 033c 6abe 70ff d8be 7b71 cd3c
000000e0: 2914 ecbd bfa7 1a3e 9e50 093e 01ea c83e
000000f0: 5261 3abf 072b 78bf e75d 87bd c66b 4c3e
00000100: 4255 a03e dcd8 533e 76b9 5dbb 99bd b73e
00000110: 1384 c93e 3181 61bf 147f d53e 3a9e aebd
00000120: 1db6 ccbe f990 dd3e 911b ed3e 5d32 8cbe
00000130: 3114 cabd 0b2f 4b3e 18fd bebd 7151 44bd
00000140: 4419 d03e 7a05 14bf e7cd 193d d623 8b3e
00000150: 9a55 ba3e 417e ae3e 60f9 26bf 8f70 1f3e
00000160: 70d6 473e b6e5 b93e d26c 863d da88 78bf
00000170: b3e9 d43e a27a 7ebf ece0 a2bf 9198 e33e
-1.6660445 0.40033796 -1.9768704 0.106038585 0.23502634 0.3335547 0.46077433 -2.052225
-1.0715085 -1.3255221 0.37166873 -0.89846325 0.51126015 0.22597495 0.2949427 -1.8872666
-0.7442658 -0.1822168 -1.0400367 -0.8859087 -0.8445762 -0.9019679 -0.21627332 -0.8062514
1.1140589 -0.6775771 -1.1813959 0.5963026 -1.2549686 -1.2244239 0.52274495 0.016124422
-0.420503 -0.20574933 0.041918643 -1.2350093 -0.5667745 0.3689769 -0.5332055 0.15796563
0.16576348 -0.9434184 -0.4621344 0.4926979 -0.4022465 -0.35196868 0.38869858 0.4511341
0.26557183 -1.0548842 -0.09426409 0.018347342 0.3025582 -0.22874455 -0.42382383 0.025078526
-0.11527283 0.15103053 0.1340966 0.3924103 -0.7280475 -0.96940655 -0.06609707 0.19962987
0.31315047 0.20688194 -0.0033832467 0.3588684 0.39358577 -0.88087755 0.41698515 -0.08526273
-0.3998269 0.43274668 0.46310094 -0.27382174 -0.098671325 0.19842164 -0.093256176 -0.04792923
0.40644276 -0.57820857 0.03754988 0.27175778 0.36393434 0.340807 -0.65224266 0.15570281
0.19515395 0.36308068 0.065637246 -0.9708382 0.41584548 -0.9940587 -1.2724891 0.44452336
