neural_network/models/quant_model.tflite (tflite, 15560 bytes, 5 tensors)

sequential/dense_2/MatMul i1 [5, 16] scale=0.016152423 zero_point=0
000000 aa 12 13 1d 81 d5 3e 11 95 c8 81 1c 3e 9e 0d 24
       -1.3891084 0.29074362 0.30689603 0.46842027 -2.0513577 -0.6945542 1.0014502 0.27459118 -1.7283093 -0.90453565 -2.0513577 0.45226783 1.0014502 -1.5829375 0.2099815 0.58148724
000010 0f e1 c9 de bc d8 3a bc ee 13 dc ca c6 dd 89 b1
       0.24228634 -0.5007251 -0.88838327 -0.54918236 -1.0983647 -0.64609694 0.93684053 -1.0983647 -0.29074362 0.30689603 -0.58148724 -0.8722308 -0.93684053 -0.5653348 -1.9221383 -1.2760414
000020 02 12 0d 20 f7 14 ea c9 ff ee 08 05 df 10 c8 e2
       0.032304846 0.29074362 0.2099815 0.51687753 -0.14537181 0.32304847 -0.3553533 -0.88838327 -0.016152423 -0.29074362 0.12921938 0.08076212 -0.53303 0.25843877 -0.90453565 -0.48457268
000030 f1 c6 0a c3 00 04 f8 16 00 d1 0c 1c d6 18 18 25
       -0.24228634 -0.93684053 0.16152424 -0.9852978 0.0 0.06460969 -0.12921938 0.3553533 0.0 -0.75916386 0.19382907 0.45226783 -0.67840177 0.38765815 0.38765815 0.5976396
000040 0d e9 e0 0f 02 1b f9 01 01 1a 0a ea 35 03 03 0f
       0.2099815 -0.37150574 -0.51687753 0.24228634 0.032304846 0.4361154 -0.11306696 0.016152423 0.016152423 0.419963 0.16152424 -0.3553533 0.8560784 0.04845727 0.04845727 0.24228634

sequential/dense_1/MatMul i1 [16, 8] scale=0.011017448 zero_point=0
000000 3d 2c d7 d8 05 e6 e6 f9 f5 29 05 f6 fa 40 fd fb
       0.67206436 0.48476774 -0.45171538 -0.44069794 0.055087242 -0.28645366 -0.28645366 -0.07712214 -0.121191934 0.45171538 0.055087242 -0.110174485 -0.06610469 0.7051167 -0.033052344 -0.055087242
000010 f3 21 7f 1f fd 2f e3 14 24 eb 2e f0 fe 3c 12 fb
       -0.14322683 0.3635758 1.3992159 0.3415409 -0.033052344 0.51782006 -0.319506 0.22034897 0.39662814 -0.23136641 0.5068026 -0.17627917 -0.022034897 0.6610469 0.19831407 -0.055087242
000020 27 20 f4 16 28 bc f6 23 49 f0 dd cf 22 18 f8 f5
       0.4296805 0.35255834 -0.13220938 0.24238387 0.44069794 -0.74918646 -0.110174485 0.3856107 0.8042737 -0.17627917 -0.3856107 -0.53985494 0.37459323 0.26441875 -0.088139586 -0.121191934
000030 c6 ee 37 fd b3 fd 0f a9 1e ff 45 4a f9 00 e1 fb
       -0.639012 -0.19831407 0.60595965 -0.033052344 -0.8483435 -0.033052344 0.16526173 -0.958518 0.33052346 -0.011017448 0.76020396 0.81529117 -0.07712214 0.0 -0.3415409 -0.055087242
000040 68 0b d2 f1 59 f6 00 4c 3d ec d3 e1 e0 e2 2d fc
       1.1458147 0.121191934 -0.5068026 -0.16526173 0.9805529 -0.110174485 0.0 0.83732605 0.67206436 -0.22034897 -0.49578518 -0.3415409 -0.35255834 -0.33052346 0.49578518 -0.044069793
000050 ec f0 df 06 36 fc ea 49 e1 d3 76 3f f0 06 f7 1b
       -0.22034897 -0.17627917 -0.3635758 0.06610469 0.5949422 -0.044069793 -0.24238387 0.8042737 -0.3415409 -0.49578518 1.3000588 0.69409925 -0.17627917 0.06610469 -0.099157035 0.2974711
000060 11 d4 4f f4 0c f5 14 fd fc 1b e6 f1 e7 12 0e 4e
       0.18729661 -0.48476774 0.87037843 -0.13220938 0.13220938 -0.121191934 0.22034897 -0.033052344 -0.044069793 0.2974711 -0.28645366 -0.16526173 -0.2754362 0.19831407 0.15424427 0.859361
000070 c2 1c f1 45 10 f2 15 e3 1e 02 42 47 f2 04 e0 f6
       -0.6830818 0.30848855 -0.16526173 0.76020396 0.17627917 -0.15424427 0.23136641 -0.319506 0.33052346 0.022034897 0.7271516 0.78223884 -0.15424427 0.044069793 -0.35255834 -0.110174485

sequential/dense/MatMul i1 [8, 528] scale=0.0043831156 zero_point=0
000000 07 20 10 fe e1 fd 10 06 f5 ee f5 0a dc ff fa e9
       0.03068181 0.1402597 0.07012985 -0.008766231 -0.13587658 -0.013149347 0.07012985 0.026298694 -0.04821427 -0.07889608 -0.04821427 0.043831155 -0.15779217 -0.0043831156 -0.026298694 -0.10081166
000010 ea 09 1f 19 e7 16 f3 08 0b ef 0d 1e c5 db 02 e3
       -0.09642854 0.03944804 0.13587658 0.10957789 -0.10957789 0.09642854 -0.0569805 0.035064925 0.04821427 -0.074512966 0.0569805 0.13149346 -0.2586038 -0.16217528 0.008766231 -0.12711035
000020 0d 1c f6 e1 d0 fc ee e9 23 0a 21 0d 19 1e 20 ef
       0.0569805 0.12272724 -0.043831155 -0.13587658 -0.21038955 -0.017532462 -0.07889608 -0.10081166 0.15340905 0.043831155 0.14464281 0.0569805 0.10957789 0.13149346 0.1402597 -0.074512966
000030 fa e3 f4 f8 f8 01 1a 01 ec 22 09 2e ed eb d3 de
       -0.026298694 -0.12711035 -0.05259739 -0.035064925 -0.035064925 0.0043831156 0.113961 0.0043831156 -0.08766231 0.14902593 0.03944804 0.20162332 -0.08327919 -0.09204543 -0.1972402 -0.14902593
000040 03 4e 33 12 f0 25 de f1 1a d5 1c fd 01 dc 00 e4
       0.013149347 0.341883 0.22353889 0.07889608 -0.07012985 0.16217528 -0.14902593 -0.06574673 0.113961 -0.18847397 0.12272724 -0.013149347 0.0043831156 -0.15779217 0.0 -0.12272724
000050 25 ab 14 f8 da 1b c6 e8 0b ef 0d d1 fd 12 15 e6
       0.16217528 -0.37256482 0.08766231 -0.035064925 -0.16655838 0.11834412 -0.2542207 -0.10519478 0.04821427 -0.074512966 0.0569805 -0.20600644 -0.013149347 0.07889608 0.09204543 -0.113961
000060 ff ca 05 e4 10 ee 1d f6 fd 30 f0 19 26 f2 ae f9
       -0.0043831156 -0.23668824 0.021915577 -0.12272724 0.07012985 -0.07889608 0.12711035 -0.043831155 -0.013149347 0.21038955 -0.07012985 0.10957789 0.16655838 -0.06136362 -0.35941547 -0.03068181
000070 ea 14 f6 f1 d6 ef d7 fe 24 e0 1a dd 02 e2 03 1c
       -0.09642854 0.08766231 -0.043831155 -0.06574673 -0.18409085 -0.074512966 -0.17970774 -0.008766231 0.15779217 -0.1402597 0.113961 -0.15340905 0.008766231 -0.13149346 0.013149347 0.12272724
000080 21 d1 e7 1d c7 d8 ee 1a cb f6 04 f3 d9 f1 09 09
       0.14464281 -0.20600644 -0.10957789 0.12711035 -0.24983759 -0.17532462 -0.07889608 0.113961 -0.23230512 -0.043831155 0.017532462 -0.0569805 -0.1709415 -0.06574673 0.03944804 0.03944804
000090 dc f0 04 f3 1a e9 4a ef ed 29 e9 33 18 0c 94 f5
       -0.15779217 -0.07012985 0.017532462 -0.0569805 0.113961 -0.10081166 0.32435057 -0.074512966 -0.08327919 0.17970774 -0.10081166 0.22353889 0.10519478 0.05259739 -0.47337648 -0.04821427
0000a0 06 22 fc cf bf 11 fa f3 43 e8 24 f7 f5 dd f2 21
       0.026298694 0.14902593 -0.017532462 -0.21477266 -0.2849025 0.074512966 -0.026298694 -0.0569805 0.29366875 -0.10519478 0.15779217 -0.03944804 -0.04821427 -0.15340905 -0.06136362 0.14464281
0000b0 63 00 d1 00 da 10 f0 03 e8 fd 09 cb ad b2 03 05
       0.43392843 0.0 -0.20600644 0.0 -0.16655838 0.07012985 -0.07012985 0.013149347 -0.10519478 -0.013149347 0.03944804 -0.23230512 -0.3637986 -0.341883 0.013149347 0.021915577
0000c0 ee e6 fb b5 17 07 1f d6 f2 2a 02 13 17 25 b0 de
       -0.07889608 -0.113961 -0.021915577 -0.32873365 0.10081166 0.03068181 0.13587658 -0.18409085 -0.06136362 0.18409085 0.008766231 0.08327919 0.10081166 0.16217528 -0.35064924 -0.14902593
0000d0 07 45 fb ec f3 e9 ef 0d fb 00 ef c5 d3 eb 1c 21
       0.03068181 0.30243498 -0.021915577 -0.08766231 -0.0569805 -0.10081166 -0.074512966 0.0569805 -0.021915577 0.0 -0.074512966 -0.2586038 -0.1972402 -0.09204543 0.12272724 0.14464281
0000e0 09 05 ee 14 e8 0e ea e8 db 02 eb fa d3 e4 fc 31
       0.03944804 0.021915577 -0.07889608 0.08766231 -0.10519478 0.06136362 -0.09642854 -0.10519478 -0.16217528 0.008766231 -0.09204543 -0.026298694 -0.1972402 -0.12272724 -0.017532462 0.21477266
0000f0 0f eb 01 db 08 0f 3f cd f0 2c ef 25 2e 1a a7 cb
       0.06574673 -0.09204543 0.0043831156 -0.16217528 0.035064925 0.06574673 0.27613628 -0.22353889 -0.07012985 0.19285709 -0.074512966 0.16217528 0.20162332 0.113961 -0.3900973 -0.23230512

sequential/conv2d_1/Conv2D i1 [16, 3, 3, 32]
000000 25 4d fa 11 16 f0 10 ec 09 1c 00 c7 1b 01 fa 02
       37 77 -6 17 22 -16 16 -20 9 28 0 -57 27 1 -6 2
000010 01 22 d5 d2 dc 11 28 02 0f 08 f4 fb fe 12 00 15
       1 34 -43 -46 -36 17 40 2 15 8 -12 -5 -2 18 0 21
000020 11 bd 10 f6 eb 17 c2 3d 09 ca dc cf 1a da df fd
       17 -67 16 -10 -21 23 -62 61 9 -54 -36 -49 26 -38 -33 -3
000030 02 09 e7 1c fc 15 24 0b 0a f4 b7 02 d9 e9 21 d6
       2 9 -25 28 -4 21 36 11 10 -12 -73 2 -39 -23 33 -42
000040 09 e9 e7 12 2e e4 ff 03 f1 15 fa 37 a8 41 3e 0a
       9 -23 -25 18 46 -28 -1 3 -15 21 -6 55 -88 65 62 10
000050 ec fc c4 57 c6 00 f3 e5 01 ac 11 d3 c9 42 fa 89
       -20 -4 -60 87 -58 0 -13 -27 1 -84 17 -45 -55 66 -6 -119
000060 0f 1b f0 f3 e6 0c c0 12 ea de 1e 12 05 e2 9d c0
       15 27 -16 -13 -26 12 -64 18 -22 -34 30 18 5 -30 -99 -64
000070 0d db 0a 16 e3 19 0d fc 1c d8 06 f3 0b fc 3f 06
       13 -37 10 22 -29 25 13 -4 28 -40 6 -13 11 -4 63 6
000080 d4 12 c6 0b 21 e0 bd 21 f3 ba d0 e6 d4 ef d7 f4
       -44 18 -58 11 33 -32 -67 33 -13 -70 -48 -26 -44 -17 -41 -12
000090 0b f8 c7 29 07 28 ef 11 f1 e3 e0 28 e6 f5 29 06
       11 -8 -57 41 7 40 -17 17 -15 -29 -32 40 -26 -11 41 6
0000a0 f0 16 e0 0c 2c b6 48 d1 e3 ea 15 0c d4 e8 45 e1
       -16 22 -32 12 44 -74 72 -47 -29 -22 21 12 -44 -24 69 -31
0000b0 bf 0c 0b 07 a1 c5 09 0c ea c2 f5 ae ab 04 fa bd
       -65 12 11 7 -95 -59 9 12 -22 -62 -11 -82 -85 4 -6 -67
0000c0 a2 32 03 02 dd 16 0b 1f 2d f2 f6 e3 13 01 fc fd
       -94 50 3 2 -35 22 11 31 45 -14 -10 -29 19 1 -4 -3
0000d0 10 b5 d4 b6 d9 32 be 24 f0 ed c3 0c c2 00 1f 2d
       16 -75 -44 -74 -39 50 -66 36 -16 -19 -61 12 -62 0 31 45
0000e0 c3 2d 0d 0d 2b f9 02 e4 e9 e4 d9 f1 a7 f0 fd de
       -61 45 13 13 43 -7 2 -28 -23 -28 -39 -15 -89 -16 -3 -34
0000f0 d3 01 b3 00 c9 e8 ef e3 06 e5 f1 cf 81 23 0a e6
       -45 1 -77 0 -55 -24 -17 -29 6 -27 -15 -49 -127 35 10 -26

sequential/conv2d/Conv2D i1 [32, 3, 3, 1]
000000 34 7f 11 ea 08 ec b0 a3 d0 95 5b f9 02 12 26 5d
       52 127 17 -22 8 -20 -80 -93 -48 -107 91 -7 2 18 38 93
000010 81 26 65 5c a1 19 36 81 85 30 a0 b3 81 a1 0f 43
       -127 38 101 92 -95 25 54 -127 -123 48 -96 -77 -127 -95 15 67
000020 45 2a 21 19 05 f8 ea 83 1c 4d 96 18 7f 7f ab 0b
       69 42 33 25 5 -8 -22 -125 28 77 -106 24 127 127 -85 11
000030 64 3b 13 67 b9 e4 bd f0 40 1e 7f 7d 0c 75 2a 32
       100 59 19 103 -71 -28 -67 -16 64 30 127 125 12 117 42 50
000040 3c 09 d9 81 e0 ce a7 49 7f fb 71 e9 fc 4c e3 b8
       60 9 -39 -127 -32 -50 -89 73 127 -5 113 -23 -4 76 -29 -72
000050 0e 4c 23 fa 59 3f 26 e4 19 7f 3f fc 7f 7d 21 13
       14 76 35 -6 89 63 38 -28 25 127 63 -4 127 125 33 19
000060 bb 3d 0c d3 cb ca d9 94 ed d8 7f 45 3c 21 81 09
       -69 61 12 -45 -53 -54 -39 -108 -19 -40 127 69 60 33 -127 9
000070 09 8a 5d 95 b0 b3 c0 fa f1 4f bd 18 7f ea bd a5
       9 -118 93 -107 -80 -77 -64 -6 -15 79 -67 24 127 -22 -67 -91
000080 fe e4 f9 e9 23 7f 3b 90 a9 cf bc 1e 81 1e 35 82
       -2 -28 -7 -23 35 127 59 -112 -87 -49 -68 30 -127 30 53 -126
000090 7f c4 3f 28 9e fa f8 30 b4 1b 7f af e2 60 e8 c0
       127 -60 63 40 -98 -6 -8 48 -76 27 127 -81 -30 96 -24 -64
0000a0 3b 50 7f 53 09 c8 96 cd 3e 0b 4a 76 a1 78 de fa
       59 80 127 83 9 -56 -106 -51 62 11 74 118 -95 120 -34 -6
0000b0 25 81 50 c8 1b 81 e6 05 de be 35 76 21 02 d6 7f
       37 -127 80 -56 27 -127 -26 5 -34 -66 53 118 33 2 -42 127
0000c0 0f aa 4b 33 00 fb cc 7f c5 b2 30 ef 02 b3 1c 88
       15 -86 75 51 0 -5 -52 127 -59 -78 48 -17 2 -77 28 -120
0000d0 13 fe e9 eb 1f 38 aa 81 0e 7f b8 f6 ef f6 a0 86
       19 -2 -23 -21 31 56 -86 -127 14 127 -72 -10 -17 -10 -96 -122
0000e0 5d ce 9b eb 2f d6 d4 53 7f e4 e4 07 55 7f 66 f7
       93 -50 -101 -21 47 -42 -44 83 127 -28 -28 7 85 127 102 -9
0000f0 a0 d5 bc cc c6 72 1f cc fc 3a 18 81 2f 54 7f da
       -96 -43 -68 -52 -58 114 31 -52 -4 58 24 -127 47 84 127 -38
