neural_network/models/quant_model.tflite (tflite, 15656 bytes, 5 tensors)

sequential_1/dense_5/MatMul i1 [6, 16] scale=0.016159253 zero_point=0
0	0x99	-1.6644031
1	0x19	0.40398133
2	0x86	-1.9714289
3	0x07	0.113114774
4	0x0f	0.2423888
5	0x15	0.33934432
6	0x1d	0.46861833
7	0x81	-2.052225
8	0xbe	-1.0665107
9	0xae	-1.3250588
10	0x17	0.37166283
11	0xc8	-0.9049182
12	0x20	0.5170961
13	0x0e	0.22622955
14	0x12	0.29086655
15	0x8b	-1.8906326
16	0xd2	-0.74332565
17	0xf5	-0.17775178
18	0xc0	-1.0341922
19	0xc9	-0.8887589
20	0xcc	-0.8402812
21	0xc8	-0.9049182
22	0xf3	-0.2100703
23	0xce	-0.80796266
24	0x45	1.1149884
25	0xd6	-0.67868865
26	0xb7	-1.1796255
27	0x25	0.59789234
28	0xb2	-1.2604218
29	0xb4	-1.2281033
30	0x20	0.5170961
31	0x01	0.016159253
32	0xe6	-0.4201406
33	0xf3	-0.2100703
34	0x03	0.04847776
35	0xb4	-1.2281033
36	0xdd	-0.5655739
37	0x17	0.37166283
38	0xdf	-0.53325534
39	0x0a	0.16159253
40	0x0a	0.16159253
41	0xc6	-0.93723667
42	0xe3	-0.46861833
43	0x1e	0.4847776
44	0xe7	-0.40398133
45	0xea	-0.35550356
46	0x18	0.3878221
47	0x1c	0.4524591
48	0x10	0.25854805
49	0xbf	-1.0503515
50	0xfa	-0.09695552
51	0x01	0.016159253
52	0x13	0.30702582
53	0xf2	-0.22622955
54	0xe6	-0.4201406
55	0x02	0.032318506
56	0xf9	-0.113114774
57	0x09	0.14543328
58	0x08	0.12927403
59	0x18	0.3878221
60	0xd3	-0.7271664
61	0xc4	-0.9695552
62	0xfc	-0.06463701
63	0x0c	0.19391105
64	0x13	0.30702582
65	0x0d	0.2100703
66	0x00	0.0
67	0x16	0.35550356
68	0x18	0.3878221
69	0xc9	-0.8887589
70	0x1a	0.4201406
71	0xfb	-0.080796264
72	0xe7	-0.40398133
73	0x1b	0.43629983
74	0x1d	0.46861833
75	0xef	-0.27470732
76	0xfa	-0.09695552
77	0x0c	0.19391105
78	0xfa	-0.09695552
79	0xfd	-0.04847776
80	0x19	0.40398133
81	0xdc	-0.5817331
82	0x02	0.032318506
83	0x11	0.27470732
84	0x17	0.37166283
85	0x15	0.33934432
86	0xd8	-0.6463701
87	0x0a	0.16159253
88	0x0c	0.19391105
89	0x16	0.35550356
90	0x04	0.06463701
91	0xc4	-0.9695552
92	0x1a	0.4201406
93	0xc2	-1.0018737
94	0xb1	-1.276581
95	0x1c	0.4524591

sequential_1/dense_4/MatMul i1 [16, 8] scale=0.009848671 zero_point=0
0	0xdd	-0.3447035
1	0xee	-0.17727607
2	0x12	0.17727607
3	0xe8	-0.2363681
4	0xfb	-0.049243353
5	0xed	-0.18712474
6	0x38	0.5515256
7	0xf7	-0.08863804
8	0x04	0.039394684
9	0x10	0.15757874
10	0xca	-0.5318282
11	0xf4	-0.11818405
12	0x2e	0.45303887
13	0x5a	0.8863804
14	0xfd	-0.029546013
15	0x2c	0.43334153
16	0x0e	0.1378814
17	0xdd	-0.3447035
18	0x1b	0.2659141
19	0x4b	0.7386503
20	0xfe	-0.019697342
21	0xe8	-0.2363681
22	0x1f	0.3053088
23	0xcc	-0.5121309
24	0x3e	0.6106176
25	0x1d	0.28561145
26	0x3b	0.5810716
27	0x0a	0.09848671
28	0xf5	-0.10833538
29	0x20	0.31515747
30	0xef	-0.1674274
31	0x0d	0.12803273
32	0x33	0.5022822
33	0x0a	0.09848671
34	0x5b	0.8962291
35	0xf6	-0.09848671
36	0x0c	0.11818405
37	0x0f	0.14773007
38	0x1c	0.2757628
39	0x27	0.38409817
40	0xfb	-0.049243353
41	0x20	0.31515747
42	0xeb	-0.2068221
43	0x2b	0.42349285
44	0xf5	-0.10833538
45	0x4e	0.76819634
46	0xf1	-0.14773007
47	0x1a	0.25606546
48	0xf4	-0.11818405
49	0x1f	0.3053088
50	0x2b	0.42349285
51	0xf9	-0.0689407
52	0x45	0.6795583
53	0x4e	0.76819634
54	0x03	0.029546013
55	0x05	0.049243353
56	0xe1	-0.3053088
57	0x1d	0.28561145
58	0xd5	-0.42349285
59	0x49	0.718953
60	0xcd	-0.5022822
61	0xd0	-0.4727362
62	0x23	0.3447035
63	0x07	0.0689407
64	0xa1	-0.93562376
65	0xd8	-0.39394683
66	0xbf	-0.6401636
67	0x8d	-1.1325972
68	0xb3	-0.7583477
69	0xdb	-0.36440083
70	0x81	-1.2507812
71	0x33	0.5022822
72	0x1b	0.2659141
73	0xf2	-0.1378814
74	0x3a	0.5712229
75	0x09	0.08863804
76	0xff	-0.009848671
77	0xe9	-0.22651944
78	0x12	0.17727607
79	0xd5	-0.42349285
80	0x12	0.17727607
81	0xd2	-0.45303887
82	0x48	0.7091043
83	0xf4	-0.11818405
84	0x51	0.79774237
85	0xcf	-0.4825849
86	0xf8	-0.07878937
87	0xef	-0.1674274
88	0xdb	-0.36440083
89	0xf7	-0.08863804
90	0x05	0.049243353
91	0xfd	-0.029546013
92	0xd3	-0.4431902
93	0xc8	-0.5515256
94	0xfb	-0.049243353
95	0xfb	-0.049243353
96	0x15	0.2068221
97	0x05	0.049243353
98	0xd3	-0.4431902
99	0xc8	-0.5515256
100	0x0b	0.10833538
101	0x45	0.6795583
102	0xc9	-0.5416769
103	0x2e	0.45303887
104	0xf5	-0.10833538
105	0x05	0.049243353
106	0x22	0.3348548
107	0xf3	-0.12803273
108	0x3a	0.5712229
109	0x26	0.3742495
110	0x05	0.049243353
111	0xf2	-0.1378814
112	0xe6	-0.25606546
113	0xe3	-0.28561145
114	0xf0	-0.15757874
115	0x00	0.0
116	0x26	0.3742495
117	0x47	0.69925565
118	0xfe	-0.019697342
119	0xff	-0.009848671
120	0xeb	-0.2068221
121	0x26	0.3742495
122	0x01	0.009848671
123	0x50	0.78789365
124	0x04	0.039394684
125	0xec	-0.19697341
126	0xea	-0.21667077
127	0xe8	-0.2363681

sequential_1/dense_3/MatMul i1 [8, 528] scale=0.0042406404 zero_point=0
0	0xfe	-0.008481281
1	0x0a	0.042406403
2	0xcd	-0.21627267
3	0x0d	0.055128325
4	0x12	0.076331526
5	0x17	0.09753473
6	0xfe	-0.008481281
7	0xf3	-0.055128325
8	0xf2	-0.059368968
9	0xf9	-0.029684484
10	0x10	0.06785025
11	0x03	0.012721921
12	0xd8	-0.16962561
13	0xf2	-0.059368968
14	0xef	-0.07209089
15	0x1e	0.12721922
16	0x00	0.0
17	0x21	0.13994114
18	0xe5	-0.11449729
19	0xf4	-0.050887685
20	0x1b	0.11449729
21	0x21	0.13994114
22	0x27	0.16538498
23	0xeb	-0.08905345
24	0x01	0.0042406404
25	0x00	0.0
26	0xec	-0.084812805
27	0xea	-0.09329409
28	0x27	0.16538498
29	0xc6	-0.24595715
30	0x10	0.06785025
31	0xfe	-0.008481281
32	0x09	0.038165763
33	0xe7	-0.10601601
34	0x02	0.008481281
35	0x05	0.021203201
36	0xe2	-0.12721922
37	0xf5	-0.046647046
38	0x14	0.084812805
39	0x0a	0.042406403
40	0x1d	0.122978576
41	0xe8	-0.10177537
42	0x1f	0.13145985
43	0xe7	-0.10601601
44	0x13	0.080572166
45	0x00	0.0
46	0xf7	-0.038165763
47	0x0b	0.046647046
48	0xd1	-0.1993101
49	0x2a	0.1781069
50	0xfd	-0.012721921
51	0xf2	-0.059368968
52	0xf6	-0.042406403
53	0xf0	-0.06785025
54	0xcc	-0.2205133
55	0xff	-0.0042406404
56	0xd0	-0.20355074
57	0x26	0.16114433
58	0x1c	0.118737936
59	0xf4	-0.050887685
60	0x01	0.0042406404
61	0x27	0.16538498
62	0xed	-0.080572166
63	0x2e	0.19506946
64	0x02	0.008481281
65	0x12	0.076331526
66	0x33	0.21627267
67	0x67	0.43678597
68	0x1b	0.11449729
69	0x1f	0.13145985
70	0xfa	-0.025443843
71	0xf9	-0.029684484
72	0x1d	0.122978576
73	0xea	-0.09329409
74	0xd6	-0.1781069
75	0xe7	-0.10601601
76	0x0a	0.042406403
77	0xf8	-0.033925124
78	0x03	0.012721921
79	0x02	0.008481281
80	0x32	0.21203202
81	0xc6	-0.24595715
82	0x06	0.025443843
83	0x31	0.20779139
84	0xdd	-0.14842242
85	0x03	0.012721921
86	0x07	0.029684484
87	0x04	0.016962562
88	0xd9	-0.16538498
89	0x09	0.038165763
90	0x1b	0.11449729
91	0xf0	-0.06785025
92	0x0e	0.059368968
93	0xf7	-0.038165763
94	0xd8	-0.16962561
95	0xc6	-0.24595715
96	0xd2	-0.19506946
97	0x34	0.2205133
98	0x0d	0.055128325
99	0xd9	-0.16538498
100	0xe0	-0.1357005
101	0xee	-0.076331526
102	0x06	0.025443843
103	0x05	0.021203201
104	0xe5	-0.11449729
105	0xfa	-0.025443843
106	0x06	0.025443843
107	0x07	0.029684484
108	0xf3	-0.055128325
109	0x2d	0.19082882
110	0xf8	-0.033925124
111	0x25	0.1569037
112	0x06	0.025443843
113	0x25	0.1569037
114	0x17	0.09753473
115	0x54	0.3562138
116	0x1a	0.11025665
117	0x06	0.025443843
118	0x1b	0.11449729
119	0x33	0.21627267
120	0x0b	0.046647046
121	0xe3	-0.122978576
122	0xe1	-0.13145985
123	0xdd	-0.14842242
124	0x13	0.080572166
125	0xfd	-0.012721921
126	0xce	-0.21203202
127	0xf3	-0.055128325
128	0x01	0.0042406404
129	0x08	0.033925124
130	0xd3	-0.19082882
131	0xd5	-0.18234754
132	0x13	0.080572166
133	0xf0	-0.06785025
134	0xfa	-0.025443843
135	0x1c	0.118737936
136	0x35	0.22475395
137	0x2b	0.18234754
138	0xf8	-0.033925124
139	0x01	0.0042406404
140	0x0b	0.046647046
141	0x07	0.029684484
142	0xe3	-0.122978576
143	0xeb	-0.08905345
144	0xd5	-0.18234754
145	0x20	0.1357005
146	0x20	0.1357005
147	0xda	-0.16114433
148	0xeb	-0.08905345
149	0x0b	0.046647046
150	0xf7	-0.038165763
151	0x03	0.012721921
152	0xd7	-0.17386626
153	0x08	0.033925124
154	0x08	0.033925124
155	0xfd	-0.012721921
156	0xf7	-0.038165763
157	0x36	0.22899458
158	0xf6	-0.042406403
159	0x37	0.23323523
160	0xec	-0.084812805
161	0x10	0.06785025
162	0x02	0.008481281
163	0x4c	0.32228866
164	0x21	0.13994114
165	0x17	0.09753473
166	0xf5	-0.046647046
167	0x04	0.016962562
168	0x16	0.09329409
169	0x07	0.029684484
170	0xc4	-0.25443843
171	0x06	0.025443843
172	0x38	0.23747587
173	0x3a	0.24595715
174	0xe4	-0.118737936
175	0xf5	-0.046647046
176	0xfe	-0.008481281
177	0xf1	-0.06360961
178	0xe7	-0.10601601
179	0x19	0.10601601
180	0x21	0.13994114
181	0x01	0.0042406404
182	0xfa	-0.025443843
183	0x05	0.021203201
184	0xe8	-0.10177537
185	0x13	0.080572166
186	0x2f	0.1993101
187	0xfd	-0.012721921
188	0x1f	0.13145985
189	0x20	0.1357005
190	0xe9	-0.09753473
191	0xe8	-0.10177537
192	0xd0	-0.20355074
193	0x29	0.17386626
194	0x25	0.1569037
195	0xde	-0.14418177
196	0xd6	-0.1781069
197	0xf0	-0.06785025
198	0x19	0.10601601
199	0x2a	0.1781069
200	0xb2	-0.33076996
201	0xe4	-0.118737936
202	0x04	0.016962562
203	0x12	0.076331526
204	0x03	0.012721921
205	0x10	0.06785025
206	0xf1	-0.06360961
207	0x3c	0.25443843
208	0xfd	-0.012721921
209	0x24	0.15266305
210	0x05	0.021203201
211	0x4a	0.3138074
212	0x09	0.038165763
213	0x1d	0.122978576
214	0x11	0.07209089
215	0x1b	0.11449729
216	0x19	0.10601601
217	0xfe	-0.008481281
218	0xd9	-0.16538498
219	0xea	-0.09329409
220	0xf7	-0.038165763
221	0x4e	0.33076996
222	0xed	-0.080572166
223	0xfb	-0.021203201
224	0x24	0.15266305
225	0xca	-0.22899458
226	0xe5	-0.11449729
227	0xe2	-0.12721922
228	0xef	-0.07209089
229	0x01	0.0042406404
230	0xfd	-0.012721921
231	0x08	0.033925124
232	0xda	-0.16114433
233	0x00	0.0
234	0x1c	0.118737936
235	0xfe	-0.008481281
236	0xe6	-0.11025665
237	0x22	0.14418177
238	0xfd	-0.012721921
239	0xf6	-0.042406403
240	0xbc	-0.28836355
241	0x17	0.09753473
242	0x24	0.15266305
243	0xea	-0.09329409
244	0xe0	-0.1357005
245	0xde	-0.14418177
246	0x11	0.07209089
247	0x0c	0.050887685
248	0xc4	-0.25443843
249	0x00	0.0
250	0xf8	-0.033925124
251	0x12	0.076331526
252	0xe0	-0.1357005
253	0x2c	0.18658818
254	0xf8	-0.033925124
255	0x36	0.22899458

sequential_1/conv2d_3/Conv2D i1 [16, 3, 3, 32]
0	0x35	53
1	0x24	36
2	0x34	52
3	0x55	85
4	0xe2	-30
5	0x06	6
6	0xd7	-41
7	0xdc	-36
8	0x13	19
9	0x19	25
10	0xe6	-26
11	0xef	-17
12	0xf8	-8
13	0x06	6
14	0xc1	-63
15	0xf2	-14
16	0xf5	-11
17	0x10	16
18	0x0d	13
19	0x05	5
20	0xe4	-28
21	0xb4	-76
22	0x7f	127
23	0xf1	-15
24	0x10	16
25	0x35	53
26	0xf2	-14
27	0xe4	-28
28	0xea	-22
29	0xf7	-9
30	0x16	22
31	0x09	9
32	0xe1	-31
33	0xf3	-13
34	0xe7	-25
35	0xfe	-2
36	0xd6	-42
37	0xe3	-29
38	0xe3	-29
39	0xb7	-73
40	0xed	-19
41	0xf3	-13
42	0xfe	-2
43	0x09	9
44	0xea	-22
45	0xcb	-53
46	0x05	5
47	0x01	1
48	0xe7	-25
49	0xcf	-49
50	0xdb	-37
51	0xf7	-9
52	0xe1	-31
53	0xf5	-11
54	0xfb	-5
55	0xf4	-12
56	0xf4	-12
57	0xda	-38
58	0xfc	-4
59	0x35	53
60	0xf8	-8
61	0xd9	-39
62	0xe1	-31
63	0xea	-22
64	0xf9	-7
65	0xed	-19
66	0xf6	-10
67	0xea	-22
68	0xfd	-3
69	0xf8	-8
70	0x01	1
71	0xdf	-33
72	0xf7	-9
73	0x22	34
74	0xee	-18
75	0x03	3
76	0x08	8
77	0xfa	-6
78	0xfb	-5
79	0x04	4
80	0xde	-34
81	0xde	-34
82	0xf4	-12
83	0xfa	-6
84	0xff	-1
85	0x0a	10
86	0x17	23
87	0xfb	-5
88	0x09	9
89	0x1a	26
90	0x03	3
91	0x2d	45
92	0x07	7
93	0x08	8
94	0xf6	-10
95	0xe6	-26
96	0x1b	27
97	0xe5	-27
98	0x0b	11
99	0x1b	27
100	0x0e	14
101	0x12	18
102	0x07	7
103	0xe3	-29
104	0x11	17
105	0x14	20
106	0xdd	-35
107	0x03	3
108	0xff	-1
109	0x0e	14
110	0xe0	-32
111	0x12	18
112	0xf7	-9
113	0xea	-22
114	0x00	0
115	0xe9	-23
116	0x0a	10
117	0xef	-17
118	0x18	24
119	0x09	9
120	0xe6	-26
121	0x15	21
122	0x13	19
123	0xef	-17
124	0xfe	-2
125	0xfb	-5
126	0xe1	-31
127	0xf6	-10
128	0xee	-18
129	0xf0	-16
130	0x09	9
131	0xfc	-4
132	0xf5	-11
133	0x0d	13
134	0x1a	26
135	0xd9	-39
136	0xfd	-3
137	0xeb	-21
138	0x0d	13
139	0xfa	-6
140	0x16	22
141	0xfe	-2
142	0xe2	-30
143	0xf3	-13
144	0xec	-20
145	0x14	20
146	0xe6	-26
147	0xfc	-4
148	0xf9	-7
149	0x18	24
150	0x10	16
151	0x02	2
152	0xe1	-31
153	0xed	-19
154	0xf5	-11
155	0x23	35
156	0xf4	-12
157	0xec	-20
158	0xe5	-27
159	0xeb	-21
160	0x0d	13
161	0xe4	-28
162	0x00	0
163	0x08	8
164	0x17	23
165	0x0e	14
166	0x0f	15
167	0x09	9
168	0xe3	-29
169	0xf7	-9
170	0xea	-22
171	0xfd	-3
172	0xfc	-4
173	0x04	4
174	0x09	9
175	0x06	6
176	0x11	17
177	0xe8	-24
178	0x10	16
179	0xf3	-13
180	0xfb	-5
181	0xe6	-26
182	0x23	35
183	0x15	21
184	0x09	9
185	0x20	32
186	0x26	38
187	0x2e	46
188	0xf3	-13
189	0xef	-17
190	0x05	5
191	0xd9	-39
192	0xbb	-69
193	0xbd	-67
194	0x08	8
195	0x14	20
196	0x07	7
197	0x1d	29
198	0x08	8
199	0x1a	26
200	0xf0	-16
201	0x26	38
202	0xe6	-26
203	0xf7	-9
204	0x0b	11
205	0x05	5
206	0x0f	15
207	0x11	17
208	0xfe	-2
209	0xf3	-13
210	0x0e	14
211	0xef	-17
212	0x0d	13
213	0x23	35
214	0x22	34
215	0x09	9
216	0xef	-17
217	0x22	34
218	0xfb	-5
219	0xf5	-11
220	0x17	23
221	0x05	5
222	0xcc	-52
223	0xdf	-33
224	0x19	25
225	0x2a	42
226	0x1c	28
227	0xf1	-15
228	0x1b	27
229	0x22	34
230	0x16	22
231	0xab	-85
232	0x00	0
233	0xa8	-88
234	0x3b	59
235	0x07	7
236	0x10	16
237	0xe8	-24
238	0xc2	-62
239	0x07	7
240	0xf3	-13
241	0x12	18
242	0x8d	-115
243	0x06	6
244	0xf3	-13
245	0xce	-50
246	0x0d	13
247	0x05	5
248	0xf7	-9
249	0xe7	-25
250	0x05	5
251	0x36	54
252	0xc7	-57
253	0xed	-19
254	0x11	17
255	0x1e	30

sequential_1/conv2d_2/Conv2D i1 [32, 3, 3, 1]
0	0x81	-127
1	0xad	-83
2	0x21	33
3	0xf5	-11
4	0x98	-104
5	0x73	115
6	0x2f	47
7	0xfc	-4
8	0xfe	-2
9	0x33	51
10	0xc0	-64
11	0xf5	-11
12	0x12	18
13	0xc1	-63
14	0x6d	109
15	0x82	-126
16	0xaa	-86
17	0x7f	127
18	0xb1	-79
19	0x09	9
20	0x4f	79
21	0xb1	-79
22	0xe4	-28
23	0x7f	127
24	0xd7	-41
25	0xd5	-43
26	0x5e	94
27	0xc4	-60
28	0xd2	-46
29	0x7f	127
30	0x09	9
31	0x44	68
32	0xd5	-43
33	0x2a	42
34	0xd6	-42
35	0xf0	-16
36	0xfd	-3
37	0x7f	127
38	0xcb	-53
39	0xc6	-58
40	0x67	103
41	0x02	2
42	0xd3	-45
43	0xf8	-8
44	0x1f	31
45	0x0f	15
46	0x2a	42
47	0x8f	-113
48	0xf5	-11
49	0x5e	94
50	0x81	-127
51	0xe8	-24
52	0x34	52
53	0xe5	-27
54	0x74	116
55	0x7c	124
56	0xa5	-91
57	0xc1	-63
58	0x1d	29
59	0x20	32
60	0x81	-127
61	0xc8	-56
62	0x21	33
63	0x5f	95
64	0x79	121
65	0x07	7
66	0x21	33
67	0x7a	122
68	0x7f	127
69	0x22	34
70	0x18	24
71	0x4b	75
72	0x07	7
73	0xf3	-13
74	0x6c	108
75	0x33	51
76	0xf5	-11
77	0x0c	12
78	0xf7	-9
79	0xd4	-44
80	0x81	-127
81	0xda	-38
82	0xdd	-35
83	0x26	38
84	0xf1	-15
85	0xaf	-81
86	0x8e	-114
87	0x38	56
88	0x7f	127
89	0x4b	75
90	0x94	-108
91	0xc6	-58
92	0xea	-22
93	0xa6	-90
94	0xa9	-87
95	0x89	-119
96	0x0b	11
97	0xb3	-77
98	0x81	-127
99	0x4c	76
100	0xe5	-27
101	0x7f	127
102	0x37	55
103	0xda	-38
104	0x67	103
105	0xe6	-26
106	0xe5	-27
107	0x35	53
108	0x81	-127
109	0x11	17
110	0x92	-110
111	0x72	114
112	0xd5	-43
113	0xe5	-27
114	0xde	-34
115	0x7b	123
116	0x00	0
117	0xeb	-21
118	0x28	40
119	0xd7	-41
120	0xe2	-30
121	0x7f	127
122	0xee	-18
123	0xf3	-13
124	0x74	116
125	0x24	36
126	0x7b	123
127	0x28	40
128	0x43	67
129	0x5d	93
130	0x7b	123
131	0x7f	127
132	0x34	52
133	0x30	48
134	0x3c	60
135	0x18	24
136	0x06	6
137	0x07	7
138	0x4e	78
139	0xbf	-65
140	0x00	0
141	0x3f	63
142	0x3b	59
143	0x81	-127
144	0xd6	-42
145	0x5e	94
146	0x16	22
147	0xbf	-65
148	0x7f	127
149	0x5d	93
150	0x4a	74
151	0xe2	-30
152	0x55	85
153	0x8e	-114
154	0x7f	127
155	0x46	70
156	0xcc	-52
157	0x0e	14
158	0xd4	-44
159	0x22	34
160	0x89	-119
161	0x9a	-102
162	0xe8	-24
163	0xac	-84
164	0x37	55
165	0x6a	106
166	0x7f	127
167	0x71	113
168	0x36	54
169	0x50	80
170	0xda	-38
171	0x57	87
172	0xd5	-43
173	0x7f	127
174	0x18	24
175	0xd5	-43
176	0x57	87
177	0x34	52
178	0xa3	-93
179	0x1b	27
180	0x17	23
181	0x62	98
182	0x05	5
183	0x43	67
184	0x41	65
185	0xe0	-32
186	0xe5	-27
187	0x9f	-97
188	0x81	-127
189	0x7f	127
190	0xfa	-6
191	0xdc	-36
192	0x1e	30
193	0x31	49
194	0x1f	31
195	0x93	-109
196	0x09	9
197	0x3b	59
198	0x7f	127
199	0xa8	-88
200	0x66	102
201	0xc5	-59
202	0xe9	-23
203	0x2a	42
204	0x9a	-102
205	0x56	86
206	0x92	-110
207	0x7f	127
208	0x14	20
209	0x4b	75
210	0x39	57
211	0x93	-109
212	0xe6	-26
213	0x00	0
214	0xcc	-52
215	0xc3	-61
216	0xa7	-89
217	0x81	-127
218	0x8d	-115
219	0x2e	46
220	0xae	-82
221	0xd0	-48
222	0xc5	-59
223	0x6a	106
224	0x7d	125
225	0x89	-119
226	0x9e	-98
227	0x0a	10
228	0x7f	127
229	0x4f	79
230	0x7c	124
231	0xd6	-42
232	0x43	67
233	0x92	-110
234	0xc5	-59
235	0x30	48
236	0xd8	-40
237	0x3d	61
238	0x5b	91
239	0xdd	-35
240	0x7d	125
241	0x81	-127
242	0x8f	-113
243	0x51	81
244	0x68	104
245	0x01	1
246	0x1e	30
247	0xe0	-32
248	0x2a	42
249	0x81	-127
250	0xde	-34
251	0x9f	-97
252	0x7f	127
253	0x0c	12
254	0x3d	61
255	0xec	-20
