neural_network/models/quant_model.tflite (tflite, 15616 bytes, 5 tensors)

sequential_1/dense_5/MatMul i1 [4, 16] scale=0.013437497 zero_point=0
1.1690623 -1.3168747 -1.3437498 0.9809373 -1.7065622 -0.63156235 -1.2631247 -1.6393747
-1.4512497 -0.44343743 -1.4781247 -1.2362498 -1.3303123 0.6718749 -0.94062483 -1.0481248
-0.9674998 0.28218743 0.17468746 -0.8331248 -0.26874995 -0.24187495 0.34937492 -0.094062485
-0.18812497 -0.21499996 -0.28218743 -0.9137498 0.5778124 0.05374999 -0.21499996 0.33593744
-0.88687485 0.28218743 0.120937474 -0.47031242 0.26874995 0.18812497 0.32249993 0.08062498
0.4165624 0.42999992 0.30906245 0.17468746 0.25531244 0.25531244 -0.16124997 0.08062498
-0.5509374 0.18812497 -0.38968742 0.0 0.37624994 0.5912499 0.120937474 -0.08062498
0.4165624 -0.18812497 0.4165624 0.38968742 -0.56437486 -0.08062498 0.6718749 -0.16124997
00000000: 579e 9c49 81d1 a286 94df 92a4 9d32 bab2
00000010: b815 0dc2 ecee 1af9 f2f0 ebbc 2b04 f019
00000020: be15 09dd 140e 1806 1f20 170d 1313 f406
00000030: d70e e300 1c2c 09fa 1ff2 1f1d d6fa 32f4

sequential_1/dense_4/MatMul i1 [16, 8] scale=0.009059933 zero_point=0
-0.69761485 -0.83351386 -0.4348768 -0.806334 -0.69761485 -0.83351386 -0.77915424 -0.83351386
1.1506115 -0.38957712 -0.14495893 0.24461819 0.28991786 0.9059933 0.5979556 0.6523152
0.49829632 -0.76103437 -0.6613751 -0.13589899 0.27179798 0.48017645 0.045299664 0.33521754
-0.4711165 -0.942233 0.18119866 0.22649832 -0.407697 -0.62513536 -0.28085792 -0.8244539
-0.2536781 0.4711165 0.76103437 0.30803773 -0.18119866 -0.09059933 0.38051718 -0.11777913
-0.3261576 0.5979556 0.19025859 0.38957712 -0.18119866 -0.19931853 -0.14495893 -0.30803773
1.0147125 -0.48017645 -0.39863706 -0.1087192 0.39863706 0.77009434 0.19025859 0.6070155
-0.17213872 -0.42581686 -0.3623973 -0.13589899 0.83351386 -0.072479464 0.33521754 0.19931853
-0.06341953 -0.12683906 -0.33521754 0.99659264 0.6613751 -0.009059933 -0.17213872 0.0815394
-0.28991786 -0.099659264 -0.17213872 -0.045299664 0.69761485 0.009059933 -0.19025859 -0.045299664
-0.2989778 0.64325523 0.6704351 0.46205658 0.2536781 -0.06341953 0.26273805 -0.06341953
-0.1087192 0.30803773 0.61607546 0.34427744 0.30803773 -0.018119866 -0.13589899 0.0815394
0.64325523 -0.045299664 -0.0815394 0.036239732 -0.09059933 -1.0871919 -0.09059933 0.2989778
-0.4711165 -0.61607546 -0.54359597 -0.1630788 0.35333738 -0.2174384 0.11777913 0.35333738
-0.099659264 0.5798357 0.54359597 -0.2536781 -0.0543596 -0.099659264 0.0543596 -0.17213872
0.4439367 -0.11777913 -0.5073562 -0.34427744 -0.69761485 0.39863706 -0.31709766 -0.19025859
00000000: b3a4 d0a7 b3a4 aaa4 7fd5 f01b 2064 4248
00000010: 37ac b7f1 1e35 0525 cc98 1419 d3bb e1a5
00000020: e434 5422 ecf6 2af3 dc42 152b ecea f0de
00000030: 70cb d4f4 2c55 1543 edd1 d8f1 5cf8 2516
00000040: f9f2 db6e 49ff ed09 e0f5 edfb 4d01 ebfb
00000050: df47 4a33 1cf9 1df9 f422 4426 22fe f109
00000060: 47fb f704 f688 f621 ccbc c4ee 27e8 0d27
00000070: f540 3ce4 faf5 06ed 31f3 c8da b32c ddeb

sequential_1/dense_3/MatMul i1 [8, 528] scale=0.004746799 zero_point=0
-0.061708387 0.11392318 0.052214786 -0.05696159 -0.052214786 -0.17088476 0.11392318 0.0
-0.028480794 -0.07120198 0.04272119 0.07120198 0.14240396 -0.066455185 -0.20411235 -0.07120198
-0.07120198 -0.033227593 -0.009493598 0.047467988 0.023733994 -0.052214786 0.004746799 0.05696159
0.04272119 -0.028480794 -0.13291037 0.08544238 0.009493598 -0.004746799 0.047467988 0.03797439
0.3512631 -0.14715077 0.0 0.22784635 -0.018987196 0.11392318 -0.3749971 -0.03797439
-0.05696159 -0.11866997 -0.07594878 -0.26582074 -0.04272119 0.19936556 0.080695584 -0.09968278
-0.15189756 0.14240396 0.12816358 -0.09968278 0.13291037 -0.07120198 0.17088476 0.13291037
0.094935976 0.004746799 0.047467988 -0.052214786 0.123416774 -0.123416774 -0.04272119 -0.15664436
0.26107395 -0.109176375 -0.12816358 -0.047467988 -0.07120198 0.009493598 -0.03797439 -0.09018918
-0.09018918 0.03797439 -0.11392318 0.11392318 -0.09968278 -0.094935976 0.04272119 -0.04272119
0.16613796 -0.109176375 -0.047467988 0.109176375 0.23259315 0.4984139 -0.047467988 -0.09968278
-0.094935976 0.14715077 0.15189756 0.07594878 -0.061708387 0.11392318 0.123416774 -0.018987196
-0.32278234 0.05696159 0.028480794 -0.066455185 0.07594878 -0.094935976 0.109176375 0.07120198
0.13765717 -0.080695584 0.12816358 0.094935976 0.123416774 -0.17088476 -0.11866997 0.061708387
0.09968278 0.004746799 -0.21360596 -0.066455185 -0.018987196 -0.14715077 0.18512516 -0.18512516
-0.07594878 0.05696159 -0.4034779 -0.13291037 -0.23259315 -0.21360596 0.033227593 -0.09018918
0.080695584 -0.066455185 -0.033227593 -0.023733994 -0.30379513 0.32278234 -0.04272119 -0.19461876
-0.15189756 0.04272119 0.14240396 0.27056754 -0.22784635 -0.22784635 0.18987195 -0.04272119
-0.28480792 0.19936556 -0.07594878 -0.19936556 -0.052214786 -0.16613796 0.28480792 -0.09018918
0.07120198 -0.07120198 0.18037836 -0.066455185 0.18512516 0.018987196 -0.094935976 0.033227593
0.29430154 0.15189756 -0.12816358 0.11866997 0.014240397 -0.23259315 -0.061708387 -0.109176375
-0.014240397 -0.17088476 -0.23733994 0.07120198 -0.13765717 -0.11866997 -0.004746799 0.009493598
0.10442957 0.15664436 -0.13291037 0.12816358 -0.09968278 0.26107395 0.033227593 0.028480794
0.18512516 -0.009493598 0.26107395 -0.094935976 0.004746799 -0.29904833 0.28480792 -0.066455185
-0.14240396 0.18037836 -0.10442957 -0.20411235 0.009493598 -0.33702272 -0.014240397 -0.080695584
0.018987196 -0.052214786 0.109176375 -0.07594878 0.24683355 -0.009493598 -0.17563155 0.09018918
0.19936556 0.052214786 -0.13765717 0.033227593 -0.03797439 0.05696159 0.16613796 -0.004746799
-0.09018918 0.004746799 -0.24208674 -0.028480794 -0.13291037 -0.028480794 -0.23259315 -0.21360596
0.12816358 0.23259315 0.052214786 0.26107395 -0.13765717 0.21360596 0.004746799 -0.052214786
-0.07594878 0.109176375 0.19936556 0.08544238 0.004746799 -0.04272119 0.60284346 -0.20411235
-0.23259315 0.18987195 -0.03797439 -0.15189756 0.109176375 -0.123416774 -0.10442957 -0.04272119
0.07120198 -0.22784635 0.04272119 0.028480794 0.20411235 -0.004746799 -0.09968278 0.004746799
00000000: f318 0bf4 f5dc 1800 faf1 090f 1ef2 d5f1
00000010: f1f9 fe0a 05f5 010c 09fa e412 02ff 0a08
00000020: 4ae1 0030 fc18 b1f8 f4e7 f0c8 f72a 11eb
00000030: e01e 1beb 1cf1 241c 1401 0af5 1ae6 f7df
00000040: 37e9 e5f6 f102 f8ed ed08 e818 ebec 09f7
00000050: 23e9 f617 3169 f6eb ec1f 2010 f318 1afc
00000060: bc0c 06f2 10ec 170f 1def 1b14 1adc e70d
00000070: 1501 d3f2 fce1 27d9 f00c abe4 cfd3 07ed
00000080: 11f2 f9fb c044 f7d7 e009 1e39 d0d0 28f7
00000090: c42a f0d6 f5dd 3ced 0ff1 26f2 2704 ec07
000000a0: 3e20 e519 03cf f3e9 fddc ce0f e3e7 ff02
000000b0: 1621 e41b eb37 0706 27fe 37ec 01c1 3cf2
000000c0: e226 ead5 02b9 fdef 04f5 17f0 34fe db13
000000d0: 2a0b e307 f80c 23ff ed01 cdfa e4fa cfd3
000000e0: 1b31 0b37 e32d 01f5 f017 2a12 01f7 7fd5
000000f0: cf28 f8e0 17e6 eaf7 0fd0 0906 2bff eb01

sequential_1/conv2d_3/Conv2D i1 [16, 3, 3, 32]
-6 29 -77 -13 -23 -76 41 68
-27 72 35 -5 -29 -10 -16 -20
-50 -13 -12 39 -47 -10 -35 0
31 4 88 -1 38 17 -25 16
7 25 60 32 9 -42 -5 18
-9 4 -26 -36 -32 -47 95 -29
37 11 -1 37 33 16 -17 -55
-1 -46 -33 55 -41 47 -42 -58
0 -34 34 14 18 5 -24 21
-47 -2 -21 4 10 -26 3 44
-72 -18 -8 18 -26 -15 -33 -9
28 -34 40 -10 -32 -4 -44 -21
-91 -11 16 -24 -71 17 -17 -28
55 7 20 -17 6 41 33 10
-32 -7 -17 63 -37 10 62 -4
-32 33 -35 45 41 -9 5 -3
3 2 19 11 6 -51 -20 59
-83 -30 13 3 -40 -33 74 -16
4 28 14 31 -9 -19 13 28
-14 -64 -43 33 -59 -24 -41 -43
-49 -8 86 18 43 51 -60 81
-26 75 6 -2 5 -26 68 -26
-17 -25 -61 59 -34 -57 30 -18
1 3 -31 64 53 0 -4 -17
16 3 44 -11 -27 -21 -62 -68
52 -55 -24 -28 -20 52 -48 22
45 2 37 -7 10 2 16 -25
-42 -58 -54 -8 8 -33 5 56
-51 -22 -127 -28 -76 52 -7 43
-49 -80 46 61 46 58 -18 41
-103 2 -20 41 -73 -51 -4 35
29 -12 -36 -13 34 -33 -47 42
00000000: fa1d b3f3 e9b4 2944 e548 23fb e3f6 f0ec
00000010: cef3 f427 d1f6 dd00 1f04 58ff 2611 e710
00000020: 0719 3c20 09d6 fb12 f704 e6dc e0d1 5fe3
00000030: 250b ff25 2110 efc9 ffd2 df37 d72f d6c6
00000040: 00de 220e 1205 e815 d1fe eb04 0ae6 032c
00000050: b8ee f812 e6f1 dff7 1cde 28f6 e0fc d4eb
00000060: a5f5 10e8 b911 efe4 3707 14ef 0629 210a
00000070: e0f9 ef3f db0a 3efc e021 dd2d 29f7 05fd
00000080: 0302 130b 06cd ec3b ade2 0d03 d8df 4af0
00000090: 041c 0e1f f7ed 0d1c f2c0 d521 c5e8 d7d5
000000a0: cff8 5612 2b33 c451 e64b 06fe 05e6 44e6
000000b0: efe7 c33b dec7 1eee 0103 e140 3500 fcef
000000c0: 1003 2cf5 e5eb c2bc 34c9 e8e4 ec34 d016
000000d0: 2d02 25f9 0a02 10e7 d6c6 caf8 08df 0538
000000e0: cdea 81e4 b434 f92b cfb0 2e3d 2e3a ee29
000000f0: 9902 ec29 b7cd fc23 1df4 dcf3 22df d12a

sequential_1/conv2d_2/Conv2D i1 [32, 3, 3, 1]
-109 -83 -11 -61 -124 -127 116 29
34 -41 -94 84 -127 29 82 -50
28 -60 -52 127 -55 -23 -22 10
15 -112 40 -5 5 127 -12 -102
88 86 -58 -7 11 -104 -103 -41
115 127 14 -45 -40 -127 33 -62
19 58 34 -61 70 40 -12 25
-10 39 40 127 44 78 66 -68
-12 127 51 20 16 62 24 -126
14 51 -127 -4 -31 -15 42 -117
32 -28 59 51 23 -25 127 -27
-87 93 -110 -27 -27 36 -6 -34
81 127 -79 -7 18 -50 68 60
-68 127 69 -36 63 -71 84 42
13 44 -14 -37 -127 -94 67 -90
6 87 -85 29 94 -127 113 -116
41 19 57 -31 -124 78 -127 80
37 -127 30 -82 55 -6 4 26
-66 -25 52 -127 -53 -26 -33 -37
-105 25 -37 117 64 -116 8 88
-127 -81 70 28 10 89 -121 -77
-113 -127 32 66 -127 61 5 36
-10 -59 119 17 15 -21 42 -83
-102 -52 -46 -127 -55 47 -72 56
51 -112 48 -68 -72 127 -79 106
24 -127 63 -54 -79 54 -105 127
5 38 115 -109 -15 47 -7 -90
3 92 127 97 -85 101 76 11
-70 -48 102 127 -34 84 30 0
110 -95 108 101 58 72 65 56
-23 -18 127 -127 68 0 -28 -15
106 5 -97 57 105 127 49 -116
00000000: 93ad f5c3 8481 741d 22d7 a254 811d 52ce
00000010: 1cc4 cc7f c9e9 ea0a 0f90 28fb 057f f49a
00000020: 5856 c6f9 0b98 99d7 737f 0ed3 d881 21c2
00000030: 133a 22c3 4628 f419 f627 287f 2c4e 42bc
00000040: f47f 3314 103e 1882 0e33 81fc e1f1 2a8b
00000050: 20e4 3b33 17e7 7fe5 a95d 92e5 e524 fade
00000060: 517f b1f9 12ce 443c bc7f 45dc 3fb9 542a
00000070: 0d2c f2db 81a2 43a6 0657 ab1d 5e81 718c
00000080: 2913 39e1 844e 8150 2581 1eae 37fa 041a
00000090: bee7 3481 cbe6 dfdb 9719 db75 408c 0858
000000a0: 81af 461c 0a59 87b3 8f81 2042 813d 0524
000000b0: f6c5 7711 0feb 2aad 9acc d281 c92f b838
000000c0: 3390 30bc b87f b16a 1881 3fca b136 977f
000000d0: 0526 7393 f12f f9a6 035c 7f61 ab65 4c0b
000000e0: bad0 667f de54 1e00 6ea1 6c65 3a48 4138
000000f0: e9ee 7f81 4400 e4f1 6a05 9f39 697f 318c
