neural_network/models/quant_model.tflite (tflite, 16312 bytes, 4 tensors)

sequential_4/dense_9/MatMul i1 [6, 8] scale=0.013899536 zero_point=0
-1.4316522 -1.4594513 0.76447445 -1.348255 -1.1536615 -1.765241 0.55598146 -1.4038532
0.23629211 -0.41698608 -0.31968933 -0.06949768 0.40308654 -0.11119629 0.40308654 -0.3057898
-1.2092596 -0.76447445 -0.389187 0.3474884 0.47258422 -0.94516844 -0.7922735 0.56988096
0.2640912 0.20849304 -0.12509583 -0.778374 -0.36138794 0.027799072 -0.6949768 -0.29189026
-0.31968933 0.1528949 0.5003833 0.33358887 0.33358887 -0.06949768 -0.47258422 0.4308856
-0.9729675 -1.0841638 -0.66717774 0.45868468 -0.41698608 -1.0841638 0.41698608 -0.63937867
00000000: 9997 379f ad81 289b 11e2 e9fb 1df8 1dea
00000010: a9c9 e419 22bc c729 130f f7c8 e602 ceeb
00000020: e90b 2418 18fb de1f bab2 d021 e2b2 1ed2

sequential_4/dense_8/MatMul i1 [8, 704] scale=0.0053052423 zero_point=0
0.084883876 -0.0106104845 0.0106104845 -0.12202057 -0.037136696 0.084883876 0.06366291 0.058357663
-0.1644625 -0.12732582 0.100799605 0.21751493 -0.19629396 -0.18568347 0.06896815 0.04774718
0.13263106 -0.04774718 0.042441938 0.25995687 -0.1379363 -0.11671533 -0.100799605 -0.2758726
-0.04774718 0.021220969 0.21220969 -0.031831454 -0.100799605 0.24404114 -0.27056736 0.09549436
0.18037824 0.031831454 -0.28117785 -0.06896815 -0.22812542 0.021220969 0.10610484 -0.02652621
0.0106104845 -0.06366291 -0.084883876 -0.100799605 0.015915727 0.02652621 0.015915727 0.20690444
0.058357663 0.10610484 0.06366291 -0.28117785 0.084883876 -0.22282018 0.015915727 -0.015915727
0.26526213 -0.058357663 -0.31831452 0.32361978 -0.28117785 0.13263106 0.0 -0.06366291
-0.042441938 -0.24404114 -0.05305242 -0.09549436 0.25465164 -0.1644625 0.0 0.084883876
-0.22282018 0.06896815 0.11671533 0.021220969 0.07427339 0.09549436 -0.0053052423 -0.037136696
-0.06896815 0.04774718 -0.07427339 0.19629396 -0.09018912 -0.18568347 0.02652621 -0.02652621
0.11141009 0.25465164 0.2387359 0.021220969 -0.1379363 0.0053052423 -0.18568347 0.16976775
0.16976775 -0.38197744 0.3130093 0.12732582 0.100799605 -0.015915727 0.037136696 0.20159921
0.0 -0.11141009 -0.13263106 -0.100799605 0.40850365 0.021220969 -0.09549436 -0.24404114
-0.06896815 -0.22282018 -0.14854679 -0.04774718 0.09549436 0.18568347 -0.06896815 -0.23343065
0.25465164 -0.07957863 -0.23343065 0.22812542 -0.07957863 0.10610484 -0.07427339 -0.11671533
-0.02652621 -0.20159921 0.031831454 -0.084883876 0.21751493 -0.18037824 0.06896815 0.28117785
-0.14324154 0.058357663 0.058357663 -0.0053052423 -0.037136696 -0.11671533 0.015915727 0.04774718
-0.021220969 0.031831454 -0.12732582 0.10610484 -0.0106104845 -0.16976775 0.04774718 -0.0053052423
0.12202057 0.41911414 -0.11141009 0.02652621 -0.21220969 0.100799605 -0.3023988 0.07427339
0.015915727 -0.1379363 0.05305242 -0.084883876 0.20159921 0.0 -0.042441938 0.031831454
0.037136696 0.015915727 0.07427339 0.06896815 0.3023988 0.100799605 -0.15915726 -0.07957863
0.23343065 -0.22282018 -0.28117785 0.05305242 0.14324154 0.12202057 0.06896815 -0.02652621
0.49338752 -0.1379363 -0.5517452 -0.07957863 0.084883876 0.0 0.24934639 0.14324154
-0.28648308 -0.23343065 0.07427339 -0.11141009 0.13263106 -0.0106104845 -0.015915727 0.20159921
-0.20159921 -0.0106104845 0.031831454 0.09018912 0.06896815 -0.1644625 0.02652621 -0.015915727
-0.23343065 -0.042441938 -0.042441938 0.23343065 -0.25465164 -0.11671533 -0.04774718 -0.1644625
0.05305242 0.35545123 0.26526213 -0.18037824 -0.24404114 -0.037136696 -0.29709357 -0.0106104845
-0.031831454 -0.25465164 0.06896815 -0.05305242 0.1379363 0.084883876 0.05305242 0.23343065
0.05305242 0.19629396 -0.06366291 -0.084883876 0.07957863 0.06896815 0.0053052423 -0.26526213
0.350146 -0.11671533 -0.22812542 0.3023988 0.14324154 -0.031831454 -0.12202057 0.07957863
0.36606172 0.24404114 -0.042441938 0.0 0.037136696 0.2917883 0.02652621 0.39258793
00000000: 10fe 02e9 f910 0c0b e1e8 1329 dbdd 0d09
00000010: 19f7 0831 e6ea edcc f704 28fa ed2e cd12
00000020: 2206 cbf3 d504 14fb 02f4 f0ed 0305 0327
00000030: 0b14 0ccb 10d6 03fd 32f5 c43d cb19 00f4
00000040: f8d2 f6ee 30e1 0010 d60d 1604 0e12 fff9
00000050: f309 f225 efdd 05fb 1530 2d04 e601 dd20
00000060: 20b8 3b18 13fd 0726 00eb e7ed 4d04 eed2
00000070: f3d6 e4f7 1223 f3d4 30f1 d42b f114 f2ea
00000080: fbda 06f0 29de 0d35 e50b 0bff f9ea 0309
00000090: fc06 e814 fee0 09ff 174f eb05 d813 c70e
000000a0: 03e6 0af0 2600 f806 0703 0e0d 3913 e2f1
000000b0: 2cd6 cb0a 1b17 0dfb 5de6 98f1 1000 2f1b
000000c0: cad4 0eeb 19fe fd26 dafe 0611 0de1 05fd
000000d0: d4f8 f82c d0ea f7e1 0a43 32de d2f9 c8fe
000000e0: fad0 0df6 1a10 0a2c 0a25 f4f0 0f0d 01ce
000000f0: 42ea d539 1bfa e90f 452e f800 0737 054a

sequential_4/conv2d_9/Conv2D i1 [16, 3, 3, 32]
-33 -25 1 -37 -86 -45 -36 0
-35 32 -12 12 13 -121 -28 -80
-55 -15 39 -25 -37 -22 -28 44
70 -100 -72 52 21 -56 -21 -35
-33 -30 -11 13 -15 -16 -38 -15
37 3 -11 5 21 -14 35 6
-12 9 7 34 -26 -27 5 58
10 -12 -6 36 1 -19 19 -27
41 -7 -27 41 10 75 121 45
-12 -13 -35 -74 48 17 9 -36
80 7 11 4 3 21 34 -20
-52 53 -46 70 2 -4 3 18
-8 -1 -24 -23 -101 -27 33 16
-30 30 5 -10 -9 -82 28 -102
13 -46 63 -56 -44 11 28 -3
93 -53 -42 22 26 -60 10 -45
-15 26 15 -29 -20 -32 -72 -37
-18 -3 -18 4 24 34 7 -37
-43 2 -73 3 -3 -58 -7 -21
11 -26 -5 12 -16 3 -15 29
40 -58 30 28 -10 50 89 29
67 40 32 -21 -18 -89 -24 -53
71 5 6 53 22 4 -13 46
-39 -32 -34 -17 53 -16 27 -2
21 -23 5 7 -52 -5 18 -28
-13 31 40 -5 -37 -45 -33 -57
-26 -44 -35 -31 -26 -6 -10 2
12 -3 -87 4 -25 -48 22 -21
-29 14 -34 -60 -28 -18 -87 -28
22 33 -39 11 24 11 38 16
-127 6 -81 -2 11 -3 -6 -7
17 -64 16 -10 -17 23 -51 -3
00000000: dfe7 01db aad3 dc00 dd20 f40c 0d87 e4b0
00000010: c9f1 27e7 dbea e42c 469c b834 15c8 ebdd
00000020: dfe2 f50d f1f0 daf1 2503 f505 15f2 2306
00000030: f409 0722 e6e5 053a 0af4 fa24 01ed 13e5
00000040: 29f9 e529 0a4b 792d f4f3 ddb6 3011 09dc
00000050: 5007 0b04 0315 22ec cc35 d246 02fc 0312
00000060: f8ff e8e9 9be5 2110 e21e 05f6 f7ae 1c9a
00000070: 0dd2 3fc8 d40b 1cfd 5dcb d616 1ac4 0ad3
00000080: f11a 0fe3 ece0 b8db eefd ee04 1822 07db
00000090: d502 b703 fdc6 f9eb 0be6 fb0c f003 f11d
000000a0: 28c6 1e1c f632 591d 4328 20eb eea7 e8cb
000000b0: 4705 0635 1604 f32e d9e0 deef 35f0 1bfe
000000c0: 15e9 0507 ccfb 12e4 f31f 28fb dbd3 dfc7
000000d0: e6d4 dde1 e6fa f602 0cfd a904 e7d0 16eb
000000e0: e30e dec4 e4ee a9e4 1621 d90b 180b 2610
000000f0: 8106 affe 0bfd faf9 11c0 10f6 ef17 cdfd

sequential_4/conv2d_8/Conv2D i1 [32, 3, 3, 1]
68 -26 -127 -8 25 21 -46 20
105 92 -20 -115 27 -40 -4 -37
-43 127 19 127 77 -68 -29 41
-23 -125 -66 91 63 -15 1 103
22 -127 -96 -35 -127 -21 -64 6
67 38 69 -60 107 49 70 7
-63 78 36 -86 64 127 121 -127
-60 -4 63 13 -95 112 -37 -58
-127 72 -15 79 -89 51 89 -57
66 114 -127 58 53 -101 -86 -2
-46 58 13 -127 8 31 52 39
38 127 -21 13 36 1 127 23
56 7 69 -33 -7 -11 -47 -70
-127 24 -14 -13 -9 -76 68 -1
-19 -38 73 66 -127 127 -19 -29
-3 -67 63 -117 -19 5 45 45
-127 61 -48 -110 28 -35 13 -61
-110 7 -37 4 40 57 127 41
83 -127 60 2 62 -95 -113 64
-75 73 -97 87 -25 20 127 27
-32 99 -127 44 -11 25 -18 -1
60 -17 -26 -11 52 79 -45 -39
127 34 -45 35 -81 -52 52 -33
-52 -20 33 127 20 35 36 65
49 70 127 -38 -3 6 102 30
-127 13 -65 -49 -98 -19 104 -46
86 121 59 -23 26 69 -28 -127
-99 -15 -92 8 -18 -127 54 -21
-108 111 -44 64 -5 -31 -3 -127
32 -85 7 -84 -57 -32 19 49
29 28 127 -61 -25 94 50 -20
-37 85 60 -127 -38 90 -126 -27
00000000: 44e6 81f8 1915 d214 695c ec8d 1bd8 fcdb
00000010: d57f 137f 4dbc e329 e983 be5b 3ff1 0167
00000020: 1681 a0dd 81eb c006 4326 45c4 6b31 4607
00000030: c14e 24aa 407f 7981 c4fc 3f0d a170 dbc6
00000040: 8148 f14f a733 59c7 4272 813a 359b aafe
00000050: d23a 0d81 081f 3427 267f eb0d 2401 7f17
00000060: 3807 45df f9f5 d1ba 8118 f2f3 f7b4 44ff
00000070: edda 4942 817f ede3 fdbd 3f8b ed05 2d2d
00000080: 813d d092 1cdd 0dc3 9207 db04 2839 7f29
00000090: 5381 3c02 3ea1 8f40 b549 9f57 e714 7f1b
000000a0: e063 812c f519 eeff 3cef e6f5 344f d3d9
000000b0: 7f22 d323 afcc 34df ccec 217f 1423 2441
000000c0: 3146 7fda fd06 661e 810d bfcf 9eed 68d2
000000d0: 5679 3be9 1a45 e481 9df1 a408 ee81 36eb
000000e0: 946f d440 fbe1 fd81 20ab 07ac c7e0 1331
000000f0: 1d1c 7fc3 e75e 32ec db55 3c81 da5a 82e5
