neural_network/models/quant_model.tflite (tflite, 15576 bytes, 5 tensors)

sequential/dense_2/MatMul i1 [6, 16] scale=0.023718515 zero_point=0
00000000: cced d5ea c80c 0c81 9e94 0891 8606 1ae7
00000010: 0417 1116 e4d2 dafe ec16 010f eb07 dce7
00000020: 0ff0 0ce2 0b04 07fd 0eef fc0e 12e3 110c
00000030: e614 d30b 09df 00fe 0d17 d90f 11e6 ed05
00000040: 1116 0915 06e2 e0f8 0b03 0109 0f07 0cd9
00000050: edf1 0ff8 0404 07f1 fadc dd02 00de 110b
-1.2333628 -0.4506518 -1.0198961 -0.5218073 -1.3282368 0.2846222 0.2846222 -3.0122514
-2.3244145 -2.5615997 0.18974812 -2.6327553 -2.8936589 0.1423111 0.6166814 -0.59296286
0.09487406 0.54552585 0.40321475 0.5218073 -0.6641184 -1.0910517 -0.9013036 -0.04743703
-0.4743703 0.5218073 0.023718515 0.35577774 -0.49808884 0.1660296 -0.8538666 -0.59296286
0.35577774 -0.37949625 0.2846222 -0.7115555 0.26090366 0.09487406 0.1660296 -0.07115555
0.3320592 -0.40321475 -0.09487406 0.3320592 0.4269333 -0.68783695 0.40321475 0.2846222
-0.6166814 0.4743703 -1.0673332 0.26090366 0.21346664 -0.782711 0.0 -0.04743703
0.3083407 0.54552585 -0.9250221 0.35577774 0.40321475 -0.6166814 -0.4506518 0.118592575
0.40321475 0.5218073 0.21346664 0.49808884 0.1423111 -0.7115555 -0.7589925 -0.18974812
0.26090366 0.07115555 0.023718515 0.21346664 0.35577774 0.1660296 0.2846222 -0.9250221
-0.4506518 -0.35577774 0.35577774 -0.18974812 0.09487406 0.09487406 0.1660296 -0.35577774
-0.1423111 -0.8538666 -0.83014804 0.04743703 0.0 -0.8064295 0.40321475 0.26090366

sequential/dense_1/MatMul i1 [16, 8] scale=0.018762099 zero_point=0
00000000: fafd e80d e3f1 1ffc 02c3 e610 19eb fd22
00000010: 0015 f1eb f9f3 ec24 03be e515 07e9 ff3a
00000020: 2206 deca fedc 1200 0119 76ff e067 04cb
00000030: 081c 7ff7 0179 fee7 3502 e3f4 4ee7 070f
00000040: 3002 f005 f7ea 1afe 04df fdfc 1ce3 e406
00000050: fbff 6217 ff60 1411 3201 dbf7 4fe3 0d10
00000060: 2bf8 defb 00e8 19ff f200 161c ff16 011e
00000070: ff17 7702 e06d 12ff 0713 d9a9 03e9 00cd
-0.112572595 -0.056286298 -0.45029038 0.24390729 -0.5441009 -0.28143147 0.58162504 -0.075048395
0.037524197 -1.144488 -0.48781458 0.30019358 0.46905246 -0.39400408 -0.056286298 0.6379114
0.0 0.39400408 -0.28143147 -0.39400408 -0.13133469 -0.24390729 -0.37524197 0.67543554
0.056286298 -1.2382985 -0.50657666 0.39400408 0.13133469 -0.43152827 -0.018762099 1.0882018
0.6379114 0.112572595 -0.6379114 -1.0131533 -0.037524197 -0.67543554 0.33771777 0.0
0.018762099 0.46905246 2.2139277 -0.018762099 -0.60038716 1.9324962 0.075048395 -0.9943912
0.15009679 0.52533877 2.3827865 -0.16885889 0.018762099 2.2702138 -0.037524197 -0.46905246
0.9943912 0.037524197 -0.5441009 -0.22514519 1.4634436 -0.46905246 0.13133469 0.28143147
0.90058076 0.037524197 -0.30019358 0.09381049 -0.16885889 -0.41276616 0.48781458 -0.037524197
0.075048395 -0.61914927 -0.056286298 -0.075048395 0.52533877 -0.5441009 -0.52533877 0.112572595
-0.09381049 -0.018762099 1.8386856 0.43152827 -0.018762099 1.8011615 0.37524197 0.3189557
0.9381049 0.018762099 -0.69419765 -0.16885889 1.4822057 -0.5441009 0.24390729 0.30019358
0.80677027 -0.15009679 -0.6379114 -0.09381049 0.0 -0.45029038 0.46905246 -0.018762099
-0.26266938 0.0 0.41276616 0.52533877 -0.018762099 0.41276616 0.018762099 0.56286293
-0.018762099 0.43152827 2.2326896 0.037524197 -0.60038716 2.0450687 0.33771777 -0.018762099
0.13133469 0.35647988 -0.7317218 -1.6323025 0.056286298 -0.43152827 0.0 -0.95686704

sequential/dense/MatMul i1 [8, 528] scale=0.007870485 zero_point=0
00000000: f5e4 fad5 0601 0415 060f fc07 00f6 0611
00000010: f3e2 0af1 0506 1217 09f6 0922 fd0a 0045
00000020: fdd5 01dd 19f9 ea10 81f3 1a10 1df8 13e8
00000030: ed16 0fc8 0306 0c1e 0300 f500 e50f fee7
00000040: dfca fb00 25fa 24dc 41d5 060a fbfa bff2
00000050: 27f4 0314 fc02 8f18 e506 f906 fbc8 200e
00000060: dd27 f9da f1ef 0c12 0203 ea1d ec2b 07e5
00000070: f6da e901 1ff1 1df5 33eb 0500 0cf2 a2e8
00000080: f338 11f0 11ef 9e05 0cf4 e7c2 ffeb 07df
00000090: db29 0bcc f5f5 112f 180b 0003 ef0d 08e3
000000a0: e4e6 f6e9 18e9 3910 15f4 df11 ff01 cf07
000000b0: df03 f7e3 fcf9 ce0f feed 0be8 0fd8 1800
000000c0: 0433 08d8 f7f8 171f 0612 f70b de10 10df
000000d0: 06f8 faf3 0bf7 35ee 18f0 17f9 27ea ca02
000000e0: df12 0408 21ef cdff 0aef f6cd 13e7 1319
000000f0: fa31 0dde f3d6 1717 0811 f300 f311 f0d5
-0.08657534 -0.22037359 -0.047222912 -0.33843085 0.047222912 0.007870485 0.03148194 0.1652802
0.047222912 0.11805727 -0.03148194 0.055093396 0.0 -0.07870485 0.047222912 0.13379824
-0.102316305 -0.23611455 0.07870485 -0.11805727 0.039352424 0.047222912 0.14166874 0.18102115
0.07083437 -0.07870485 0.07083437 0.26759648 -0.023611456 0.07870485 0.0 0.54306346
-0.023611456 -0.33843085 0.007870485 -0.27546698 0.19676213 -0.055093396 -0.17315067 0.12592776
-0.9995516 -0.102316305 0.20463261 0.12592776 0.22824407 -0.06296388 0.14953922 -0.18889165
-0.14953922 0.17315067 0.11805727 -0.44074717 0.023611456 0.047222912 0.094445825 0.23611455
0.023611456 0.0 -0.08657534 0.0 -0.21250309 0.11805727 -0.01574097 -0.19676213
-0.25972602 -0.42500618 -0.039352424 0.0 0.29120794 -0.047222912 0.28333747 -0.28333747
0.51158154 -0.33843085 0.047222912 0.07870485 -0.039352424 -0.047222912 -0.51158154 -0.11018679
0.30694893 -0.094445825 0.023611456 0.1574097 -0.03148194 0.01574097 -0.88936484 0.18889165
-0.21250309 0.047222912 -0.055093396 0.047222912 -0.039352424 -0.44074717 0.25185552 0.11018679
-0.27546698 0.30694893 -0.055093396 -0.29907843 -0.11805727 -0.13379824 0.094445825 0.14166874
0.01574097 0.023611456 -0.17315067 0.22824407 -0.1574097 0.33843085 0.055093396 -0.21250309
-0.07870485 -0.29907843 -0.18102115 0.007870485 0.24398504 -0.11805727 0.22824407 -0.08657534
0.40139472 -0.1652802 0.039352424 0.0 0.094445825 -0.11018679 -0.7398256 -0.18889165
-0.102316305 0.44074717 0.13379824 -0.12592776 0.13379824 -0.13379824 -0.7713075 0.039352424
0.094445825 -0.094445825 -0.19676213 -0.48797008 -0.007870485 -0.1652802 0.055093396 -0.25972602
-0.29120794 0.3226899 0.08657534 -0.40926522 -0.08657534 -0.08657534 0.13379824 0.3699128
0.18889165 0.08657534 0.0 0.023611456 -0.13379824 0.102316305 0.06296388 -0.22824407
-0.22037359 -0.20463261 -0.07870485 -0.18102115 0.18889165 -0.18102115 0.44861764 0.12592776
0.1652802 -0.094445825 -0.25972602 0.13379824 -0.007870485 0.007870485 -0.38565376 0.055093396
-0.25972602 0.023611456 -0.07083437 -0.22824407 -0.03148194 -0.055093396 -0.39352426 0.11805727
-0.01574097 -0.14953922 0.08657534 -0.18889165 0.11805727 -0.3148194 0.18889165 0.0
0.03148194 0.40139472 0.06296388 -0.3148194 -0.07083437 -0.06296388 0.18102115 0.24398504
0.047222912 0.14166874 -0.07083437 0.08657534 -0.26759648 0.12592776 0.12592776 -0.25972602
0.047222912 -0.06296388 -0.047222912 -0.102316305 0.08657534 -0.07083437 0.41713572 -0.14166874
0.18889165 -0.12592776 0.18102115 -0.055093396 0.30694893 -0.17315067 -0.42500618 0.01574097
-0.25972602 0.14166874 0.03148194 0.06296388 0.25972602 -0.13379824 -0.40139472 -0.007870485
0.07870485 -0.13379824 -0.07870485 -0.40139472 0.14953922 -0.19676213 0.14953922 0.19676213
-0.047222912 0.38565376 0.102316305 -0.26759648 -0.102316305 -0.3305604 0.18102115 0.18102115
0.06296388 0.13379824 -0.102316305 0.0 -0.102316305 0.13379824 -0.12592776 -0.33843085

sequential/conv2d_1/Conv2D i1 [16, 3, 3, 32]
00000000: f01b 1c05 b1e7 de35 15e6 f2c0 fbe4 def6
00000010: 0a00 ef11 ec44 e230 4eee 24d4 110c 111e
00000020: fa06 0723 d312 d7fb e814 bf22 0e13 fef6
00000030: ef27 e8f4 da04 f124 23ff ffa5 0f9a ffff
00000040: ef23 1f0b bde4 e30b 13e7 b80c 2502 f6e3
00000050: fc0d f5fc f110 d4c4 0f0b 090a 14fb 21e0
00000060: f009 07ee e125 f40f 35fc e0d1 43e5 fd32
00000070: 0dde 240e faec dffb 00da 0fcb 031b 1a4a
00000080: ebf4 dfe1 fd20 f81a ecf5 0322 31e9 0e24
00000090: ecf6 101e fce1 01fa f4fa e2de d81a 0e28
000000a0: fbda f6e8 0ff5 d9cf ef28 db13 1a10 0215
000000b0: fafe f8ed 29e9 cdf5 eed8 f105 10f8 191e
000000c0: cdc7 ded8 fcd7 47a2 0f22 ea0d 1c27 1615
000000d0: 020c 18e5 2dd7 0309 e70c ab3f e214 2bbd
000000e0: ffd3 05ce 1206 090b 0903 f60a ff0b 0f0c
000000f0: f9d5 210a 19d0 0eee fa15 d1e4 e3bb e8eb
-16 27 28 5 -79 -25 -34 53
21 -26 -14 -64 -5 -28 -34 -10
10 0 -17 17 -20 68 -30 48
78 -18 36 -44 17 12 17 30
-6 6 7 35 -45 18 -41 -5
-24 20 -65 34 14 19 -2 -10
-17 39 -24 -12 -38 4 -15 36
35 -1 -1 -91 15 -102 -1 -1
-17 35 31 11 -67 -28 -29 11
19 -25 -72 12 37 2 -10 -29
-4 13 -11 -4 -15 16 -44 -60
15 11 9 10 20 -5 33 -32
-16 9 7 -18 -31 37 -12 15
53 -4 -32 -47 67 -27 -3 50
13 -34 36 14 -6 -20 -33 -5
0 -38 15 -53 3 27 26 74
-21 -12 -33 -31 -3 32 -8 26
-20 -11 3 34 49 -23 14 36
-20 -10 16 30 -4 -31 1 -6
-12 -6 -30 -34 -40 26 14 40
-5 -38 -10 -24 15 -11 -39 -49
-17 40 -37 19 26 16 2 21
-6 -2 -8 -19 41 -23 -51 -11
-18 -40 -15 5 16 -8 25 30
-51 -57 -34 -40 -4 -41 71 -94
15 34 -22 13 28 39 22 21
2 12 24 -27 45 -41 3 9
-25 12 -85 63 -30 20 43 -67
-1 -45 5 -50 18 6 9 11
9 3 -10 10 -1 11 15 12
-7 -43 33 10 25 -48 14 -18
-6 21 -47 -28 -29 -69 -24 -21

sequential/conv2d/Conv2D i1 [32, 3, 3, 1]
00000000: 1116 49ae f653 27b1 81cf 4a1a 23d7 7f1c
00000010: 93ef f9f6 81ea c5d8 dbf4 12a3 30ca d89c
00000020: 27f8 8981 50e2 a040 16cf 8148 4568 aa0a
00000030: f7c3 81c2 37eb 0f1c 6240 ff7f 22fb d7f0
00000040: 0330 04d7 7fbc cd1b 782f 7ff3 c997 aeda
00000050: bb5b 3a81 0efa 8530 c59f 9215 7f14 cc1a
00000060: 224e 8c41 8114 350c 203e 3f7c 3da2 0329
00000070: 4b6a 90e5 8113 fc81 e858 b9a4 38f9 0989
00000080: ab1b 517f 1539 31f3 6137 bfa8 2b6e fd7f
00000090: ee04 cc59 597f bb9f c25d 8164 3ea6 23f8
000000a0: ba24 9c81 c2dd 1745 7764 fbec d52d d7ea
000000b0: 7f1e f850 7f31 69c5 3f1e c97d 1fa1 1d02
000000c0: c3f6 c258 cc81 4444 9981 243e 1c97 46c1
000000d0: 7fe3 d8fc fee2 e8d4 b009 8794 034a 812c
000000e0: 663b 6262 f70c 0bc0 8198 cab9 1d81 a3ef
000000f0: d698 0e6a 367f efe2 ba00 4195 38fe ee21
17 22 73 -82 -10 83 39 -79
-127 -49 74 26 35 -41 127 28
-109 -17 -7 -10 -127 -22 -59 -40
-37 -12 18 -93 48 -54 -40 -100
39 -8 -119 -127 80 -30 -96 64
22 -49 -127 72 69 104 -86 10
-9 -61 -127 -62 55 -21 15 28
98 64 -1 127 34 -5 -41 -16
3 48 4 -41 127 -68 -51 27
120 47 127 -13 -55 -105 -82 -38
-69 91 58 -127 14 -6 -123 48
-59 -97 -110 21 127 20 -52 26
34 78 -116 65 -127 20 53 12
32 62 63 124 61 -94 3 41
75 106 -112 -27 -127 19 -4 -127
-24 88 -71 -92 56 -7 9 -119
-85 27 81 127 21 57 49 -13
97 55 -65 -88 43 110 -3 127
-18 4 -52 89 89 127 -69 -97
-62 93 -127 100 62 -90 35 -8
-70 36 -100 -127 -62 -35 23 69
119 100 -5 -20 -43 45 -41 -22
127 30 -8 80 127 49 105 -59
63 30 -55 125 31 -95 29 2
-61 -10 -62 88 -52 -127 68 68
-103 -127 36 62 28 -105 70 -63
127 -29 -40 -4 -2 -30 -24 -44
-80 9 -121 -108 3 74 -127 44
102 59 98 98 -9 12 11 -64
-127 -104 -54 -71 29 -127 -93 -17
-42 -104 14 106 54 127 -17 -30
-70 0 65 -107 56 -2 -18 33
