neural_network/models/quant_model.tflite (tflite, 15664 bytes, 5 tensors)

sequential_3/dense_11/MatMul i1 [5, 16] scale=0.013590487 zero_point=0
0	0x1c	0.38053364
1	0x2a	0.5708004
2	0x25	0.502848
3	0xda	-0.5164385
4	0xc8	-0.7610673
5	0x8b	-1.5900869
6	0x34	0.70670533
7	0x17	0.31258118
8	0x37	0.74747676
9	0x83	-1.6988108
10	0x81	-1.7259918
11	0x3c	0.8154292
12	0x31	0.66593385
13	0x12	0.24462876
14	0xbc	-0.9241531
15	0xc0	-0.86979115
16	0xa9	-1.1823723
17	0x1d	0.39412412
18	0xb5	-1.0192865
19	0xc9	-0.74747676
20	0x9c	-1.3590487
21	0x21	0.44848606
22	0xcc	-0.70670533
23	0xcb	-0.7202958
24	0xbf	-0.88338166
25	0x25	0.502848
26	0xe9	-0.31258118
27	0x36	0.7338863
28	0x9d	-1.3454581
29	0xb0	-1.0872389
30	0xdb	-0.502848
31	0xa6	-1.2231438
32	0xc1	-0.85620064
33	0x12	0.24462876
34	0x1a	0.35335267
35	0x0d	0.17667633
36	0xe6	-0.35335267
37	0x1d	0.39412412
38	0xed	-0.25821924
39	0x1a	0.35335267
40	0xf6	-0.13590486
41	0x1d	0.39412412
42	0x08	0.108723894
43	0xae	-1.1144199
44	0xc0	-0.86979115
45	0x08	0.108723894
46	0x18	0.3261717
47	0x03	0.040771462
48	0xca	-0.7338863
49	0xda	-0.5164385
50	0x29	0.55720997
51	0x10	0.21744779
52	0x22	0.46207654
53	0xdf	-0.44848606
54	0xcf	-0.66593385
55	0x21	0.44848606
56	0xed	-0.25821924
57	0xd6	-0.5708004
58	0xfa	-0.081542924
59	0x2b	0.58439094
60	0x3a	0.78824824
61	0x13	0.25821924
62	0x1c	0.38053364
63	0x18	0.3261717
64	0xc5	-0.8018387
65	0xea	-0.2989907
66	0xcf	-0.66593385
67	0xd3	-0.6115719
68	0x1b	0.36694315
69	0x22	0.46207654
70	0x35	0.7202958
71	0xdf	-0.44848606
72	0x2c	0.5979814
73	0x21	0.44848606
74	0x30	0.6523434
75	0x01	0.013590487
76	0xf2	-0.19026682
77	0x11	0.23103827
78	0x1b	0.36694315
79	0x15	0.2854002

sequential_3/dense_10/MatMul i1 [16, 8] scale=0.011466014 zero_point=0
0	0x34	0.5962327
1	0x10	0.18345623
2	0x4b	0.8599511
3	0x40	0.7338249
4	0xff	-0.011466014
5	0xfb	-0.057330072
6	0xff	-0.011466014
7	0xeb	-0.2407863
8	0x3f	0.7223589
9	0xf4	-0.13759217
10	0x3f	0.7223589
11	0x28	0.45864058
12	0xf9	-0.0802621
13	0xff	-0.011466014
14	0xfd	-0.03439804
15	0xe4	-0.3210484
16	0x61	1.1122034
17	0x28	0.45864058
18	0x4e	0.8943491
19	0x67	1.1809995
20	0x47	0.81408703
21	0x1c	0.3210484
22	0xf7	-0.103194125
23	0xe9	-0.26371834
24	0xe0	-0.36691245
25	0xd8	-0.45864058
26	0xe5	-0.30958238
27	0xf0	-0.18345623
28	0xec	-0.22932029
29	0x33	0.58476675
30	0xf6	-0.114660144
31	0xf2	-0.1605242
32	0xdb	-0.42424253
33	0xf0	-0.18345623
34	0xda	-0.43570855
35	0xe3	-0.3325144
36	0x22	0.38984448
37	0xf9	-0.0802621
38	0x1a	0.29811636
39	0x0c	0.13759217
40	0xdc	-0.4127765
41	0xf9	-0.0802621
42	0xb9	-0.81408703
43	0xc1	-0.7223589
44	0xb4	-0.8714171
45	0xfe	-0.022932028
46	0xfd	-0.03439804
47	0x1a	0.29811636
48	0x2e	0.5274367
49	0xd8	-0.45864058
50	0x3d	0.6994269
51	0x37	0.6306308
52	0xfd	-0.03439804
53	0xfb	-0.057330072
54	0xf4	-0.13759217
55	0x21	0.37837848
56	0x22	0.38984448
57	0xea	-0.2522523
58	0xe5	-0.30958238
59	0x0c	0.13759217
60	0x52	0.94021314
61	0x27	0.44717455
62	0xf7	-0.103194125
63	0xf7	-0.103194125
64	0x3c	0.68796086
65	0xff	-0.011466014
66	0x4e	0.8943491
67	0x45	0.791155
68	0xfb	-0.057330072
69	0xff	-0.011466014
70	0xf3	-0.14905818
71	0x28	0.45864058
72	0xe3	-0.3325144
73	0xf3	-0.14905818
74	0xc7	-0.6535628
75	0xc0	-0.7338249
76	0xb5	-0.8599511
77	0xfd	-0.03439804
78	0xfe	-0.022932028
79	0x13	0.21785428
80	0xe6	-0.29811636
81	0xd8	-0.45864058
82	0xfa	-0.06879608
83	0xf8	-0.09172811
84	0x06	0.06879608
85	0xf3	-0.14905818
86	0xf1	-0.17199022
87	0x42	0.75675696
88	0x00	0.0
89	0x25	0.42424253
90	0x53	0.95167917
91	0x58	1.0090092
92	0x26	0.43570855
93	0xeb	-0.2407863
94	0xac	-0.9631452
95	0xb0	-0.91728115
96	0x13	0.21785428
97	0xf7	-0.103194125
98	0x40	0.7338249
99	0x23	0.4013105
100	0x40	0.7338249
101	0x09	0.103194125
102	0xe9	-0.26371834
103	0x10	0.18345623
104	0x2d	0.51597065
105	0xf2	-0.1605242
106	0x25	0.42424253
107	0x26	0.43570855
108	0x7f	1.4561838
109	0x07	0.0802621
110	0x1e	0.34398043
111	0xdf	-0.37837848
112	0xe6	-0.29811636
113	0x20	0.36691245
114	0xbf	-0.74529094
115	0xbc	-0.77968895
116	0xf1	-0.17199022
117	0x16	0.2522523
118	0x34	0.5962327
119	0x42	0.75675696
120	0xf1	-0.17199022
121	0xe6	-0.29811636
122	0xe0	-0.36691245
123	0xe7	-0.28665036
124	0x0b	0.12612616
125	0xe5	-0.30958238
126	0x28	0.45864058
127	0x16	0.2522523

sequential_3/dense_9/MatMul i1 [8, 528] scale=0.005421017 zero_point=0
0	0xdd	-0.18973559
1	0xcc	-0.28189287
2	0x26	0.20599864
3	0xe8	-0.13010441
4	0x16	0.11926237
5	0xe2	-0.1626305
6	0xfa	-0.032526102
7	0x05	0.027105084
8	0x19	0.13552542
9	0x08	0.043368135
10	0x06	0.032526102
11	0xf1	-0.08131525
12	0x14	0.108420335
13	0xdd	-0.18973559
14	0x0f	0.08131525
15	0x11	0.09215729
16	0xf8	-0.043368135
17	0x07	0.03794712
18	0xbb	-0.37405017
19	0xbd	-0.36320812
20	0xf5	-0.059631184
21	0xf3	-0.07047322
22	0xd9	-0.21141966
23	0xf0	-0.08673627
24	0x20	0.17347254
25	0x2e	0.24936678
26	0x33	0.27647185
27	0x26	0.20599864
28	0xff	-0.005421017
29	0xfb	-0.027105084
30	0xad	-0.4499444
31	0xd7	-0.2222617
32	0x06	0.032526102
33	0x14	0.108420335
34	0xeb	-0.113841355
35	0xfb	-0.027105084
36	0x2e	0.24936678
37	0x27	0.21141966
38	0x2e	0.24936678
39	0xf2	-0.07589424
40	0xfe	-0.010842034
41	0xe0	-0.17347254
42	0x1d	0.15720949
43	0x12	0.0975783
44	0xd0	-0.26020882
45	0x16	0.11926237
46	0x16	0.11926237
47	0x14	0.108420335
48	0xf0	-0.08673627
49	0xdf	-0.17889355
50	0x0f	0.08131525
51	0xec	-0.108420335
52	0x03	0.016263051
53	0xef	-0.09215729
54	0xcd	-0.27647185
55	0x0f	0.08131525
56	0x0d	0.07047322
57	0x11	0.09215729
58	0xf2	-0.07589424
59	0xaf	-0.43910235
60	0x22	0.18431458
61	0xe6	-0.14094643
62	0xf9	-0.03794712
63	0x0c	0.065052204
64	0xc9	-0.29815593
65	0x15	0.113841355
66	0xdc	-0.1951566
67	0xd7	-0.2222617
68	0xde	-0.18431458
69	0x09	0.04878915
70	0xd8	-0.21684067
71	0x0d	0.07047322
72	0x27	0.21141966
73	0x0b	0.059631184
74	0xd1	-0.2547878
75	0x11	0.09215729
76	0xbb	-0.37405017
77	0xf0	-0.08673627
78	0xd5	-0.23310372
79	0xe1	-0.16805153
80	0x00	0.0
81	0x15	0.113841355
82	0xf1	-0.08131525
83	0xf6	-0.054210167
84	0x08	0.043368135
85	0xe4	-0.15178847
86	0x20	0.17347254
87	0x0b	0.059631184
88	0xe1	-0.16805153
89	0xf9	-0.03794712
90	0xff	-0.005421017
91	0xf9	-0.03794712
92	0xde	-0.18431458
93	0x14	0.108420335
94	0x1a	0.14094643
95	0x96	-0.57462776
96	0xe7	-0.13552542
97	0xcf	-0.26562983
98	0x02	0.010842034
99	0xfc	-0.021684067
100	0xfb	-0.027105084
101	0xd7	-0.2222617
102	0xf4	-0.065052204
103	0x03	0.016263051
104	0x1e	0.1626305
105	0x01	0.005421017
106	0xee	-0.0975783
107	0xcc	-0.28189287
108	0x0c	0.065052204
109	0xed	-0.10299932
110	0x15	0.113841355
111	0x09	0.04878915
112	0xd8	-0.21684067
113	0xea	-0.11926237
114	0xcc	-0.28189287
115	0xef	-0.09215729
116	0xea	-0.11926237
117	0xef	-0.09215729
118	0x0c	0.065052204
119	0xef	-0.09215729
120	0xff	-0.005421017
121	0x09	0.04878915
122	0x1d	0.15720949
123	0x1e	0.1626305
124	0xe8	-0.13010441
125	0xf8	-0.043368135
126	0xc5	-0.31983998
127	0xe5	-0.14636746
128	0xfe	-0.010842034
129	0xe5	-0.14636746
130	0xe4	-0.15178847
131	0xec	-0.108420335
132	0x42	0.3577871
133	0xfb	-0.027105084
134	0x06	0.032526102
135	0xf2	-0.07589424
136	0x09	0.04878915
137	0x0f	0.08131525
138	0x0f	0.08131525
139	0x11	0.09215729
140	0xf9	-0.03794712
141	0xce	-0.27105084
142	0x36	0.29273492
143	0xee	-0.0975783
144	0xef	-0.09215729
145	0xe7	-0.13552542
146	0xcd	-0.27647185
147	0xf6	-0.054210167
148	0xf9	-0.03794712
149	0xdc	-0.1951566
150	0xf9	-0.03794712
151	0xfb	-0.027105084
152	0x12	0.0975783
153	0xe5	-0.14636746
154	0x09	0.04878915
155	0xcf	-0.26562983
156	0x0f	0.08131525
157	0xd4	-0.23852473
158	0x1e	0.1626305
159	0xe6	-0.14094643
160	0xe1	-0.16805153
161	0x03	0.016263051
162	0xd7	-0.2222617
163	0xf3	-0.07047322
164	0xdd	-0.18973559
165	0xdc	-0.1951566
166	0xf3	-0.07047322
167	0xfa	-0.032526102
168	0x0f	0.08131525
169	0x0d	0.07047322
170	0xe2	-0.1626305
171	0x10	0.08673627
172	0xef	-0.09215729
173	0xfe	-0.010842034
174	0x9a	-0.5529437
175	0xc1	-0.34152406
176	0xd2	-0.24936678
177	0x08	0.043368135
178	0xe3	-0.15720949
179	0xd4	-0.23852473
180	0x26	0.20599864
181	0xd8	-0.21684067
182	0x14	0.108420335
183	0xfc	-0.021684067
184	0xee	-0.0975783
185	0xfe	-0.010842034
186	0x0f	0.08131525
187	0xf3	-0.07047322
188	0x11	0.09215729
189	0x08	0.043368135
190	0x17	0.12468339
191	0xc5	-0.31983998
192	0x07	0.03794712
193	0xbd	-0.36320812
194	0xeb	-0.113841355
195	0xf5	-0.059631184
196	0xff	-0.005421017
197	0xde	-0.18431458
198	0xc2	-0.33610305
199	0xfa	-0.032526102
200	0x0b	0.059631184
201	0xec	-0.108420335
202	0xfe	-0.010842034
203	0xbe	-0.3577871
204	0x18	0.13010441
205	0xee	-0.0975783
206	0x14	0.108420335
207	0xf3	-0.07047322
208	0xa8	-0.47704947
209	0xe8	-0.13010441
210	0xae	-0.4445234
211	0xc7	-0.30899796
212	0xec	-0.108420335
213	0xe5	-0.14636746
214	0x1f	0.16805153
215	0x13	0.10299932
216	0xfd	-0.016263051
217	0x1b	0.14636746
218	0xc0	-0.34694508
219	0x36	0.29273492
220	0xe4	-0.15178847
221	0xfc	-0.021684067
222	0xba	-0.37947118
223	0xad	-0.4499444
224	0xe5	-0.14636746
225	0xf7	-0.04878915
226	0xdb	-0.20057762
227	0x1e	0.1626305
228	0xc9	-0.29815593
229	0xe5	-0.14636746
230	0x0b	0.059631184
231	0xf3	-0.07047322
232	0xdf	-0.17889355
233	0xe6	-0.14094643
234	0x21	0.17889355
235	0x07	0.03794712
236	0xe3	-0.15720949
237	0xe6	-0.14094643
238	0x4c	0.4119973
239	0xe4	-0.15178847
240	0xe0	-0.17347254
241	0x02	0.010842034
242	0xe7	-0.13552542
243	0x04	0.021684067
244	0xf8	-0.043368135
245	0xe3	-0.15720949
246	0x09	0.04878915
247	0xfa	-0.032526102
248	0x17	0.12468339
249	0xf3	-0.07047322
250	0xd0	-0.26020882
251	0xb4	-0.4119973
252	0x03	0.016263051
253	0xda	-0.20599864
254	0x0b	0.059631184
255	0x0f	0.08131525

sequential_3/conv2d_7/Conv2D i1 [16, 3, 3, 32]
0	0x05	5
1	0xb6	-74
2	0x17	23
3	0xec	-20
4	0x11	17
5	0x0c	12
6	0x2e	46
7	0x24	36
8	0x0b	11
9	0x27	39
10	0x03	3
11	0x38	56
12	0x08	8
13	0xfc	-4
14	0xce	-50
15	0xc3	-61
16	0x2b	43
17	0x18	24
18	0x0b	11
19	0xe9	-23
20	0x15	21
21	0x26	38
22	0xe2	-30
23	0x2e	46
24	0x44	68
25	0xee	-18
26	0x08	8
27	0x00	0
28	0xfc	-4
29	0x03	3
30	0x31	49
31	0x19	25
32	0xee	-18
33	0xfa	-6
34	0x1f	31
35	0x09	9
36	0x1d	29
37	0x34	52
38	0x18	24
39	0x10	16
40	0x0d	13
41	0x1e	30
42	0x25	37
43	0x0a	10
44	0xc3	-61
45	0xc4	-60
46	0x13	19
47	0xba	-70
48	0x39	57
49	0x17	23
50	0x30	48
51	0xf2	-14
52	0x3c	60
53	0x0e	14
54	0xe2	-30
55	0x32	50
56	0xf7	-9
57	0xf4	-12
58	0xf5	-11
59	0xca	-54
60	0xf5	-11
61	0x0a	10
62	0x1d	29
63	0x11	17
64	0x41	65
65	0x4a	74
66	0xe6	-26
67	0xfe	-2
68	0xf2	-14
69	0xf0	-16
70	0xdb	-37
71	0xc9	-55
72	0x24	36
73	0x05	5
74	0x3b	59
75	0xf7	-9
76	0x37	55
77	0xe0	-32
78	0x37	55
79	0xf0	-16
80	0x16	22
81	0xf2	-14
82	0x04	4
83	0xfa	-6
84	0xd7	-41
85	0xd9	-39
86	0xe1	-31
87	0xfe	-2
88	0x36	54
89	0xdb	-37
90	0x15	21
91	0x07	7
92	0xf1	-15
93	0x00	0
94	0xd9	-39
95	0x31	49
96	0xe7	-25
97	0x81	-127
98	0xe6	-26
99	0xb3	-77
100	0xef	-17
101	0x1c	28
102	0x1d	29
103	0x0a	10
104	0x16	22
105	0x0c	12
106	0x09	9
107	0x11	17
108	0xe5	-27
109	0x17	23
110	0x10	16
111	0xdb	-37
112	0xea	-22
113	0x25	37
114	0xf7	-9
115	0xc6	-58
116	0x10	16
117	0xde	-34
118	0x0d	13
119	0x33	51
120	0xec	-20
121	0xe5	-27
122	0x07	7
123	0x03	3
124	0xea	-22
125	0xfd	-3
126	0x28	40
127	0x1c	28
128	0xf3	-13
129	0xfb	-5
130	0xf2	-14
131	0x04	4
132	0xb8	-72
133	0x1c	28
134	0xfe	-2
135	0x06	6
136	0x14	20
137	0xe2	-30
138	0xf9	-7
139	0x0c	12
140	0xfd	-3
141	0x26	38
142	0x0d	13
143	0x03	3
144	0x09	9
145	0xf5	-11
146	0xe6	-26
147	0xcf	-49
148	0x19	25
149	0x19	25
150	0xfe	-2
151	0x20	32
152	0x22	34
153	0xf8	-8
154	0xef	-17
155	0x08	8
156	0x12	18
157	0xfe	-2
158	0x0d	13
159	0xfb	-5
160	0x18	24
161	0xce	-50
162	0xa8	-88
163	0x09	9
164	0xd0	-48
165	0xec	-20
166	0x0b	11
167	0x01	1
168	0x11	17
169	0x2e	46
170	0x1c	28
171	0x08	8
172	0x1d	29
173	0xfc	-4
174	0x0e	14
175	0x18	24
176	0xf8	-8
177	0x1c	28
178	0x01	1
179	0xff	-1
180	0xf0	-16
181	0x0f	15
182	0x06	6
183	0xf8	-8
184	0xd5	-43
185	0xf6	-10
186	0xf0	-16
187	0xe3	-29
188	0xcb	-53
189	0x33	51
190	0xf3	-13
191	0x53	83
192	0xde	-34
193	0xb1	-79
194	0xd9	-39
195	0xec	-20
196	0xef	-17
197	0xe8	-24
198	0xd0	-48
199	0xf5	-11
200	0xcf	-49
201	0xe8	-24
202	0xf6	-10
203	0xbc	-68
204	0xde	-34
205	0x02	2
206	0xff	-1
207	0xcf	-49
208	0xe1	-31
209	0xe9	-23
210	0x0e	14
211	0xdd	-35
212	0xfb	-5
213	0xfd	-3
214	0x00	0
215	0xee	-18
216	0xbf	-65
217	0xb2	-78
218	0xee	-18
219	0xd0	-48
220	0x2c	44
221	0xed	-19
222	0xca	-54
223	0x18	24
224	0x1c	28
225	0x11	17
226	0x11	17
227	0x01	1
228	0xf7	-9
229	0xc7	-57
230	0xca	-54
231	0xf3	-13
232	0xc4	-60
233	0xdb	-37
234	0xcb	-53
235	0xdb	-37
236	0x28	40
237	0x27	39
238	0xfb	-5
239	0xed	-19
240	0xbe	-66
241	0xb2	-78
242	0xe0	-32
243	0xdb	-37
244	0xe3	-29
245	0xeb	-21
246	0xd6	-42
247	0xe6	-26
248	0xe0	-32
249	0x03	3
250	0xeb	-21
251	0x12	18
252	0xf8	-8
253	0xbe	-66
254	0xf7	-9
255	0xda	-38

sequential_3/conv2d_6/Conv2D i1 [32, 3, 3, 1]
0	0x7a	122
1	0xea	-22
2	0xe4	-28
3	0xf9	-7
4	0x81	-127
5	0xe4	-28
6	0xb5	-75
7	0x36	54
8	0x52	82
9	0x49	73
10	0xdd	-35
11	0x42	66
12	0x13	19
13	0xe3	-29
14	0x58	88
15	0x81	-127
16	0x2b	43
17	0xa5	-91
18	0x44	68
19	0x7f	127
20	0xbf	-65
21	0xb3	-77
22	0xc2	-62
23	0xd6	-42
24	0x14	20
25	0xac	-84
26	0x2d	45
27	0xb0	-80
28	0x95	-107
29	0xec	-20
30	0x1f	31
31	0xe8	-24
32	0x0f	15
33	0x60	96
34	0x7f	127
35	0x0a	10
36	0x37	55
37	0x7b	123
38	0x78	120
39	0xaa	-86
40	0x93	-109
41	0x81	-127
42	0x43	67
43	0x17	23
44	0x40	64
45	0x44	68
46	0x6e	110
47	0x10	16
48	0xeb	-21
49	0x1d	29
50	0xd2	-46
51	0x81	-127
52	0xce	-50
53	0xfa	-6
54	0x20	32
55	0x4b	75
56	0x31	49
57	0x4b	75
58	0x7f	127
59	0xdc	-36
60	0x4d	77
61	0x31	49
62	0xb5	-75
63	0x52	82
64	0xe3	-29
65	0xb3	-77
66	0x3d	61
67	0x3a	58
68	0x26	38
69	0xc7	-57
70	0x42	66
71	0x7f	127
72	0x1d	29
73	0x15	21
74	0x7f	127
75	0x0d	13
76	0x2f	47
77	0x8e	-114
78	0xf9	-7
79	0x89	-119
80	0xed	-19
81	0xe7	-25
82	0xf4	-12
83	0xc5	-59
84	0xf7	-9
85	0x52	82
86	0xb9	-71
87	0xfc	-4
88	0x5e	94
89	0x81	-127
90	0x2c	44
91	0x36	54
92	0xba	-70
93	0x6b	107
94	0xd1	-47
95	0x0f	15
96	0x7f	127
97	0x85	-123
98	0x3a	58
99	0x2c	44
100	0x54	84
101	0x13	19
102	0x1c	28
103	0x23	35
104	0xb1	-79
105	0x32	50
106	0xc6	-58
107	0x81	-127
108	0xed	-19
109	0x9c	-100
110	0x24	36
111	0x3f	63
112	0xf2	-14
113	0xcd	-51
114	0x0f	15
115	0x3e	62
116	0x81	-127
117	0xd7	-41
118	0xdd	-35
119	0xb8	-72
120	0xd5	-43
121	0x81	-127
122	0x86	-122
123	0xbf	-65
124	0xea	-22
125	0xdf	-33
126	0x81	-127
127	0x3b	59
128	0x1b	27
129	0xb0	-80
130	0xe7	-25
131	0xc4	-60
132	0x52	82
133	0x33	51
134	0xd0	-48
135	0xc9	-55
136	0xa3	-93
137	0xb4	-76
138	0x6f	111
139	0x28	40
140	0x7f	127
141	0xb2	-78
142	0x00	0
143	0xe6	-26
144	0x2d	45
145	0xdb	-37
146	0x7f	127
147	0x53	83
148	0xa0	-96
149	0x0c	12
150	0x53	83
151	0x47	71
152	0x8f	-113
153	0x58	88
154	0x58	88
155	0xa3	-93
156	0x0f	15
157	0x41	65
158	0xb5	-75
159	0x81	-127
160	0x63	99
161	0x65	101
162	0x48	72
163	0x9c	-100
164	0xf9	-7
165	0x15	21
166	0x2d	45
167	0xff	-1
168	0xba	-70
169	0x7f	127
170	0xe2	-30
171	0xdc	-36
172	0x81	-127
173	0x29	41
174	0x76	118
175	0x50	80
176	0x0b	11
177	0xad	-83
178	0x22	34
179	0xaf	-81
180	0xf2	-14
181	0x7a	122
182	0xd0	-48
183	0xfb	-5
184	0xf4	-12
185	0x55	85
186	0xf8	-8
187	0x81	-127
188	0x2e	46
189	0x81	-127
190	0x9e	-98
191	0xef	-17
192	0x24	36
193	0x5b	91
194	0x44	68
195	0x3c	60
196	0x37	55
197	0x27	39
198	0xbf	-65
199	0xe0	-32
200	0x14	20
201	0xc7	-57
202	0xe0	-32
203	0x7f	127
204	0xb6	-74
205	0x38	56
206	0x1d	29
207	0x1a	26
208	0x7f	127
209	0xae	-82
210	0xf4	-12
211	0x1e	30
212	0xf6	-10
213	0xad	-83
214	0xc0	-64
215	0x0a	10
216	0x37	55
217	0x12	18
218	0x7f	127
219	0xdc	-36
220	0xc7	-57
221	0x22	34
222	0x06	6
223	0xcf	-49
224	0xa3	-93
225	0xcb	-53
226	0xd9	-39
227	0x0b	11
228	0xd2	-46
229	0x81	-127
230	0x2a	42
231	0xd0	-48
232	0xcf	-49
233	0x3f	63
234	0x87	-121
235	0xf0	-16
236	0x53	83
237	0x24	36
238	0x08	8
239	0x00	0
240	0x7f	127
241	0xe8	-24
242	0x8f	-113
243	0x46	70
244	0xc9	-55
245	0xe8	-24
246	0xd8	-40
247	0x1b	27
248	0x12	18
249	0x07	7
250	0x81	-127
251	0xdb	-37
252	0xf0	-16
253	0xdc	-36
254	0x7f	127
255	0x17	23
