neural_network/models/quant_model.tflite (tflite, 17104 bytes, 5 tensors)

sequential_8/dense_20/MatMul i1 [5, 16] scale=0.015737891 zero_point=0
000000 81 28 1d 07 18 18 a1 16 c4 af 05 c3 27 a9 f2 ae
       -1.9987122 0.62951565 0.45639884 0.11016524 0.3777094 0.3777094 -1.4950997 0.3462336 -0.9442735 -1.2747692 0.078689456 -0.96001136 0.61377776 -1.3691965 -0.22033048 -1.2905071
000010 dc b8 c4 e8 cb e4 dc 0a 29 16 0a c4 aa 23 00 0b
       -0.5665641 -1.1331282 -0.9442735 -0.3777094 -0.83410823 -0.44066095 -0.5665641 0.15737891 0.64525354 0.3462336 0.15737891 -0.9442735 -1.3534586 0.5508262 0.0 0.1731168
000020 0a f6 f2 13 13 13 e9 eb d6 13 08 f5 d9 22 04 10
       0.15737891 -0.15737891 -0.22033048 0.29901993 0.29901993 0.29901993 -0.3619715 -0.33049572 -0.66099143 0.29901993 0.12590313 -0.1731168 -0.61377776 0.5350883 0.062951565 0.25180626
000030 0b 14 1c 17 06 15 32 c1 e7 fe d2 1e 24 1e 01 12
       0.1731168 0.31475782 0.44066095 0.3619715 0.09442735 0.33049572 0.78689456 -0.99148715 -0.39344728 -0.031475782 -0.723943 0.47213674 0.5665641 0.47213674 0.015737891 0.28328204
000040 fc cb b0 d1 ed d6 d3 a9 35 f4 d5 c0 06 fe fb d3
       -0.062951565 -0.83410823 -1.2590313 -0.7396809 -0.29901993 -0.66099143 -0.7082051 -1.3691965 0.83410823 -0.1888547 -0.6767293 -1.007225 0.09442735 -0.031475782 -0.078689456 -0.7082051

sequential_8/dense_19/MatMul i1 [16, 8] scale=0.009541587 zero_point=0
000000 d8 da 66 f6 f6 fc e6 e8 d5 b9 26 b8 d2 1e 5b e9
       -0.38166347 -0.3625803 0.97324187 -0.09541587 -0.09541587 -0.038166348 -0.24808127 -0.2289981 -0.41028824 -0.6774527 0.3625803 -0.68699425 -0.438913 0.2862476 0.8682844 -0.2194565
000010 19 4d e9 e1 e2 0d 17 e4 1c 3c 2c fe 00 f4 e7 44
       0.23853968 0.73470217 -0.2194565 -0.29578918 -0.2862476 0.12404063 0.2194565 -0.26716444 0.26716444 0.5724952 0.41982982 -0.019083174 0.0 -0.11449905 -0.23853968 0.6488279
000020 1f f6 fa ff 00 5b 66 17 ce 62 28 ff 00 50 41 27
       0.29578918 -0.09541587 -0.057249524 -0.009541587 0.0 0.8682844 0.97324187 0.2194565 -0.47707936 0.9350755 0.38166347 -0.009541587 0.0 0.76332694 0.62020314 0.3721219
000030 05 12 11 c5 ce b7 fb fd 02 f7 cf 2e e5 16 3f ca
       0.047707934 0.17174856 0.16220698 -0.56295365 -0.47707936 -0.6965358 -0.047707934 -0.028624762 0.019083174 -0.08587428 -0.46753776 0.438913 -0.25762284 0.20991491 0.60112 -0.5152457
000040 12 81 c1 01 04 a5 b1 c5 fd ff fd 64 6f 00 dd 01
       0.17174856 -1.2117815 -0.60112 0.009541587 0.038166348 -0.8682844 -0.7537854 -0.56295365 -0.028624762 -0.009541587 -0.028624762 0.9541587 1.0591161 0.0 -0.33395556 0.009541587
000050 d6 e6 fe 31 3a 3e e7 fe 2a 1b 1a c3 d5 b6 f9 fd
       -0.40074664 -0.24808127 -0.019083174 0.46753776 0.553412 0.59157836 -0.23853968 -0.019083174 0.40074664 0.25762284 0.24808127 -0.5820368 -0.41028824 -0.70607746 -0.06679111 -0.028624762
000060 d9 25 e1 c8 d2 b8 5a 0e fc 02 1f 57 5d fc e5 28
       -0.3721219 0.35303873 -0.29578918 -0.5343289 -0.438913 -0.68699425 0.85874283 0.13358222 -0.038166348 0.019083174 0.29578918 0.83011806 0.8873676 -0.038166348 -0.25762284 0.38166347
000070 d0 ff f1 d0 d0 ff fd f6 f4 00 3c 19 1e fc df 53
       -0.4579962 -0.009541587 -0.1431238 -0.4579962 -0.4579962 -0.009541587 -0.028624762 -0.09541587 -0.11449905 0.0 0.5724952 0.23853968 0.2862476 -0.038166348 -0.31487238 0.7919517

sequential_8/dense_18/MatMul i1 [8, 704] scale=0.0050687366 zero_point=0
000000 ec f0 f0 ff ff 03 ef fc fe ec 08 04 02 fc f8 ff
       -0.10137473 -0.081099786 -0.081099786 -0.0050687366 -0.0050687366 0.01520621 -0.08616852 -0.020274946 -0.010137473 -0.10137473 0.040549893 0.020274946 0.010137473 -0.020274946 -0.040549893 -0.0050687366
000010 05 f0 07 fe ff f9 f2 fa 02 f5 f5 f8 ed 05 05 01
       0.025343683 -0.081099786 0.035481155 -0.010137473 -0.0050687366 -0.035481155 -0.07096231 -0.03041242 0.010137473 -0.055756103 -0.055756103 -0.040549893 -0.096305996 0.025343683 0.025343683 0.0050687366
000020 f2 f0 e2 e6 03 fb f5 00 01 0b f0 08 ec e8 ef fd
       -0.07096231 -0.081099786 -0.1520621 -0.13178715 0.01520621 -0.025343683 -0.055756103 0.0 0.0050687366 0.055756103 -0.081099786 0.040549893 -0.10137473 -0.12164968 -0.08616852 -0.01520621
000030 f6 03 ee ff f5 f7 fd ed 05 f2 03 fb 04 04 08 e5
       -0.050687365 0.01520621 -0.09123726 -0.0050687366 -0.055756103 -0.04561863 -0.01520621 -0.096305996 0.025343683 -0.07096231 0.01520621 -0.025343683 0.020274946 0.020274946 0.040549893 -0.13685589
000040 ef 08 fd ec ec f8 f2 f8 04 f9 fe 02 0a fc fa eb
       -0.08616852 0.040549893 -0.01520621 -0.10137473 -0.10137473 -0.040549893 -0.07096231 -0.040549893 0.020274946 -0.035481155 -0.010137473 0.010137473 0.050687365 -0.020274946 -0.03041242 -0.10644347
000050 f4 f0 ed f4 ed 12 07 0a 02 ef fd 0d f5 f8 f4 ff
       -0.06082484 -0.081099786 -0.096305996 -0.06082484 -0.096305996 0.09123726 0.035481155 0.050687365 0.010137473 -0.08616852 -0.01520621 0.065893576 -0.055756103 -0.040549893 -0.06082484 -0.0050687366
000060 f0 01 e1 f2 fd f2 ea 00 ec f8 f5 02 ee 03 03 ec
       -0.081099786 0.0050687366 -0.15713084 -0.07096231 -0.01520621 -0.07096231 -0.11151221 0.0 -0.10137473 -0.040549893 -0.055756103 0.010137473 -0.09123726 0.01520621 0.01520621 -0.10137473
000070 f3 11 e8 ee f2 02 09 0e e8 f2 ea 03 ff 0a 08 10
       -0.065893576 0.08616852 -0.12164968 -0.09123726 -0.07096231 0.010137473 0.04561863 0.07096231 -0.12164968 -0.07096231 -0.11151221 0.01520621 -0.0050687366 0.050687365 0.040549893 0.081099786
000080 f0 05 fa 09 06 03 0c f1 ec f5 eb fa ec 08 ff 04
       -0.081099786 0.025343683 -0.03041242 0.04561863 0.03041242 0.01520621 0.06082484 -0.07603105 -0.10137473 -0.055756103 -0.10644347 -0.03041242 -0.10137473 0.040549893 -0.0050687366 0.020274946
000090 eb ea 02 0b f8 fe fc fa f7 fb ee ef fa ea 05 e3
       -0.10644347 -0.11151221 0.010137473 0.055756103 -0.040549893 -0.010137473 -0.020274946 -0.03041242 -0.04561863 -0.025343683 -0.09123726 -0.08616852 -0.03041242 -0.11151221 0.025343683 -0.14699337
0000a0 f3 f2 08 f4 e7 ec f0 02 03 f5 f6 00 e7 ed 0a e2
       -0.065893576 -0.07096231 0.040549893 -0.06082484 -0.12671842 -0.10137473 -0.081099786 0.010137473 0.01520621 -0.055756103 -0.050687365 0.0 -0.12671842 -0.096305996 0.050687365 -0.1520621
0000b0 fb 0a f9 f9 f1 0a 0a fb 04 f7 ed 03 fa 02 0f e9
       -0.025343683 0.050687365 -0.035481155 -0.035481155 -0.07603105 0.050687365 0.050687365 -0.025343683 0.020274946 -0.04561863 -0.096305996 0.01520621 -0.03041242 0.010137473 0.07603105 -0.11658094
0000c0 ff f4 05 09 ef f6 e8 f8 ed fa f6 f4 0c e9 08 0a
       -0.0050687366 -0.06082484 0.025343683 0.04561863 -0.08616852 -0.050687365 -0.12164968 -0.040549893 -0.096305996 -0.03041242 -0.050687365 -0.06082484 0.06082484 -0.11658094 0.040549893 0.050687365
0000d0 ec f4 f9 f4 e4 fc f8 ff f0 09 03 0d 06 05 ea ed
       -0.10137473 -0.06082484 -0.035481155 -0.06082484 -0.14192462 -0.020274946 -0.040549893 -0.0050687366 -0.081099786 0.04561863 0.01520621 0.065893576 0.03041242 0.025343683 -0.11151221 -0.096305996
0000e0 e8 00 ed f2 04 fd f0 ed f4 09 ff fa fa fc fa e6
       -0.12164968 0.0 -0.096305996 -0.07096231 0.020274946 -0.01520621 -0.081099786 -0.096305996 -0.06082484 0.04561863 -0.0050687366 -0.03041242 -0.03041242 -0.020274946 -0.03041242 -0.13178715
0000f0 03 08 08 03 f2 ee ee f1 f4 e9 f7 ef 03 fd 0f 01
       0.01520621 0.040549893 0.040549893 0.01520621 -0.07096231 -0.09123726 -0.09123726 -0.07603105 -0.06082484 -0.11658094 -0.04561863 -0.08616852 0.01520621 -0.01520621 0.07603105 0.0050687366

sequential_8/conv2d_17/Conv2D i1 [16, 3, 3, 32]
000000 e2 08 fa df 09 0c 13 f2 00 ee 28 47 fe 1c 28 40
       -30 8 -6 -33 9 12 19 -14 0 -18 40 71 -2 28 40 64
000010 f9 ff fe ff f6 1f e0 1a bc f9 f5 0e ee 01 27 25
       -7 -1 -2 -1 -10 31 -32 26 -68 -7 -11 14 -18 1 39 37
000020 20 f0 de f4 e8 ef f5 ef ff 2a d3 28 f7 1a 09 04
       32 -16 -34 -12 -24 -17 -11 -17 -1 42 -45 40 -9 26 9 4
000030 ed 24 f4 1c c6 f8 2a 98 0f ee f1 f4 d8 1e 00 1a
       -19 36 -12 28 -58 -8 42 -104 15 -18 -15 -12 -40 30 0 26
000040 e9 f6 ec ee 23 5b ee d7 e0 09 32 2d 1a cc 00 56
       -23 -10 -20 -18 35 91 -18 -41 -32 9 50 45 26 -52 0 86
000050 ea cf 06 53 10 dc b0 e8 bf 1a 25 25 f9 d9 28 44
       -22 -49 6 83 16 -36 -80 -24 -65 26 37 37 -7 -39 40 68
000060 f8 2b eb f1 e5 16 e2 e8 f4 fc 10 1e f7 ec cf f2
       -8 43 -21 -15 -27 22 -30 -24 -12 -4 16 30 -9 -20 -49 -14
000070 ca ed fa 00 ce 09 cf 02 d7 ed ec f0 be c7 1b 14
       -54 -19 -6 0 -50 9 -49 2 -41 -19 -20 -16 -66 -57 27 20
000080 0e 06 11 f5 da f2 0b 08 01 22 f9 10 ee 0c 17 f4
       14 6 17 -11 -38 -14 11 8 1 34 -7 16 -18 12 23 -12
000090 e7 21 04 08 c5 03 05 e2 05 b6 c2 e9 b6 21 23 ee
       -25 33 4 8 -59 3 5 -30 5 -74 -62 -23 -74 33 35 -18
0000a0 0b 02 f3 e9 4c ea f0 ce cc 01 0a c7 52 fa 04 f2
       11 2 -13 -23 76 -22 -16 -50 -52 1 10 -57 82 -6 4 -14
0000b0 fe 00 ee 1e 13 aa 55 cc 10 7f 5b 2a 04 d1 14 0d
       -2 0 -18 30 19 -86 85 -52 16 127 91 42 4 -47 20 13
0000c0 34 17 eb 08 c1 0a c6 dc e2 fc 08 d6 0c f9 d0 df
       52 23 -21 8 -63 10 -58 -36 -30 -4 8 -42 12 -7 -48 -33
0000d0 e6 fd a6 0b dc cf dd 02 ff 0e f9 02 f8 d2 f2 0b
       -26 -3 -90 11 -36 -49 -35 2 -1 14 -7 2 -8 -46 -14 11
0000e0 d1 1b e3 d9 f7 eb f1 fe e4 f0 26 fb a8 1d ab db
       -47 27 -29 -39 -9 -21 -15 -2 -28 -16 38 -5 -88 29 -85 -37
0000f0 fa c0 07 fe fa 0b 98 10 c1 ad d5 fe f2 ba 11 fc
       -6 -64 7 -2 -6 11 -104 16 -63 -83 -43 -2 -14 -70 17 -4

sequential_8/conv2d_16/Conv2D i1 [32, 3, 3, 1]
000000 39 d3 a5 31 13 c1 e2 23 7f ec f4 bb 16 0c 81 10
       57 -45 -91 49 19 -63 -30 35 127 -20 -12 -69 22 12 -127 16
000010 02 b4 21 6a 7f a4 de b1 e0 fa ef cf 29 fb ea 35
       2 -76 33 106 127 -92 -34 -79 -32 -6 -17 -49 41 -5 -22 53
000020 c3 00 ef 81 69 fc d0 1c b5 0f 81 30 f4 03 34 7f
       -61 0 -17 -127 105 -4 -48 28 -75 15 -127 48 -12 3 52 127
000030 fb f1 ea 26 f7 e0 7f fe f7 e8 0f f5 b3 9c db 53
       -5 -15 -22 38 -9 -32 127 -2 -9 -24 15 -11 -77 -100 -37 83
000040 17 b6 f4 a7 07 a1 d8 7f 55 7f c5 05 fc b6 9d 99
       23 -74 -12 -89 7 -95 -40 127 85 127 -59 5 -4 -74 -99 -103
000050 f0 f3 1f 1d 76 3b a1 69 06 81 7f a1 60 0b bd d7
       -16 -13 31 29 118 59 -95 105 6 -127 127 -95 96 11 -67 -41
000060 13 23 97 5e 7f 49 d6 f7 5d e6 a7 59 7f df 59 df
       19 35 -105 94 127 73 -42 -9 93 -26 -89 89 127 -33 89 -33
000070 24 16 93 3d cd 3d 7f b6 ed 24 b6 0e fc ab 7a 3c
       36 22 -109 61 -51 61 127 -74 -19 36 -74 14 -4 -85 122 60
000080 18 f4 41 f7 81 a9 b3 ac 31 2f 11 ec 7f 3e db 49
       24 -12 65 -9 -127 -87 -77 -84 49 47 17 -20 127 62 -37 73
000090 af 23 bc ef 1d 1a 45 00 7f f7 15 fe 2d 6e 63 1d
       -81 35 -68 -17 29 26 69 0 127 -9 21 -2 45 110 99 29
0000a0 5e 7f e2 b7 eb df e8 3a 0b 38 7f 81 ee 64 4b c8
       94 127 -30 -73 -21 -33 -24 58 11 56 127 -127 -18 100 75 -56
0000b0 02 68 46 a8 9e 9e 0a e9 d8 2a 3f 7f 29 20 6a ab
       2 104 70 -88 -98 -98 10 -23 -40 42 63 127 41 32 106 -85
0000c0 e0 f1 e2 eb 81 cb 2c c8 9c e2 55 c2 a7 57 7f 8a
       -32 -15 -30 -21 -127 -53 44 -56 -100 -30 85 -62 -89 87 127 -118
0000d0 81 dc d3 c6 a8 55 e9 b5 c0 c5 81 1d 37 37 5c 66
       -127 -36 -45 -58 -88 85 -23 -75 -64 -59 -127 29 55 55 92 102
0000e0 5e 76 86 cb 1f 19 e0 93 7f 01 6a 9d 6b de fb 18
       94 118 -122 -53 31 25 -32 -109 127 1 106 -99 107 -34 -5 24
0000f0 a4 7f db 27 81 47 c6 36 3c f2 34 2e b2 81 2e e1
       -92 127 -37 39 -127 71 -58 54 60 -14 52 46 -78 -127 46 -31
