neural_network/models/quant_model.tflite (tflite, 15600 bytes, 5 tensors)

sequential/dense_2/MatMul i1 [7, 16] scale=0.022792663 zero_point=0
0	0xe2	-0.6837799
1	0x1c	0.63819456
2	0x11	0.38747528
3	0xa8	-2.0057545
4	0xa4	-2.096925
5	0x28	0.91170657
6	0x81	-2.8946683
7	0x0e	0.31909728
8	0x09	0.20513397
9	0xf4	-0.27351195
10	0x9b	-2.302059
11	0xce	-1.1396332
12	0xc6	-1.3219745
13	0x14	0.45585328
14	0x14	0.45585328
15	0xde	-0.77495056
16	0xe0	-0.7293652
17	0x13	0.43306062
18	0x0c	0.27351195
19	0xfc	-0.09117065
20	0x00	0.0
21	0xc3	-1.3903525
22	0xdb	-0.84332854
23	0xec	-0.45585328
24	0xee	-0.41026795
25	0xf8	-0.1823413
26	0xff	-0.022792663
27	0xc9	-1.2535965
28	0xdc	-0.8205359
29	0xdd	-0.7977432
30	0xce	-1.1396332
31	0xf1	-0.34188995
32	0x14	0.45585328
33	0x14	0.45585328
34	0xc4	-1.3675598
35	0xd9	-0.88891387
36	0xf4	-0.27351195
37	0xf2	-0.31909728
38	0xd0	-1.0940478
39	0xde	-0.77495056
40	0xca	-1.2308038
41	0xbe	-1.5043157
42	0x0d	0.2963046
43	0x05	0.11396332
44	0x15	0.47864592
45	0x06	0.13675597
46	0xf2	-0.31909728
47	0x0f	0.34188995
48	0xe8	-0.5470239
49	0x15	0.47864592
50	0x10	0.3646826
51	0x05	0.11396332
52	0xf3	-0.2963046
53	0x9b	-2.302059
54	0x08	0.1823413
55	0xc6	-1.3219745
56	0xd8	-0.91170657
57	0x07	0.15954864
58	0x0e	0.31909728
59	0xfa	-0.13675597
60	0xe2	-0.6837799
61	0xb0	-1.8234131
62	0xec	-0.45585328
63	0xc9	-1.2535965
64	0x11	0.38747528
65	0x0d	0.2963046
66	0xde	-0.77495056
67	0x03	0.06837799
68	0x0b	0.2507193
69	0xe4	-0.63819456
70	0xff	-0.022792663
71	0xfb	-0.11396332
72	0xe5	-0.6154019
73	0x02	0.045585327
74	0x0c	0.27351195
75	0x03	0.06837799
76	0x12	0.41026795
77	0xf8	-0.1823413
78	0x05	0.11396332
79	0x06	0.13675597
80	0xf4	-0.27351195
81	0xe8	-0.5470239
82	0xf3	-0.2963046
83	0x03	0.06837799
84	0x0e	0.31909728
85	0x0e	0.31909728
86	0x04	0.09117065
87	0x0d	0.2963046
88	0x08	0.1823413
89	0x06	0.13675597
90	0x0c	0.27351195
91	0xec	-0.45585328
92	0xf7	-0.20513397
93	0x11	0.38747528
94	0xeb	-0.47864592
95	0x0f	0.34188995
96	0x14	0.45585328
97	0xf5	-0.2507193
98	0x04	0.09117065
99	0xee	-0.41026795
100	0x10	0.3646826
101	0x1a	0.5926092
102	0x07	0.15954864
103	0x0a	0.22792664
104	0x04	0.09117065
105	0xd7	-0.9344992
106	0xfa	-0.13675597
107	0x06	0.13675597
108	0x15	0.47864592
109	0xe3	-0.66098726
110	0x07	0.15954864
111	0x12	0.41026795

sequential/dense_1/MatMul i1 [16, 8] scale=0.013981388 zero_point=0
0	0x00	0.0
1	0xf4	-0.16777666
2	0x2d	0.62916243
3	0xec	-0.27962777
4	0xd9	-0.54527414
5	0xda	-0.53129274
6	0x23	0.4893486
7	0x14	0.27962777
8	0xd5	-0.6011997
9	0xdd	-0.4893486
10	0xfe	-0.027962776
11	0x37	0.76897633
12	0x34	0.7270322
13	0xfb	-0.06990694
14	0x11	0.2376836
15	0xfe	-0.027962776
16	0x03	0.041944165
17	0x9c	-1.3981388
18	0x81	-1.7756363
19	0x4f	1.1045296
20	0x4d	1.0765668
21	0xfd	-0.041944165
22	0x8a	-1.6498038
23	0xab	-1.188418
24	0x47	0.9926785
25	0xfe	-0.027962776
26	0xf7	-0.1258325
27	0xe0	-0.4474044
28	0xd8	-0.55925554
29	0xee	-0.251665
30	0xfe	-0.027962776
31	0xff	-0.013981388
32	0xfe	-0.027962776
33	0x3d	0.8528647
34	0xf4	-0.16777666
35	0xe1	-0.433423
36	0xd9	-0.54527414
37	0xed	-0.26564637
38	0xfc	-0.05592555
39	0x11	0.2376836
40	0x00	0.0
41	0x0f	0.20972082
42	0x09	0.1258325
43	0x23	0.4893486
44	0x6e	1.5379527
45	0xef	-0.2376836
46	0xfa	-0.08388833
47	0xb1	-1.1045296
48	0x24	0.50333
49	0x1b	0.37749746
50	0xfc	-0.05592555
51	0xf5	-0.15379527
52	0xf1	-0.20972082
53	0x15	0.29360914
54	0xfd	-0.041944165
55	0x14	0.27962777
56	0x00	0.0
57	0x15	0.29360914
58	0xfd	-0.041944165
59	0x67	1.4400829
60	0x63	1.3841574
61	0x60	1.3422133
62	0xf1	-0.20972082
63	0x0a	0.13981389
64	0xff	-0.013981388
65	0x11	0.2376836
66	0xfc	-0.05592555
67	0x69	1.4680457
68	0x3c	0.8388833
69	0x43	0.936753
70	0xec	-0.27962777
71	0xf9	-0.09786972
72	0x2a	0.5872183
73	0xff	-0.013981388
74	0xe7	-0.3495347
75	0xce	-0.6990694
76	0xd2	-0.64314383
77	0x11	0.2376836
78	0xfe	-0.027962776
79	0xff	-0.013981388
80	0x40	0.8948088
81	0x04	0.05592555
82	0xef	-0.2376836
83	0xe9	-0.32157192
84	0xe9	-0.32157192
85	0xfd	-0.041944165
86	0x33	0.7130508
87	0xfb	-0.06990694
88	0x07	0.09786972
89	0xf5	-0.15379527
90	0x36	0.7549949
91	0xea	-0.30759054
92	0xe8	-0.33555332
93	0xf0	-0.2237022
94	0x1b	0.37749746
95	0x18	0.33555332
96	0xfe	-0.027962776
97	0xfa	-0.08388833
98	0x2c	0.6151811
99	0xe6	-0.3635161
100	0xe8	-0.33555332
101	0xe8	-0.33555332
102	0x1d	0.40546024
103	0x11	0.2376836
104	0xfd	-0.041944165
105	0xf5	-0.15379527
106	0xfa	-0.08388833
107	0x54	1.1744366
108	0x48	1.00666
109	0x3f	0.8808274
110	0x17	0.32157192
111	0xf4	-0.16777666
112	0xff	-0.013981388
113	0xf4	-0.16777666
114	0xef	-0.2376836
115	0x4e	1.0905483
116	0x48	1.00666
117	0xff	-0.013981388
118	0xf7	-0.1258325
119	0x25	0.51731133
120	0x01	0.013981388
121	0x34	0.7270322
122	0x3e	0.866846
123	0xe9	-0.32157192
124	0xe5	-0.37749746
125	0x0f	0.20972082
126	0xf4	-0.16777666
127	0xee	-0.251665

sequential/dense/MatMul i1 [8, 528] scale=0.006724067 zero_point=0
0	0x02	0.013448134
1	0x02	0.013448134
2	0xf3	-0.08741287
3	0x00	0.0
4	0x06	0.040344402
5	0x1a	0.17482574
6	0xfd	-0.020172201
7	0xf8	-0.053792536
8	0x10	0.10758507
9	0x08	0.053792536
10	0xfb	-0.033620335
11	0xf9	-0.04706847
12	0xf7	-0.060516603
13	0x28	0.26896268
14	0x01	0.006724067
15	0x0c	0.080688804
16	0xf9	-0.04706847
17	0x10	0.10758507
18	0x05	0.033620335
19	0xe7	-0.16810167
20	0xf5	-0.07396474
21	0x0e	0.09413694
22	0xf4	-0.080688804
23	0x02	0.013448134
24	0xfa	-0.040344402
25	0xd2	-0.3093071
26	0x0e	0.09413694
27	0x03	0.020172201
28	0x11	0.11430914
29	0xfd	-0.020172201
30	0xfe	-0.013448134
31	0xf7	-0.060516603
32	0xf3	-0.08741287
33	0xe7	-0.16810167
34	0xf3	-0.08741287
35	0xda	-0.25551456
36	0xd4	-0.29585895
37	0xec	-0.13448134
38	0xe0	-0.21517015
39	0x2e	0.3093071
40	0xec	-0.13448134
41	0xe5	-0.18154982
42	0xff	-0.006724067
43	0x05	0.033620335
44	0x3c	0.40344402
45	0xde	-0.22861828
46	0x12	0.12103321
47	0x0d	0.08741287
48	0xf8	-0.053792536
49	0xf3	-0.08741287
50	0x09	0.060516603
51	0xe4	-0.18827388
52	0x0a	0.06724067
53	0x02	0.013448134
54	0xef	-0.11430914
55	0xee	-0.12103321
56	0xf9	-0.04706847
57	0xf8	-0.053792536
58	0xfd	-0.020172201
59	0x0e	0.09413694
60	0x07	0.04706847
61	0x41	0.43706435
62	0xf8	-0.053792536
63	0x0c	0.080688804
64	0xfd	-0.020172201
65	0x1f	0.20844609
66	0x14	0.13448134
67	0xf3	-0.08741287
68	0xf3	-0.08741287
69	0x11	0.11430914
70	0x06	0.040344402
71	0x0b	0.07396474
72	0x08	0.053792536
73	0xd4	-0.29585895
74	0xfb	-0.033620335
75	0x07	0.04706847
76	0xfb	-0.033620335
77	0xee	-0.12103321
78	0x06	0.040344402
79	0xef	-0.11430914
80	0xfc	-0.026896268
81	0xf6	-0.06724067
82	0xca	-0.36309963
83	0x11	0.11430914
84	0xec	-0.13448134
85	0x1a	0.17482574
86	0xf4	-0.080688804
87	0xfd	-0.020172201
88	0xed	-0.12775728
89	0x3a	0.38999587
90	0xda	-0.25551456
91	0x04	0.026896268
92	0x16	0.14792947
93	0xd0	-0.32275522
94	0xde	-0.22861828
95	0xfb	-0.033620335
96	0x18	0.16137761
97	0xf6	-0.06724067
98	0x0f	0.100861005
99	0xe4	-0.18827388
100	0xf7	-0.060516603
101	0xf6	-0.06724067
102	0xee	-0.12103321
103	0xf6	-0.06724067
104	0x01	0.006724067
105	0x03	0.020172201
106	0x12	0.12103321
107	0x10	0.10758507
108	0x04	0.026896268
109	0x50	0.53792536
110	0xf5	-0.07396474
111	0x15	0.1412054
112	0xfc	-0.026896268
113	0x1a	0.17482574
114	0xf1	-0.100861005
115	0xdf	-0.2218942
116	0xfb	-0.033620335
117	0xfd	-0.020172201
118	0x1e	0.20172201
119	0x03	0.020172201
120	0x04	0.026896268
121	0xe0	-0.21517015
122	0xf5	-0.07396474
123	0x1b	0.18154982
124	0x03	0.020172201
125	0x0e	0.09413694
126	0x04	0.026896268
127	0xec	-0.13448134
128	0xf0	-0.10758507
129	0xed	-0.12775728
130	0xcf	-0.32947928
131	0x24	0.24206641
132	0xe8	-0.16137761
133	0x0d	0.08741287
134	0xf1	-0.100861005
135	0x23	0.23534235
136	0xf3	-0.08741287
137	0x09	0.060516603
138	0xc7	-0.3832718
139	0xfc	-0.026896268
140	0xd2	-0.3093071
141	0xcd	-0.34292743
142	0xe8	-0.16137761
143	0xf6	-0.06724067
144	0x0e	0.09413694
145	0xf4	-0.080688804
146	0x0b	0.07396474
147	0xf2	-0.09413694
148	0x02	0.013448134
149	0xe9	-0.15465355
150	0xef	-0.11430914
151	0xe7	-0.16810167
152	0xfb	-0.033620335
153	0x0f	0.100861005
154	0x24	0.24206641
155	0x03	0.020172201
156	0x16	0.14792947
157	0x4c	0.5110291
158	0xef	-0.11430914
159	0x08	0.053792536
160	0x00	0.0
161	0x24	0.24206641
162	0x12	0.12103321
163	0xef	-0.11430914
164	0xf4	-0.080688804
165	0x11	0.11430914
166	0x1d	0.19499794
167	0x14	0.13448134
168	0xf2	-0.09413694
169	0xef	-0.11430914
170	0xe5	-0.18154982
171	0x1c	0.18827388
172	0xee	-0.12103321
173	0xd2	-0.3093071
174	0x09	0.060516603
175	0xfd	-0.020172201
176	0xe8	-0.16137761
177	0xcc	-0.3496515
178	0xc8	-0.37654775
179	0x0c	0.080688804
180	0xe6	-0.17482574
181	0x1a	0.17482574
182	0x13	0.12775728
183	0xcc	-0.3496515
184	0xee	-0.12103321
185	0x1c	0.18827388
186	0xdc	-0.24206641
187	0xfd	-0.020172201
188	0xe6	-0.17482574
189	0xbb	-0.46396062
190	0x0c	0.080688804
191	0x20	0.21517015
192	0x15	0.1412054
193	0xff	-0.006724067
194	0x12	0.12103321
195	0xf9	-0.04706847
196	0x01	0.006724067
197	0xe8	-0.16137761
198	0x01	0.006724067
199	0xe7	-0.16810167
200	0x09	0.060516603
201	0x0c	0.080688804
202	0x18	0.16137761
203	0x06	0.040344402
204	0x0c	0.080688804
205	0x4a	0.49758095
206	0xed	-0.12775728
207	0x04	0.026896268
208	0x0a	0.06724067
209	0x17	0.15465355
210	0x0f	0.100861005
211	0xdb	-0.24879047
212	0x01	0.006724067
213	0x0a	0.06724067
214	0xe7	-0.16810167
215	0xfe	-0.013448134
216	0xd2	-0.3093071
217	0xed	-0.12775728
218	0xfd	-0.020172201
219	0x06	0.040344402
220	0xe0	-0.21517015
221	0xfa	-0.040344402
222	0x14	0.13448134
223	0xeb	-0.1412054
224	0x07	0.04706847
225	0xf8	-0.053792536
226	0xe0	-0.21517015
227	0x1e	0.20172201
228	0xf2	-0.09413694
229	0xf9	-0.04706847
230	0x02	0.013448134
231	0xed	-0.12775728
232	0xec	-0.13448134
233	0x02	0.013448134
234	0xd2	-0.3093071
235	0x18	0.16137761
236	0xce	-0.33620334
237	0xc2	-0.41689217
238	0x0e	0.09413694
239	0x28	0.26896268
240	0x19	0.16810167
241	0xf7	-0.060516603
242	0x16	0.14792947
243	0xef	-0.11430914
244	0x03	0.020172201
245	0xd7	-0.27568674
246	0x06	0.040344402
247	0xe4	-0.18827388
248	0x11	0.11430914
249	0xea	-0.14792947
250	0x20	0.21517015
251	0x0d	0.08741287
252	0x04	0.026896268
253	0x56	0.5782698
254	0xf0	-0.10758507
255	0x05	0.033620335

sequential/conv2d_1/Conv2D i1 [16, 3, 3, 32]
0	0xfa	-6
1	0xd7	-41
2	0x09	9
3	0xfa	-6
4	0x07	7
5	0x0f	15
6	0xfc	-4
7	0xe6	-26
8	0x10	16
9	0x18	24
10	0x18	24
11	0xea	-22
12	0xf7	-9
13	0x14	20
14	0xeb	-21
15	0xfb	-5
16	0x11	17
17	0xc6	-58
18	0x34	52
19	0xe7	-25
20	0xee	-18
21	0x18	24
22	0xc7	-57
23	0x14	20
24	0x16	22
25	0xaf	-81
26	0x0f	15
27	0xed	-19
28	0x30	48
29	0x20	32
30	0x0e	14
31	0x26	38
32	0x05	5
33	0x0f	15
34	0x24	36
35	0xd3	-45
36	0x0e	14
37	0xe7	-25
38	0xce	-50
39	0x0c	12
40	0x16	22
41	0xc1	-63
42	0xba	-70
43	0x00	0
44	0x10	16
45	0x0f	15
46	0xf4	-12
47	0x0e	14
48	0xf2	-14
49	0x0b	11
50	0xf6	-10
51	0xfc	-4
52	0x22	34
53	0xd5	-43
54	0xd2	-46
55	0xd8	-40
56	0x0f	15
57	0x06	6
58	0x24	36
59	0x0c	12
60	0xf4	-12
61	0x12	18
62	0xeb	-21
63	0xf5	-11
64	0xdd	-35
65	0xea	-22
66	0x22	34
67	0xf3	-13
68	0xfa	-6
69	0xe9	-23
70	0xf1	-15
71	0xfa	-6
72	0xce	-50
73	0xb0	-80
74	0x05	5
75	0x21	33
76	0x19	25
77	0x35	53
78	0x28	40
79	0x0f	15
80	0xe2	-30
81	0x1e	30
82	0xc0	-64
83	0xfc	-4
84	0x18	24
85	0xcb	-53
86	0xe7	-25
87	0x11	17
88	0xef	-17
89	0xfa	-6
90	0x14	20
91	0x0f	15
92	0x0a	10
93	0x0e	14
94	0x04	4
95	0x15	21
96	0xe7	-25
97	0xc1	-63
98	0xd4	-44
99	0x39	57
100	0xe3	-29
101	0x03	3
102	0xe2	-30
103	0x03	3
104	0x05	5
105	0xb4	-76
106	0x24	36
107	0xf6	-10
108	0x03	3
109	0xf4	-12
110	0xf4	-12
111	0xf6	-10
112	0xfb	-5
113	0x81	-127
114	0xe0	-32
115	0x10	16
116	0x01	1
117	0x17	23
118	0xb8	-72
119	0xf7	-9
120	0x03	3
121	0x9d	-99
122	0xf9	-7
123	0x0e	14
124	0x08	8
125	0x09	9
126	0x03	3
127	0x20	32
128	0xf5	-11
129	0x03	3
130	0xfb	-5
131	0xfd	-3
132	0x0d	13
133	0xf2	-14
134	0x02	2
135	0xff	-1
136	0xf5	-11
137	0x07	7
138	0xde	-34
139	0xd5	-43
140	0xd7	-41
141	0x00	0
142	0xf7	-9
143	0x00	0
144	0xad	-83
145	0xf9	-7
146	0xd0	-48
147	0x0a	10
148	0xf3	-13
149	0xf3	-13
150	0x0b	11
151	0xe3	-29
152	0xf2	-14
153	0x17	23
154	0xff	-1
155	0x12	18
156	0x11	17
157	0xf1	-15
158	0xe8	-24
159	0x08	8
160	0x25	37
161	0xeb	-21
162	0x05	5
163	0xf5	-11
164	0xe9	-23
165	0xbd	-67
166	0xcf	-49
167	0x2c	44
168	0x23	35
169	0xd4	-44
170	0xff	-1
171	0x13	19
172	0xf9	-7
173	0x21	33
174	0x24	36
175	0xe3	-29
176	0xe3	-29
177	0xf2	-14
178	0xef	-17
179	0xe0	-32
180	0x04	4
181	0x0c	12
182	0xef	-17
183	0x04	4
184	0xf9	-7
185	0xeb	-21
186	0x1b	27
187	0xea	-22
188	0x14	20
189	0x15	21
190	0xf5	-11
191	0x06	6
192	0x05	5
193	0xe6	-26
194	0xec	-20
195	0xf1	-15
196	0x2a	42
197	0xfd	-3
198	0xf0	-16
199	0xf7	-9
200	0xfa	-6
201	0x00	0
202	0x0e	14
203	0xf0	-16
204	0xfb	-5
205	0xdd	-35
206	0xff	-1
207	0xf1	-15
208	0xdd	-35
209	0xc2	-62
210	0xf2	-14
211	0x0e	14
212	0xf4	-12
213	0x11	17
214	0xee	-18
215	0xc1	-63
216	0x14	20
217	0xe4	-28
218	0xfb	-5
219	0x00	0
220	0x0e	14
221	0x01	1
222	0x24	36
223	0x04	4
224	0xe1	-31
225	0x1d	29
226	0xe7	-25
227	0x10	16
228	0x0e	14
229	0x02	2
230	0x0d	13
231	0x09	9
232	0xf0	-16
233	0xf8	-8
234	0x0c	12
235	0xe7	-25
236	0xec	-20
237	0x11	17
238	0x10	16
239	0xfa	-6
240	0xf7	-9
241	0x09	9
242	0x23	35
243	0x00	0
244	0xd8	-40
245	0xe9	-23
246	0x02	2
247	0xca	-54
248	0xec	-20
249	0xfe	-2
250	0x29	41
251	0xf4	-12
252	0xf6	-10
253	0xcc	-52
254	0x0c	12
255	0xf5	-11

sequential/conv2d/Conv2D i1 [32, 3, 3, 1]
0	0xfd	-3
1	0x50	80
2	0x1d	29
3	0xd5	-43
4	0x1c	28
5	0x3c	60
6	0xd0	-48
7	0x9a	-102
8	0x81	-127
9	0x69	105
10	0xd9	-39
11	0x12	18
12	0xf3	-13
13	0xa5	-91
14	0x6c	108
15	0xc0	-64
16	0x81	-127
17	0x54	84
18	0x81	-127
19	0xfb	-5
20	0x40	64
21	0x55	85
22	0x3a	58
23	0x36	54
24	0x70	112
25	0x08	8
26	0xd1	-47
27	0xda	-38
28	0x7f	127
29	0xf1	-15
30	0xe1	-31
31	0xe9	-23
32	0x26	38
33	0x3b	59
34	0x83	-125
35	0x29	41
36	0x6a	106
37	0x3d	61
38	0xcd	-51
39	0xba	-70
40	0x11	17
41	0x37	55
42	0x14	20
43	0x81	-127
44	0xa7	-89
45	0x87	-121
46	0x06	6
47	0x89	-119
48	0xc7	-57
49	0xed	-19
50	0x8c	-116
51	0x29	41
52	0x7f	127
53	0xd8	-40
54	0x01	1
55	0xab	-85
56	0xdd	-35
57	0x41	65
58	0xd0	-48
59	0x81	-127
60	0x15	21
61	0x46	70
62	0xd7	-41
63	0xed	-19
64	0x7f	127
65	0x1e	30
66	0x10	16
67	0x1b	27
68	0xa4	-92
69	0x18	24
70	0x81	-127
71	0xc8	-56
72	0x40	64
73	0x8e	-114
74	0x67	103
75	0xd6	-42
76	0x0a	10
77	0xfe	-2
78	0xd1	-47
79	0x7f	127
80	0x86	-122
81	0x58	88
82	0xcb	-53
83	0x81	-127
84	0xea	-22
85	0xc2	-62
86	0xc8	-56
87	0xb7	-73
88	0xd4	-44
89	0x37	55
90	0x81	-127
91	0x13	19
92	0x35	53
93	0xac	-84
94	0xd9	-39
95	0x32	50
96	0x4e	78
97	0xa5	-91
98	0x5a	90
99	0x93	-109
100	0x91	-111
101	0x81	-127
102	0xf5	-11
103	0x1d	29
104	0x58	88
105	0x77	119
106	0x5c	92
107	0x65	101
108	0xa8	-88
109	0x23	35
110	0x8d	-115
111	0xd5	-43
112	0x10	16
113	0x0c	12
114	0x55	85
115	0xfc	-4
116	0x7f	127
117	0x7f	127
118	0xf4	-12
119	0xea	-22
120	0x3d	61
121	0xdb	-37
122	0x03	3
123	0x85	-123
124	0x60	96
125	0x7d	125
126	0x57	87
127	0x7f	127
128	0x04	4
129	0x0a	10
130	0xb0	-80
131	0xb3	-77
132	0xd9	-39
133	0xb8	-72
134	0x11	17
135	0x2e	46
136	0x63	99
137	0xbc	-68
138	0xfb	-5
139	0x7f	127
140	0xdb	-37
141	0xc8	-56
142	0x58	88
143	0xe9	-23
144	0xd8	-40
145	0x81	-127
146	0x97	-105
147	0xa6	-90
148	0x32	50
149	0x09	9
150	0xd8	-40
151	0x2c	44
152	0x4a	74
153	0x6b	107
154	0x81	-127
155	0x31	49
156	0x18	24
157	0xb7	-73
158	0x59	89
159	0xfe	-2
160	0xb5	-75
161	0x6d	109
162	0x50	80
163	0x81	-127
164	0xb3	-77
165	0x9a	-102
166	0xec	-20
167	0xda	-38
168	0xc1	-63
169	0x6b	107
170	0x3f	63
171	0x06	6
172	0x8f	-113
173	0x5b	91
174	0x36	54
175	0x05	5
176	0xa9	-87
177	0xe6	-26
178	0x7f	127
179	0xa8	-88
180	0xfb	-5
181	0xcb	-53
182	0x0f	15
183	0x70	112
184	0x4c	76
185	0x07	7
186	0x12	18
187	0x7f	127
188	0x06	6
189	0xd5	-43
190	0xde	-34
191	0x7f	127
192	0xa6	-90
193	0xd1	-47
194	0xf0	-16
195	0x3b	59
196	0xb8	-72
197	0xa2	-94
198	0xf8	-8
199	0x86	-122
200	0x7c	124
201	0x35	53
202	0xc0	-64
203	0xc4	-60
204	0x35	53
205	0xf1	-15
206	0x81	-127
207	0x9d	-99
208	0xf3	-13
209	0x15	21
210	0xdf	-33
211	0xcd	-51
212	0x37	55
213	0x0d	13
214	0x7f	127
215	0xd8	-40
216	0x44	68
217	0xc7	-57
218	0x29	41
219	0xdb	-37
220	0x6f	111
221	0xbf	-65
222	0xfb	-5
223	0x81	-127
224	0xf2	-14
225	0x0b	11
226	0x12	18
227	0x62	98
228	0x68	104
229	0x03	3
230	0xe9	-23
231	0x3d	61
232	0x81	-127
233	0x8d	-115
234	0x6c	108
235	0x0b	11
236	0x7f	127
237	0xe1	-31
238	0xd4	-44
239	0x07	7
240	0x94	-108
241	0x0b	11
242	0xc4	-60
243	0x50	80
244	0x51	81
245	0xee	-18
246	0x3c	60
247	0x1d	29
248	0x9a	-102
249	0x1d	29
250	0x44	68
251	0x81	-127
252	0x0e	14
253	0x38	56
254	0x06	6
255	0xb0	-80
